src/down_model/model4/decoder.pth (torch_old, 20275 bytes, 5 tensors)

lstm.weight_ih_l0 f4 [96, 24]
0	0x3fbbbedc	1.4667621
1	0xbfa7acfc	-1.3099666
2	0x3f670774	0.9024575
3	0xbe15443e	-0.14576814
4	0xbf5b9d98	-0.85787344
5	0x3eaea56d	0.34110585
6	0x3e0e5ecc	0.1390335
7	0xbf82c6b6	-1.0216892
8	0x3e9aaf77	0.30211994
9	0xbf284d61	-0.6574307
10	0x3e295fad	0.16540404
11	0x3fdad073	1.7094864
12	0x40358059	2.8359587
13	0x3f4ddbd7	0.80413574
14	0xbefb53eb	-0.49087462
15	0x3f299fca	0.66259444
16	0xbf10a2d0	-0.5649843
17	0xbd80a55f	-0.06281542
18	0x3f896c78	1.0736227
19	0xbfa450af	-1.2837123
20	0xbf4c4578	-0.797935
21	0x3f2f6a9e	0.6852206
22	0xbd43cf00	-0.047804832
23	0xc0135262	-2.3019032
24	0x400e778b	2.2260463
25	0x3e87ee43	0.26548967
26	0x3f3e9810	0.7445078
27	0x3f858db8	1.0433874
28	0xbece063a	-0.40239125
29	0x3e7ee439	0.24891748
30	0x3f238c81	0.63886267
31	0x3d8d63df	0.069038145
32	0x3e114dda	0.14189854
33	0xbebce40a	-0.3689273
34	0xbf829be7	-1.0203828
35	0xbe177054	-0.14788944
36	0x4037065c	2.8597631
37	0xbfd0bb23	-1.630711
38	0xbd754772	-0.05988259
39	0xbe10bb14	-0.14133865
40	0x3eb77807	0.3583376
41	0xbebc1d93	-0.36741313
42	0x3f53edf8	0.82784986
43	0xbf8fc3eb	-1.1231664
44	0x4005732f	2.0851552
45	0xbf1e43d8	-0.6182227
46	0x3fb4bf91	1.4120961
47	0xbfa4d272	-1.2876723
48	0xbe7c7929	-0.24655594
49	0x3ddd0bd0	0.10793269
50	0x3cbc5b52	0.022992764
51	0xbf37dae4	-0.71818376
52	0xbfcf2e7a	-1.6186059
53	0x3f18d760	0.59703636
54	0x3dfb517b	0.122714005
55	0xbf111099	-0.5666595
56	0xbeb51c9a	-0.35373384
57	0xbd88d201	-0.0668068
58	0x3f5f0eb6	0.8713182
59	0x3f8cdad7	1.1004285
60	0x3ef2e6cd	0.47441712
61	0xbdb6de22	-0.08929087
62	0xbfd3db35	-1.6551272
63	0x3fc3f470	1.5308971
64	0xbf6a03e1	-0.9141217
65	0x3e25b60c	0.16182727
66	0x3fce588e	1.6120775
67	0xbf85c878	-1.0451803
68	0xbedbb4c6	-0.42911357
69	0x3ef13a64	0.4711486
70	0xbf895d26	-1.0731552
71	0xbfc7f998	-1.5623045
72	0x3ee717f6	0.45135468
73	0xbf61aace	-0.8815125
74	0xc00f32b0	-2.2374687
75	0xbf548bdc	-0.8302591
76	0xbf42ba32	-0.7606536
77	0x3ec1fb77	0.37887165
78	0x3e7d363d	0.24727722
79	0xbd99b5b3	-0.075053595
80	0xbce8d59d	-0.028422171
81	0xbe9efb51	-0.31051114
82	0x3f137665	0.5760253
83	0x3f8e6097	1.1123227
84	0x3fa3fe66	1.2812011
85	0xbdbb5d92	-0.091487065
86	0xbef196de	-0.47185415
87	0x3e88179a	0.26580507
88	0xbe34a619	-0.17641486
89	0x3ff6ba0f	1.927553
90	0x3f922a0b	1.141908
91	0xbf587f2d	-0.84569055
92	0xc035d1c2	-2.8409276
93	0x3f1800e3	0.59376353
94	0xbd49505c	-0.049148902
95	0xc038ea17	-2.8892877
96	0x4016aef6	2.3544288
97	0x3f01ca28	0.5069909
98	0xbe8e22af	-0.27760836
99	0x3ec04f9a	0.3756073
100	0xbe56badb	-0.20969717
101	0x400e38a5	2.2222073
102	0xbfb9929b	-1.4497865
103	0xc0149d48	-2.3220997
104	0x3bd67f37	0.006545927
105	0x3f752ce8	0.95771646
106	0xbff557f4	-1.9167466
107	0x4062c599	3.5433104
108	0x400e8de0	2.2274094
109	0x400643e7	2.0978944
110	0xbe1aa065	-0.15100248
111	0xbf490a4c	-0.78531337
112	0xbfb17f4d	-1.3866974
113	0x3fe197be	1.7624433
114	0x3e1c934e	0.15290567
115	0x3ecb4cb7	0.39706966
116	0x3e970dc3	0.29502687
117	0x3f892df6	1.0717151
118	0x3ff1f8b2	1.8904021
119	0x3e526517	0.20546375
120	0x3f938e44	1.1527791
121	0xbfb18249	-1.3867885
122	0x3f3fb035	0.74878246
123	0xbefee313	-0.4978262
124	0xbfb1335c	-1.3843799
125	0xbe2724d9	-0.1632265
126	0x3f917ab2	1.1365569
127	0xbeae84ad	-0.340856
128	0xbf204034	-0.62597966
129	0xbfa69e2e	-1.3017023
130	0x3e59418e	0.21216413
131	0x3f775263	0.9661009
132	0x3f6f5fe0	0.9350567
133	0x3d36bf79	0.044616196
134	0xbe059015	-0.13043244
135	0x3f5c7696	0.8611845
136	0xbeb4f788	-0.353451
137	0xbe05ba7e	-0.13059422
138	0x3f3922fe	0.7231902
139	0xbf802063	-1.0009884
140	0xbd01f2ea	-0.0317258
141	0x3eb2de09	0.34935024
142	0xbc19d556	-0.009389242
143	0xc02cdad4	-2.7008562
144	0x3f70235d	0.9380396
145	0x3cd62a97	0.026143355
146	0xbe21d64e	-0.15804407
147	0xb9d1f43b	-0.00040045552
148	0xbfa6bab9	-1.3025733
149	0x3e8bc73e	0.27300447
150	0x3da33fa6	0.07971124
151	0xbf65a021	-0.8969746
152	0x3e5aa506	0.21352014
153	0xbe72fba3	-0.23728804
154	0x3eef1fdd	0.46703997
155	0x3fa6d9ec	1.3035254
156	0x3f2d1ea8	0.676249
157	0xbddaaeb7	-0.106778555
158	0xbfbc4a24	-1.4710126
159	0x3f4b1f08	0.79344225
160	0xbf6d6949	-0.9273878
161	0x3ee428d0	0.44562387
162	0x3fe14562	1.7599299
163	0xbfcb2fa8	-1.5873919
164	0x3e00bdd6	0.12572417
165	0x3dc1b357	0.094580345
166	0xbdc36555	-0.09540812
167	0xbfe66196	-1.7998531
168	0x3ffddc19	1.9832793
169	0xbf24426b	-0.64163846
170	0x3e7d42c7	0.24732505
171	0x3fa17383	1.2613376
172	0xbe302d9e	-0.17204902
173	0xbe01ce16	-0.12676272
174	0x3dbde318	0.0927183
175	0x3ca76cc2	0.020437602
176	0xbfbdee6c	-1.4838386
177	0x3e02cacf	0.12772678
178	0xbfa0f645	-1.2575155
179	0x3eaef947	0.3417456
180	0x3ffc59eb	1.9714941
181	0xbedf3ffa	-0.43603498
182	0xbd1652a6	-0.036699913
183	0xbf096609	-0.5367132
184	0xbeaa6704	-0.3328172
185	0xbec2ebd3	-0.38070545
186	0x3e8105ec	0.2519983
187	0xbf0c088f	-0.5470056
188	0xbeae58fb	-0.34052262
189	0x3f252e37	0.64523643
190	0x3fc3eaca	1.5306027
191	0xbff188ea	-1.8869908
192	0x3e8c07fa	0.27349836
193	0xbfbac812	-1.4592307
194	0x408b7aa8	4.3587227
195	0xbfaa5968	-1.3308535
196	0x3eb0ee2f	0.3455672
197	0xbef4f6f7	-0.4784467
198	0x4004ae46	2.0731368
199	0x3e9e312e	0.30896896
200	0xc065128d	-3.5792572
201	0x3f5bfb48	0.859303
202	0xbf4156a5	-0.75522834
203	0x3e2c944b	0.16853444
204	0x403f0070	2.9844017
205	0xbf873c6f	-1.0565318
206	0xbf0b82fd	-0.5449675
207	0x4036c639	2.8558486
208	0x3f979373	1.1841873
209	0x40d17144	6.5450764
210	0x406ac078	3.6679974
211	0x40194d40	2.39534
212	0x408643be	4.1957693
213	0x3ef2ad04	0.47397625
214	0xbfaffe29	-1.3749439
215	0xc0016ff1	-2.0224574
216	0x3f91f311	1.1402303
217	0xbf86f831	-1.0544492
218	0x3fc9cec1	1.5766221
219	0xbe333d9a	-0.17503968
220	0xbf81c3ba	-1.0137856
221	0xbe2853c1	-0.164382
222	0x3f798566	0.97469175
223	0xbdbc76b3	-0.092023276
224	0x3f0611be	0.5237082
225	0xbeed88dc	-0.46393478
226	0x3e6a6a69	0.22892155
227	0x3f701f63	0.9379789
228	0x3fe0cb50	1.7562046
229	0xbe99b31f	-0.3001947
230	0xbf39a6f4	-0.72520375
231	0x3f12eb6c	0.57390475
232	0xbf09d132	-0.5383483
233	0xbe8f5c35	-0.28000036
234	0x3f4d0591	0.8008662
235	0xbefb7733	-0.4911438
236	0xbf52fe33	-0.8241913
237	0x3f136be5	0.5758651
238	0xbe84d7f4	-0.2594601
239	0xc0508f72	-3.2587552
240	0x3f916866	1.1359985
241	0xbd84fe25	-0.06493787
242	0x3efa53c3	0.4889203
243	0xbf040fbe	-0.5158652
244	0xbf202fe0	-0.6257305
245	0x3dab1913	0.08354392
246	0x3e98bbd8	0.29830813
247	0xbf889e0f	-1.0673236
248	0x3e847336	0.2586915
249	0x3b909a1a	0.0044129016
250	0xbf15f70a	-0.58580077
251	0x3f479d9b	0.7797486
252	0x3fb18fa6	1.3871963
253	0x3f875e02	1.0575564
254	0xbf72b16c	-0.94801974
255	0xbe032144	-0.12805659

lstm.weight_hh_l0 f4 [96, 24]
0	0x3fc65b22	1.5496562
1	0x3e917f02	0.28417212
2	0x3e9645de	0.2935018
3	0x3f966988	1.1750956
4	0xbee4d4ac	-0.44693506
5	0xbeaefbe8	-0.34176564
6	0x3e12eb91	0.14347674
7	0x3d7434af	0.059620555
8	0x3db267f4	0.08711234
9	0x3f67b0a2	0.90503895
10	0x3e252637	0.16127859
11	0x3f9e8b20	1.2386208
12	0x40204edf	2.504814
13	0x3f0aef41	0.5427132
14	0xbdcaa6fa	-0.098951295
15	0x3f70ad31	0.9401427
16	0xbf36d064	-0.7141173
17	0x3ee7e09d	0.45288554
18	0x3f5c10ae	0.8596295
19	0xbf52ca1d	-0.8233965
20	0xbf151c60	-0.5824642
21	0xbd0b0e67	-0.033949282
22	0xbecad7bb	-0.39617714
23	0xbebd533d	-0.36977568
24	0x3f6f50ec	0.9348285
25	0x3ff22d4d	1.8920075
26	0x3f27b285	0.65506774
27	0x3db711bf	0.08938932
28	0xbe9f9bfa	-0.31173688
29	0x3ee94c11	0.45565847
30	0xbdba4168	-0.090945065
31	0x3e0a3c61	0.13499595
32	0x3e7cf884	0.24704176
33	0xbe8a2298	-0.26979518
34	0xbfa0f142	-1.2573626
35	0x3ebfd49d	0.374669
36	0x3f8dd9eb	1.1082128
37	0x3d95429d	0.07288096
38	0x3e220d3e	0.15825364
39	0x3ea9a2d1	0.33132032
40	0xbf866a42	-1.0501177
41	0xbe4e0f0e	-0.2012293
42	0x3f805dbd	1.0028607
43	0xbf8cdd54	-1.1005044
44	0xbe140431	-0.14454724
45	0x3e32732e	0.1742675
46	0x4014d64c	2.3255796
47	0xbf52b520	-0.82307625
48	0xbd8bc5ba	-0.06824823
49	0x3fa5d17d	1.2954556
50	0xbddc0d0a	-0.107446745
51	0x3f5d5bf1	0.86468416
52	0xbfde8ea1	-1.7387277
53	0xbebd717b	-0.3700064
54	0xbe7db82d	-0.24777289
55	0xbf11ce80	-0.5695572
56	0x3f01c161	0.506857
57	0x3fc08480	1.5040436
58	0x3eb56f44	0.3543645
59	0x3f9e21b5	1.2354037
60	0x3ff5a841	1.9191972
61	0x3f52b9aa	0.8231455
62	0xbf69320b	-0.91091985
63	0x400d0e2e	2.2039905
64	0xbfdb5f98	-1.7138548
65	0xbd876881	-0.066117294
66	0x3f9cf4c4	1.2262197
67	0xbfe3d25a	-1.7798569
68	0xbf9d93d8	-1.2310743
69	0x3f66831f	0.90043825
70	0x3e85abf0	0.2610774
71	0xbfb9c7ff	-1.4514159
72	0x3e3a839b	0.18214266
73	0x3feb34de	1.8375509
74	0x3f06b646	0.5262188
75	0x3fb875d2	1.4410956
76	0xbf50f253	-0.8161976
77	0xbea6b7bd	-0.32562056
78	0x3ebb02a1	0.36525443
79	0xbd74e441	-0.059787992
80	0xbf3ff304	-0.7498019
81	0x3f5c084c	0.8595016
82	0xbe2348ce	-0.15945742
83	0x3ef19f6d	0.47191945
84	0x411a3ec8	9.640327
85	0x3e7eb070	0.24871993
86	0xbed09343	-0.40737352
87	0x3fc75aa0	1.5574532
88	0xbf196fe3	-0.5993635
89	0x408828c0	4.2549744
90	0x3f89a7fe	1.0754392
91	0xbf37e94e	-0.7184037
92	0xc0e675a5	-7.201861
93	0x3f0a338c	0.53984904
94	0x3f661732	0.89879143
95	0xbf6e22c6	-0.9302181
96	0x40319470	2.774685
97	0x3e1c4902	0.15262225
98	0xbefe303b	-0.49646172
99	0x3c8f3c44	0.017484792
100	0x3fa81c32	1.3133605
101	0x3f2803e5	0.6563094
102	0xbfac6606	-1.3468635
103	0xbfcc2e06	-1.5951545
104	0xbf8cf6e2	-1.1012843
105	0x3e8d14ca	0.27554923
106	0xbe7f7b27	-0.24949323
107	0x3fb3b1ef	1.4038676
108	0x3f829752	1.0202429
109	0x3fd2f32b	1.6480459
110	0x3f2da52e	0.6783017
111	0x3e84b527	0.25919458
112	0xc00c3d24	-2.1912317
113	0x3f520b29	0.8204828
114	0xbf05b3bb	-0.5222737
115	0x3f1621b1	0.5864516
116	0x3bf9728a	0.007612531
117	0x3f148c3f	0.580265
118	0xbf5f19ea	-0.87148917
119	0x3f3eda85	0.74552184
120	0x3f0cbfd2	0.54980195
121	0x3fb3ef66	1.4057434
122	0x3e075db1	0.13219334
123	0x3f8e7bd9	1.1131545
124	0xbf627ba0	-0.88469887
125	0xbe3a4aea	-0.1819264
126	0x3f513866	0.8172668
127	0x3f76967b	0.96323365
128	0xbe82d094	-0.25549757
129	0x3f78bebf	0.97166055
130	0xbe584b64	-0.21122509
131	0x3edc6efb	0.4305342
132	0x3fe8bb73	1.8182205
133	0x3dff46eb	0.124646984
134	0xbe358536	-0.17726597
135	0x3f266bab	0.6500804
136	0xbf4f9236	-0.81082475
137	0x3f22b37d	0.6355513
138	0x3fa5b335	1.2945315
139	0xbf90d3de	-1.1314657
140	0xbf1e7ff9	-0.6191402
141	0xbe4496c9	-0.19198145
142	0x3f585505	0.8450473
143	0xbf8a3aa1	-1.0799142
144	0x3f7122cb	0.94193715
145	0x3fa7ef48	1.3119898
146	0x3eeedec6	0.46654338
147	0x3dcdc848	0.10047966
148	0xbfc7ec75	-1.5619036
149	0xbe685cd0	-0.22691655
150	0xbe5c244e	-0.21498224
151	0xbe83a141	-0.25708964
152	0xbd47e431	-0.048801605
153	0x3eb42240	0.3518238
154	0xbf61124f	-0.8791856
155	0x3f3fc49c	0.7490938
156	0x3fb60307	1.4219674
157	0x3f2943c7	0.66119045
158	0xbf0d3c19	-0.55169827
159	0x3fc77d88	1.5585184
160	0xbfe9ca06	-1.8264778
161	0xbe09f106	-0.1347085
162	0x3f83bdee	1.0292337
163	0xbff389f7	-1.9026479
164	0xbfa3cf3c	-1.2797618
165	0x3ece2395	0.40261522
166	0x3f2851ba	0.65749705
167	0xbfcbd259	-1.5923568
168	0x3fc3c912	1.5295737
169	0x3f3497ca	0.7054411
170	0x3e892a50	0.26790094
171	0x3f09c832	0.538211
172	0xbf238e43	-0.6388895
173	0x3ed08fd0	0.4073472
174	0xbd835426	-0.064125344
175	0xbf10e82a	-0.56604254
176	0xbeeeed74	-0.46665537
177	0xbead54e5	-0.33853832
178	0xbf8900c3	-1.0703357
179	0xbf2be6d6	-0.671491
180	0x3fb90bf3	1.4456772
181	0x3f42c687	0.7608418
182	0x3f6107a4	0.87902284
183	0x3eaddbec	0.3395685
184	0xbf61239f	-0.8794498
185	0x3e1152a4	0.14191681
186	0x3f41e818	0.7574477
187	0xbf911f7f	-1.1337737
188	0x3f39bfa3	0.7255804
189	0x3ea3a9f2	0.31965595
190	0x3f1a8e43	0.60373324
191	0xbf6d8162	-0.9277555
192	0x402f39f5	2.7379124
193	0x3fd65466	1.6744506
194	0x42009723	32.147594
195	0xbee2f46c	-0.44327104
196	0xc0790cab	-3.8913982
197	0x3fafaf6c	1.372541
198	0xbfbb39c3	-1.4627002
199	0xbfef72a6	-1.8706863
200	0x3f9f5828	1.2448778
201	0x3fcfccbe	1.6234357
202	0xc00691ca	-2.1026483
203	0x404a5bb5	3.1618474
204	0x4198a4d0	19.080475
205	0x400d8294	2.2110949
206	0x4001a54a	2.0257134
207	0x4134ff1f	11.312285
208	0xc030357c	-2.7532644
209	0x4164db2b	14.303508
210	0x40ee10a7	7.4395328
211	0xc04c0b54	-3.1881914
212	0x3f80c808	1.0061045
213	0x401afea5	2.4217923
214	0x401c47f3	2.4418914
215	0xbfd33fff	-1.6503905
216	0x3fa73f34	1.3066163
217	0x4010e2ee	2.2638507
218	0x3e14680d	0.14492817
219	0x3fa94ebf	1.3227156
220	0xbf712865	-0.9420226
221	0xbea197d8	-0.3156116
222	0x3f27e1e5	0.6557906
223	0x3e264ade	0.16239497
224	0xbf5f450c	-0.8721473
225	0x3f6509d1	0.89468104
226	0x3d83a632	0.064281836
227	0x3e554b6c	0.20829552
228	0x3ff9d90b	1.9519361
229	0x3e4727f6	0.19448838
230	0xbedf211e	-0.43579954
231	0x3f95512b	1.1665395
232	0xbf490d71	-0.78536135
233	0x3ebde295	0.3708693
234	0x3f9f7f47	1.2460717
235	0xbf7f8638	-0.99814177
236	0xbf196f92	-0.5993587
237	0x3e1e0c67	0.15434419
238	0x3fbc1e11	1.4696676
239	0xbf8c7753	-1.0973915
240	0x3fa2d491	1.272112
241	0x3f99fcec	1.2030311
242	0xbdfe741e	-0.12424491
243	0x3ec19914	0.37812102
244	0x3de79a87	0.113087706
245	0xbdf6b95a	-0.12047072
246	0x3ca3b8f4	0.019985653
247	0xbe40cdc0	-0.18828487
248	0x3e986aa9	0.29768875
249	0x3ccccdf5	0.025000552
250	0xbf242fa3	-0.6413519
251	0x3f6403e9	0.89068466
252	0x3f82435e	1.0176809
253	0x3f67e237	0.9057955
254	0x3e63ce01	0.22246553
255	0x3e8ec614	0.27885497

lstm.bias_ih_l0 f4 [96]
0	0xc0a03da4	-5.0075245
1	0xc0995ab8	-4.792324
2	0xc071d214	-3.7784472
3	0xc001a880	-2.0259094
4	0xc0941ca6	-4.628497
5	0xc0a190e0	-5.048935
6	0xc0a7e2de	-5.2464437
7	0xc0a3ef11	-5.122933
8	0xc11041c5	-9.016057
9	0xc0a4f52d	-5.1549287
10	0xc09a25fa	-4.817136
11	0xc0a6866c	-5.203909
12	0xc080f1ae	-4.029502
13	0xc0aaeb92	-5.341256
14	0xc0802cc5	-4.005465
15	0xc08e09e7	-4.438709
16	0xc097defb	-4.7459693
17	0xc0a1eb47	-5.0599704
18	0xc0aa9e28	-5.331806
19	0xc0a3d092	-5.1192102
20	0xc09233d8	-4.5688286
21	0xc0a7348e	-5.2251654
22	0xc09f7cbf	-4.983978
23	0xc0b0fe28	-5.531025
24	0xc033c36e	-2.808803
25	0xc00ba7a2	-2.1821065
26	0xc075fce4	-3.8435602
27	0x40adde78	5.433407
28	0xbfd24643	-1.6427692
29	0xbf7e1dc8	-0.9926419
30	0xbfc9a40b	-1.5753187
31	0xbf83f6bb	-1.0309671
32	0x40afa695	5.4890847
33	0xbf2c7e9d	-0.67380697
34	0xc034f254	-2.8272905
35	0xbf5a4f91	-0.8527766
36	0xc07dce43	-3.9657142
37	0xbf493df0	-0.78610134
38	0x3f2947b5	0.6612504
39	0xc0208931	-2.5083735
40	0xbf3f7491	-0.7478724
41	0xc051668a	-3.2718835
42	0xbffb0cd7	-1.9613293
43	0xc041e426	-3.02955
44	0xc04bd565	-3.1848996
45	0xc0025437	-2.03639
46	0xc011c32e	-2.2775378
47	0xbeb8a8b6	-0.36066216
48	0xbddc3220	-0.10751748
49	0x3d8e673d	0.06953285
50	0xbf261dff	-0.6488952
51	0xbbac11c4	-0.0052511413
52	0x3f229506	0.6350864
53	0x3da1d7bd	0.07902477
54	0x3ce3671d	0.02775913
55	0xbc5bf360	-0.013424724
56	0xc03fcd22	-2.9968953
57	0xbe8e812e	-0.2783293
58	0x3d1d8786	0.038459323
59	0x3d281447	0.041034963
60	0x3f44d91f	0.768938
61	0x3d082b95	0.033244688
62	0xbd630760	-0.055426955
63	0xbd8ac7c6	-0.06776385
64	0x3d94601b	0.07244893
65	0x3f084d4d	0.5324295
66	0x3e239ecc	0.15978545
67	0x3e9be9bf	0.30451772
68	0x3f0bde29	0.54635864
69	0x3df57acf	0.119863145
70	0x3e212310	0.15736032
71	0xbf4340f4	-0.76270986
72	0xc0b6e837	-5.7158465
73	0xc097be6f	-4.7419963
74	0xc0d3f71e	-6.6239157
75	0xc05458bb	-3.3179157
76	0xc0a73106	-5.2247343
77	0xc0982304	-4.7542744
78	0xc0980bcb	-4.7514396
79	0xc0a055cc	-5.0104733
80	0x3ebf8f6f	0.3741412
81	0xc09e6357	-4.9496264
82	0xc0a17dd0	-5.046608
83	0xc091d6d0	-4.557472
84	0xc0dd21ac	-6.9103603
85	0xc0943498	-4.63142
86	0xc0bf0a68	-5.9700203
87	0xc0bc736f	-5.889091
88	0xc09586e0	-4.672714
89	0xc0d03de9	-6.5075574
90	0xc098f401	-4.7797856
91	0xc0a1d6dd	-5.0574784
92	0xc0b3f511	-5.6236653
93	0xc089a380	-4.3012085
94	0xc0aa53cd	-5.3227296
95	0xc08be27e	-4.371398

lstm.bias_hh_l0 f4 [96]
0	0xc09c197f	-4.8781123
1	0xc0996ee6	-4.7947874
2	0xc06743cf	-3.6135137
3	0xbff67e12	-1.9257224
4	0xc0968075	-4.703181
5	0xc0a05696	-5.0105696
6	0xc09c414e	-4.882972
7	0xc09a3812	-4.8193445
8	0xc111f1a7	-9.121497
9	0xc09a59f0	-4.8234787
10	0xc091b831	-4.5537343
11	0xc0a0e5e9	-5.028065
12	0xc077ca01	-3.8717043
13	0xc0acd9ff	-5.401611
14	0xc08445a3	-4.1335006
15	0xc0941d04	-4.628542
16	0xc09b0036	-4.8437757
17	0xc0a0f2c1	-5.029633
18	0xc0a7e901	-5.247193
19	0xc0a1ecd6	-5.0601606
20	0xc09875df	-4.7643886
21	0xc0b11e88	-5.534977
22	0xc09b325d	-4.849898
23	0xc0ab7cbc	-5.3589764
24	0xc023a29d	-2.5568001
25	0xbfffc13d	-1.9980847
26	0xc0748261	-3.8204577
27	0x40aed2c8	5.46323
28	0xbfee0b3c	-1.8597178
29	0xbf92fc7f	-1.1483306
30	0xbfcc5e13	-1.5966209
31	0xbf8a3302	-1.0796816
32	0x40b601d3	5.6877227
33	0xbf017416	-0.5056776
34	0xc02f31a3	-2.7374046
35	0xbf14843f	-0.5801429
36	0xc078be4c	-3.8866148
37	0xbf5f1df0	-0.87155056
38	0x3ee6ca0d	0.45076028
39	0xc01b78be	-2.4292445
40	0xbf37fd66	-0.7187103
41	0xc04e3b82	-3.222382
42	0xc003741e	-2.0539622
43	0xc04fee23	-3.2489097
44	0xc048f888	-3.1401691
45	0xbff3c079	-1.9043113
46	0xc0127f74	-2.2890291
47	0xbf0229ae	-0.5084485
48	0xbea936e0	-0.3304968
49	0xbd3e0a65	-0.04639663
50	0xbf16ff62	-0.58983433
51	0xbe37e414	-0.17958099
52	0x3f463267	0.7742066
53	0x3d022451	0.031772915
54	0x3d9d6b7f	0.07686519
55	0xbcd6e2cf	-0.026231198
56	0xc040ecb4	-3.0144472
57	0xbe38ef70	-0.18060088
58	0xbdd1d09c	-0.10244867
59	0xbce34c67	-0.027746392
60	0x3f574627	0.8409142
61	0xbc9b1b7a	-0.018934
62	0xbdadc31a	-0.08484478
63	0x3e32cf68	0.17461932
64	0xbe08e920	-0.1337018
65	0x3f22cf74	0.635978
66	0x3c2a27ea	0.010385493
67	0x3ee268e0	0.44220638
68	0x3ef828e7	0.48468706
69	0x3d9f1449	0.07767541
70	0x3cf5fa37	0.030026538
71	0xbf42c1d8	-0.7607703
72	0xc0adbffb	-5.429685
73	0xc09dad27	-4.9273868
74	0xc0d7cbef	-6.743644
75	0xc047769a	-3.1166139
76	0xc0a705a4	-5.2194386
77	0xc095d517	-4.682262
78	0xc09b51e4	-4.8537464
79	0xc0981d35	-4.7535653
80	0x3f0bc758	0.5460105
81	0xc09ce3ea	-4.9028215
82	0xc0a3d662	-5.11992
83	0xc096a5d8	-4.7077446
84	0xc0e4a3ab	-7.144979
85	0xc08d11ef	-4.408439
86	0xc0b7f9d8	-5.7492485
87	0xc0bd21a5	-5.910357
88	0xc093526b	-4.603811
89	0xc0cd13c5	-6.4086633
90	0xc09eef2a	-4.966695
91	0xc0a20297	-5.062816
92	0xc0b6514e	-5.697425
93	0xc089cdcd	-4.306372
94	0xc0a57d69	-5.171559
95	0xc08ca90e	-4.3956366

out.weight f4 [1, 24]
0	0xbea05799	-0.31316832
1	0xbb9221a0	-0.004459575
2	0xbf220e31	-0.63302904
3	0x3ff6b68d	1.927446
4	0xbf7c0e72	-0.9845954
5	0x3db9ee22	0.09078623
6	0xbf2ccfc8	-0.6750455
7	0xbec3a7fe	-0.38214105
8	0x3f449817	0.7679457
9	0x3f57c941	0.84291464
10	0xbeab0fa9	-0.33410385
11	0x3e6540b3	0.22387962
12	0xbf834d00	-1.0257874
13	0x3ed6e825	0.41973987
14	0x3f469ac6	0.77579916
15	0xbf207e1d	-0.62692434
16	0x3bfcecd0	0.00771866
17	0xbeb1f2ac	-0.34755456
18	0xbcdd5a99	-0.02702074
19	0xbf3e5344	-0.74345803
20	0x3f18ef7b	0.5974042
21	0x3d414e77	0.04719397
22	0x3d742b62	0.059611686
23	0x3fa45a02	1.2839968
