src/down_model/model4/encoder.pth (torch_old, 11099 bytes, 4 tensors)

lstm.weight_ih_l0 f4 [96, 1]
0	0x4030bbdd	2.7614663
1	0x4068cce9	3.6375067
2	0xc0048663	-2.0707023
3	0x40992c82	4.786683
4	0x3e6ab1a5	0.22919329
5	0x3fbaa080	1.4580231
6	0x403ca8f0	2.9478111
7	0x3fb5bd0a	1.4198315
8	0xbf54cb72	-0.8312293
9	0x403d5543	2.958329
10	0x40855bfe	4.1674795
11	0x3e4c2936	0.19937596
12	0x3fa80183	1.3125461
13	0x3ff13024	1.8842816
14	0x4025ac02	2.5886235
15	0x40b88cf2	5.767205
16	0x400d69b4	2.2095766
17	0x4124f116	10.308859
18	0x40704d4e	3.7547183
19	0x404833c8	3.1281605
20	0xbfccf923	-1.601353
21	0x3ed7b5b3	0.42130813
22	0x40271624	2.6107264
23	0x3facd187	1.3501443
24	0x400ec70a	2.2308984
25	0x3fcb4339	1.587989
26	0x405ce0e7	3.451227
27	0x3fe1b9cd	1.7634827
28	0x3e82721e	0.2547769
29	0x3f13332b	0.5749995
30	0x3fbf4187	1.4941872
31	0x3f093542	0.5359689
32	0x41209634	10.036671
33	0x3f60bf80	0.87792206
34	0x3df79c00	0.120903015
35	0x3f3cf483	0.73810595
36	0x3f551817	0.83239883
37	0x3f4ee9f9	0.80825764
38	0x3f929bb7	1.145377
39	0x3f7a4ded	0.97775155
40	0x3ff45334	1.9087892
41	0x3ffa891d	1.9573094
42	0x3fc727df	1.5559043
43	0x4038d6cb	2.88811
44	0x40479d7b	3.1189868
45	0x3ed06f95	0.4071013
46	0x3f98e1c2	1.1943896
47	0x3fe26210	1.7686176
48	0x3fa4e592	1.2882559
49	0x400768cb	2.115771
50	0xc10a0d56	-8.628256
51	0x3f6ff23d	0.93729
52	0xbdcf8451	-0.10132659
53	0x3f47b1e2	0.780058
54	0xc0131f75	-2.298795
55	0x3ebad6b1	0.36491922
56	0x402e7210	2.7257118
57	0x3fb9a524	1.4503522
58	0x3f9a5856	1.2058208
59	0x3f0cccbb	0.54999894
60	0xc060ce1c	-3.51258
61	0x3f8095ca	1.0045712
62	0x3fd9a305	1.7002875
63	0x3f71ebb2	0.9450027
64	0xbfa56f97	-1.292468
65	0xc128243d	-10.508847
66	0x3fab1a3e	1.3367383
67	0x3da4209e	0.08014034
68	0x40c9835f	6.2972865
69	0x3f85e023	1.0459026
70	0x400eef7a	2.2333665
71	0x4032b075	2.79202
72	0x40189d9c	2.3846197
73	0x403212a8	2.7823887
74	0x409acd4b	4.83756
75	0x3fdf58ba	1.7448952
76	0x3eb0547e	0.34439462
77	0x3fd68ba6	1.6761367
78	0x4086306e	4.193412
79	0x3f608a15	0.87710696
80	0x410cfab3	8.811206
81	0x400de52f	2.2171133
82	0x40819196	4.0490217
83	0x3ddbe4c9	0.10736997
84	0x4026e163	2.6075065
85	0x4013e5cc	2.3109007
86	0x401b0d38	2.4226818
87	0x40a5df41	5.1835027
88	0x4005eafc	2.0924673
89	0x411dd1c8	9.863716
90	0x402808f1	2.6255457
91	0x4003db89	2.0602744
92	0xc0dbcc23	-6.868669
93	0x3fbd5d1b	1.4794039
94	0x40371495	2.8606312
95	0x3f0c7873	0.5487129

lstm.weight_hh_l0 f4 [96, 24]
0	0x40d649b5	6.6964974
1	0xbd8700a9	-0.06591923
2	0x405e4f07	3.4735734
3	0xbf9e5ece	-1.2372682
4	0x40109d81	2.2596133
5	0x3e9856f5	0.29753843
6	0xbe695db5	-0.22789653
7	0x3f5395e3	0.82650584
8	0xc106bf0f	-8.421645
9	0x3c8ccc17	0.017187161
10	0xbd999aa6	-0.075002
11	0xbf8099be	-1.0046918
12	0x40fcd156	7.9005537
13	0xbeeaf193	-0.45887432
14	0xbde73a51	-0.1129042
15	0x4080a757	4.020427
16	0x4016f186	2.3584914
17	0xbf4a492b	-0.79017895
18	0x405fa303	3.4943244
19	0xc13400d9	-11.250207
20	0xbfc0b242	-1.50544
21	0x3f0a2fe8	0.5397935
22	0x3fc813ba	1.563102
23	0xbf67ba5d	-0.9051874
24	0x401048b5	2.2544377
25	0x3eb67b68	0.35641026
26	0x3e04c916	0.12967333
27	0xbf80f79f	-1.0075568
28	0xbfbda7c8	-1.4816828
29	0x3f8009e6	1.0003021
30	0xbf19f14f	-0.6013383
31	0xbf2899f9	-0.65859944
32	0xbf8538e3	-1.0407985
33	0xbe64468d	-0.22292538
34	0x3ecc4a83	0.39900598
35	0x3f5d5511	0.86457926
36	0x400387e7	2.0551698
37	0x3e3ed1a0	0.18634653
38	0xbf093a31	-0.5360442
39	0x3ef75c79	0.4831274
40	0xbed9d838	-0.42547774
41	0xbf196dac	-0.5993297
42	0x3f3b5253	0.7317249
43	0xbfa02bc0	-1.2513351
44	0xbdadee93	-0.0849277
45	0x3f569127	0.83815235
46	0xbf01f2ce	-0.50761116
47	0xc002be4e	-2.0428653
48	0x3f0e9ed1	0.55711085
49	0x3ea66a05	0.3250276
50	0x3f53e163	0.8276579
51	0xbf7b334b	-0.9812514
52	0xbf38e202	-0.7221986
53	0x3f29bfd1	0.66308314
54	0x3f4dacda	0.80341876
55	0xbf0363c7	-0.51324123
56	0xbf1525c8	-0.58260775
57	0xbf06e208	-0.52688646
58	0xbe1390c9	-0.144107
59	0x3f761377	0.9612345
60	0x40166f03	2.3505256
61	0xbd963cd3	-0.0733582
62	0xbf870d29	-1.0550891
63	0x40244b08	2.5670795
64	0xbecafbc8	-0.3964522
65	0xc02d7084	-2.7099924
66	0x4011459f	2.2698743
67	0x402f9c2d	2.7439072
68	0xc0d03002	-6.5058603
69	0x3e0d9a01	0.13828279
70	0x3ed4f1c2	0.41590697
71	0xc05a4c8e	-3.4109225
72	0x400b63b8	2.1779613
73	0xbe55254f	-0.20815013
74	0x3f6fb16b	0.93630093
75	0xbffb8e89	-1.9652873
76	0xbc00207d	-0.007820246
77	0x3f08358e	0.5320672
78	0x4009468c	2.1449308
79	0xbecda526	-0.4016506
80	0xc0250700	-2.5785522
81	0xbe95acc1	-0.29233363
82	0xbfa977f9	-1.3239738
83	0x3f3f8c56	0.7482351
84	0x3ff3803c	1.9023509
85	0xbf97dd80	-1.1864471
86	0xbf6b1113	-0.9182293
87	0x3fa439e5	1.2830168
88	0xbe38220f	-0.17981742
89	0x3e209dc8	0.15685189
90	0x3f1a2ed5	0.6022771
91	0xbf97e4fc	-1.1866755
92	0xbff958dc	-1.9480243
93	0xbe67fe0d	-0.22655506
94	0xbef9b040	-0.4876728
95	0xc03a8690	-2.914463
96	0x3f89724d	1.0738007
97	0xbd69f273	-0.057115983
98	0x3f11d3d6	0.5696386
99	0x3e4ea490	0.20179963
100	0x3fd63caf	1.6737269
101	0x3efd83fa	0.49514753
102	0x3eb21497	0.34781334
103	0x3f804035	1.0019594
104	0x3ec62361	0.38698867
105	0xbef00a1e	-0.4688272
106	0xbec372f9	-0.38173655
107	0xbf76680e	-0.96252525
108	0x4050f0f8	3.2647076
109	0xbfc39e0d	-1.5282608
110	0xbf70123f	-0.9377784
111	0xbf93b690	-1.1540089
112	0x3e2de9ec	0.16983765
113	0xbeef6850	-0.46759272
114	0xbde91331	-0.113806136
115	0xbf95d7ad	-1.1706444
116	0xbdfe1649	-0.12406594
117	0xbead56c5	-0.33855262
118	0x3faf9cef	1.3719767
119	0xc0164f80	-2.3486023
120	0x3f79acbc	0.97529197
121	0x3efa9124	0.48938859
122	0xbe0219f0	-0.12705207
123	0xbf83f143	-1.0308002
124	0xbf5836b2	-0.8445846
125	0x3ed9658c	0.42460287
126	0x3d5a7167	0.053330805
127	0xbe8cae33	-0.27476653
128	0xbfa5a960	-1.2942314
129	0xbf1669f5	-0.5875543
130	0x3ee2dda2	0.44309717
131	0x3e7907be	0.2431936
132	0x4069918f	3.6495092
133	0x3e97091f	0.29499146
134	0xbf850d83	-1.0394748
135	0x3e9fd837	0.31219646
136	0xbe40b403	-0.18818669
137	0xbc8f1ba5	-0.017469237
138	0x3f8318d3	1.0241951
139	0xbfdc4749	-1.7209255
140	0xbde7cbdb	-0.11318179
141	0x3f6c5f79	0.9233318
142	0xbea14e35	-0.3150498
143	0xbfd45713	-1.6589073
144	0x3fdb087b	1.7111963
145	0x3d92e6c1	0.07172919
146	0x3f9745e6	1.1818206
147	0xbe562cb0	-0.20915484
148	0xbe9be95d	-0.3045148
149	0x3e5e4ac5	0.2170821
150	0xbd17f953	-0.03710301
151	0xbe857411	-0.26065114
152	0xc035a143	-2.8379676
153	0xbeb8191e	-0.35956663
154	0xbf499608	-0.78744555
155	0x3f4102d2	0.7539493
156	0x4049da1f	3.153938
157	0x3e1b3703	0.15157704
158	0xbe9b839f	-0.30373856
159	0xbea8850d	-0.3291401
160	0xbf3c0887	-0.7345051
161	0xbf237bd0	-0.638608
162	0x3f8911f7	1.0708607
163	0xbfadb3e4	-1.3570523
164	0xbf55896b	-0.8341281
165	0x3e00e4b5	0.12587245
166	0x3fb22c4a	1.3919766
167	0xbfc4aace	-1.5364625
168	0x3fc01dd0	1.5009098
169	0x3f8a812c	1.082067
170	0xbe09ab9b	-0.13444369
171	0xbf0d38c3	-0.55164737
172	0xbfc58193	-1.5430168
173	0x3f041ac7	0.5160336
174	0xbc18848c	-0.009308945
175	0xbf03b66c	-0.5145023
176	0xbe92b930	-0.28656912
177	0xbf07e198	-0.53078604
178	0x3e04cb8e	0.12968275
179	0x3fba7aa4	1.4568677
180	0x3fd31462	1.6490595
181	0x3f39bdf8	0.72555494
182	0xbf815b98	-1.0106077
183	0x3f50e957	0.8160605
184	0xbf15dffa	-0.58544886
185	0xbf2f52cc	-0.68485713
186	0x3f93ff4c	1.1562285
187	0xbf60ac9c	-0.8776338
188	0xbea4a5ff	-0.32157895
189	0x3f0cf143	0.55055636
190	0x3e3628c9	0.17788996
191	0xbfb4e66d	-1.413282
192	0xc0bb4e20	-5.8532867
193	0xbe913af2	-0.28365284
194	0xc0db75b1	-6.8581166
195	0x3f882cce	1.0638673
196	0xbf6d0b3a	-0.92595255
197	0xbe0ccb48	-0.1374942
198	0xbecad912	-0.39618737
199	0x3e2a6d73	0.16643314
200	0x41339847	11.224677
201	0xbd6ac64b	-0.057318013
202	0x3f30e9f3	0.6910698
203	0x3f0ce226	0.55032575
204	0xc12e5be4	-10.897434
205	0xbeaafe25	-0.33397022
206	0x3e390484	0.18068129
207	0xc04e1e07	-3.2205827
208	0x3e7f8f23	0.24956946
209	0xc0eea229	-7.457295
210	0xbfe8c523	-1.8185161
211	0x40c8a0dd	6.2696366
212	0x40faaf08	7.833866
213	0x3e4e49d6	0.20145354
214	0xc0042900	-2.0650024
215	0x3f9c24f9	1.2198783
216	0x401a4434	2.4104128
217	0x3dcb986c	0.099411815
218	0xbdb7b747	-0.08970504
219	0x3f8e6f19	1.1127654
220	0xbd59bc5b	-0.053158145
221	0x3f708407	0.9395146
222	0xbf5cdbc7	-0.86272854
223	0xbf8bdc5b	-1.0926622
224	0xbfbd23a3	-1.47765
225	0x3ee67013	0.4500738
226	0xbe8dbce1	-0.27683166
227	0x3f15a39e	0.58452785
228	0x4020a6c4	2.5101786
229	0x3edbbccd	0.4291748
230	0x3f88e455	1.0694681
231	0xbf840166	-1.0312927
232	0x3c8560e1	0.016281547
233	0x3ea24114	0.31690276
234	0xbef3e7ed	-0.47637883
235	0x3e8da055	0.27661386
236	0x3fdbc149	1.7168361
237	0x3f4be5e8	0.79647684
238	0x3f126c4f	0.57196516
239	0xbf8905e9	-1.0704929
240	0x4010b118	2.260809
241	0xbf5f6a89	-0.87271935
242	0xbeb98739	-0.3623598
243	0xbf7df83d	-0.99206907
244	0xbe5c81f9	-0.21533956
245	0xbbac4c05	-0.0052580857
246	0x3f9f8a1d	1.2464024
247	0x3dd8ceed	0.10586343
248	0xc01c01e0	-2.4376144
249	0xbefb22f3	-0.49050102
250	0xba047db3	-0.0005054131
251	0x3e9b3e55	0.30320993
252	0x405884b3	3.3830993
253	0xbe508357	-0.20362602
254	0xbe2c8d1e	-0.16850707
255	0x3f930d8d	1.148851

lstm.bias_ih_l0 f4 [96]
0	0xc096fc70	-4.718315
1	0xc0a8591a	-5.2608767
2	0x40d9ebc1	6.8100286
3	0xbfea6d5b	-1.8314623
4	0xc0a449a4	-5.1339893
5	0xc08b74c6	-4.3580046
6	0xc084aa4d	-4.1457887
7	0xc08f0392	-4.469186
8	0x4059cf0c	3.4032621
9	0xc098357e	-4.75653
10	0xc0796246	-3.8966231
11	0xc096e959	-4.715985
12	0x4081ffa1	4.0624547
13	0xc09fa3e5	-4.9887567
14	0xc0680a00	-3.6256104
15	0xc03b847c	-2.9299612
16	0xc08e2212	-4.441659
17	0xbf4bd715	-0.79625064
18	0xc0b11265	-5.5334954
19	0xc08d6681	-4.4187627
20	0xbffcdeb8	-1.9755468
21	0xc07a443d	-3.910415
22	0xc0946648	-4.6374855
23	0xc0a480b4	-5.140711
24	0xc0a2c856	-5.086955
25	0xc01c9aa7	-2.4469392
26	0xc0de04a2	-6.9380655
27	0xc0b0bcb8	-5.523037
28	0xc0375001	-2.864258
29	0xc0032d9f	-2.0496595
30	0xc034fb7c	-2.8278494
31	0xc026cacc	-2.6061277
32	0xc0fe811b	-7.95326
33	0xc00d74fd	-2.2102654
34	0xc0700b9b	-3.7507083
35	0xc036e3f7	-2.8576639
36	0xc0ca2b37	-6.3177752
37	0xc0219093	-2.524449
38	0xbfe11b4b	-1.7586454
39	0xc09e90e3	-4.9551864
40	0xc0205cb1	-2.5056574
41	0xc0dcf50a	-6.904912
42	0xc08779c0	-4.233612
43	0xc0bd9750	-5.924721
44	0x3f735ec6	0.9506649
45	0xbfe5661a	-1.7921784
46	0xc05930eb	-3.3936107
47	0xc077dae5	-3.8727353
48	0xbff09413	-1.8795189
49	0x3e76bcef	0.2409551
50	0xbfc1a0c8	-1.5127192
51	0x40540f2b	3.3134258
52	0x3df51d15	0.119684376
53	0xbdd5dab1	-0.10442103
54	0xbf46eef7	-0.7770838
55	0xbd404cdf	-0.04694831
56	0x3f2121cc	0.62942195
57	0x3ec3ada3	0.38218412
58	0x3f429a8e	0.7601708
59	0x3da2930a	0.07938202
60	0xc0a08ca1	-5.0171666
61	0xbe3cd4fc	-0.18440622
62	0x3f247aaa	0.6424967
63	0xbfe66c0e	-1.8001726
64	0x3de0fd52	0.10985817
65	0xbfb4d505	-1.4127508
66	0xbf374731	-0.71593004
67	0x40027b9b	2.0387943
68	0x4033f1b5	2.8116276
69	0xbc877c68	-0.016538814
70	0xbf64b519	-0.89338833
71	0x3f8ebcd2	1.1151373
72	0xc08c85ee	-4.391349
73	0xc08d13fe	-4.4086905
74	0xbfa7abc5	-1.3099295
75	0xc0d45ad3	-6.636087
76	0xc0860350	-4.1879044
77	0xc08f6825	-4.481463
78	0xc094538f	-4.6352
79	0xc081f737	-4.0614276
80	0xbe5bf075	-0.21478446
81	0xc0987443	-4.764192
82	0xc075e086	-3.8418288
83	0xc08804e6	-4.250598
84	0xc01a1910	-2.4077797
85	0xc07ac1c0	-3.9180756
86	0xc0b19cf8	-5.550411
87	0xc069ba02	-3.651978
88	0xc08c5993	-4.3859344
89	0xbf3c9413	-0.73663443
90	0xc0881d9f	-4.253616
91	0xc07fce94	-3.9969835
92	0xbfa03e98	-1.2519102
93	0xc0a80171	-5.250176
94	0xc0818745	-4.0477624
95	0xc08776ab	-4.233236

lstm.bias_hh_l0 f4 [96]
0	0xc09117a1	-4.5341344
1	0xc0b26a11	-5.5754476
2	0x40da2dc7	6.818088
3	0xbff83954	-1.9392495
4	0xc0a45655	-5.1355386
5	0xc08d7337	-4.4203143
6	0xc07d752b	-3.9602764
7	0xc094647e	-4.637267
8	0x4054cdf5	3.3250706
9	0xc092320d	-4.5686097
10	0xc074bc8b	-3.8240077
11	0xc09d574c	-4.9169064
12	0x40722485	3.783479
13	0xc0a12592	-5.035836
14	0xc0687c5b	-3.63259
15	0xc03427a2	-2.814919
16	0xc08f354e	-4.475257
17	0xbf349b30	-0.705493
18	0xc0b0f702	-5.5301523
19	0xc09379fc	-4.6086407
20	0xbffd3136	-1.9780643
21	0xc07a0758	-3.9066982
22	0xc088b20f	-4.2717357
23	0xc0a5596e	-5.1671667
24	0xc0aa548c	-5.3228207
25	0xc018c39e	-2.3869395
26	0xc0de5118	-6.947399
27	0xc0b60247	-5.687778
28	0xc02ebee9	-2.7304022
29	0xbff16566	-1.8859069
30	0xc0209ffb	-2.5097644
31	0xc0187298	-2.3819942
32	0xc0fee86d	-7.9658723
33	0xc012e533	-2.2952392
34	0xc066df1f	-3.6073682
35	0xc02c7a06	-2.6949477
36	0xc0cbaad4	-6.364603
37	0xc013b9d9	-2.3082182
38	0xbff2de56	-1.8974102
39	0xc0a291d7	-5.0803027
40	0xc0175eec	-2.3651686
41	0xc0d2de0c	-6.5896053
42	0xc08283f2	-4.0786066
43	0xc0b76c18	-5.731945
44	0x3f832f92	1.0248892
45	0xbfde7c34	-1.7381654
46	0xc0562502	-3.3460088
47	0xc07bfb87	-3.937227
48	0xbfe1d48d	-1.764299
49	0x3e29d73c	0.16586012
50	0xbfc2eb8b	-1.5228132
51	0x4062095a	3.5318208
52	0xbd162f5d	-0.036666263
53	0x3d26036d	0.04053061
54	0xbf5cf816	-0.8631605
55	0x3e801784	0.2501794
56	0x3f653580	0.8953476
57	0x3f2d368f	0.67661375
58	0x3f5b0711	0.8555766
59	0x3e42297b	0.18961136
60	0xc0a0a853	-5.0205474
61	0xbcdfc007	-0.027313245
62	0x3f1d1fc1	0.6137658
63	0xc003faa3	-2.0621727
64	0x3e91ef2a	0.2850278
65	0xbfad3181	-1.3530732
66	0xbf34fe5f	-0.7070064
67	0x40092fc6	2.1435409
68	0x4039a45a	2.9006562
69	0xbd5c36f7	-0.053763356
70	0xbf44b951	-0.7684527
71	0x3f90bdf0	1.1307964
72	0xc090e0b9	-4.527432
73	0xc08c8e4d	-4.3923707
74	0xbf99f7e0	-1.202877
75	0xc0c8fa51	-6.280556
76	0xc08f6eff	-4.4822993
77	0xc08504e5	-4.1568475
78	0xc0998318	-4.7972527
79	0xc0802b07	-4.0052524
80	0xbf0bd070	-0.54614925
81	0xc096af53	-4.708902
82	0xc06b0c08	-3.6726093
83	0xc08b88e5	-4.3604608
84	0xc0220507	-2.5315568
85	0xc0837244	-4.1076984
86	0xc0b4092b	-5.626119
87	0xc05f4f38	-3.4892101
88	0xc08d42fd	-4.4144273
89	0xbf24766a	-0.64243186
90	0xc083f3ab	-4.1234946
91	0xc084a221	-4.144791
92	0xbf91e3ef	-1.1397685
93	0xc09ff64f	-4.998817
94	0xc0890211	-4.2815022
95	0xc085b741	-4.17862
