results/02-27-2019/model9/model/decoder.pth (torch_old, 1482 bytes, 6 tensors)

lstm.weight_ih_l0 f4 [12, 3]
000000 ed 1e 1e c0 9e a8 3c 3f c9 6a 81 c0 25 3f 1f c0
       -2.4706376 0.7369479 -4.0442853 -2.488229
000010 46 e5 02 be 51 63 c1 3f 6b 80 82 bf 76 8c 85 3f
       -0.12782773 1.5108434 -1.019544 1.043349
000020 60 d0 0d 3f 43 d6 80 bf a9 8e 2c bd f7 49 3d c2
       0.5539608 -1.0065387 -0.04212824 -47.32223
000030 20 2f c5 c0 0f 52 20 41 3d cc ff bf 06 04 9e 3e
       -6.1620026 10.020034 -1.9984204 0.30862445
000040 aa 4b 06 41 97 bd 2c c0 03 f8 06 40 43 df e1 bf
       8.393473 -2.6990716 2.1088874 -1.7646259
000050 05 65 c3 c0 71 2c 67 42 ed ec 24 3f af a9 10 c0
       -6.1060815 57.7934 0.6442402 -2.2603567
000060 63 a1 04 be e6 21 c8 40 7e 41 69 3f 0c ae 3c c0
       -0.12952189 6.254138 0.9111556 -2.948123
000070 28 39 0b 40 d5 37 b9 bf 8a 3b a6 c1 0a 95 f5 bf
       2.1753635 -1.4470164 -20.779072 -1.9186108
000080 d3 af 96 3f db 84 43 c2 d2 15 3c c0 b2 bf a1 40
       1.1772407 -48.87974 -2.9388318 5.0546503

lstm.weight_hh_l0 f4 [12, 3]
000000 c0 24 e1 3e 79 7c 5d bf 5c ae 3e 3f f3 2a a5 be
       0.4397335 -0.86518055 0.744848 -0.3225933
000010 26 b4 bd bf 4a 75 31 bf 3e 91 25 bf 6b 74 a1 bf
       -1.4820602 -0.69319594 -0.64674747 -1.2613653
000020 a4 f0 5e be b0 d4 94 c0 4c 93 37 c0 db ad 1b 40
       -0.21771485 -4.650963 -2.8683653 2.4324863
000030 11 58 00 c0 f6 79 41 3e 4f 7a 23 c0 34 8c 21 c0
       -2.0053751 0.1889418 -2.5543401 -2.5241823
000040 1b 05 4e 3f 4f 18 89 3f e6 af c0 40 9a 65 a7 3f
       0.8047654 1.0710543 6.021472 1.3077881
000050 c3 90 23 40 01 63 4e 3f 85 ad 0d 3f 4f 76 b5 3e
       2.5557106 0.8061982 0.55342895 0.35441825
000060 54 15 9c 3e 7d 12 c2 3e 7f e5 62 3f 4f 1d fa 40
       0.30485022 0.3790473 0.88631433 7.8160777
000070 ed 36 dd be b9 54 b9 40 35 db 8b bf 7f 1f 32 40
       -0.43205968 5.791592 -1.0926272 2.7831724
000080 1f 8f 20 40 8a 04 24 be 09 56 43 bf 87 46 37 41
       2.5087354 -0.16017357 -0.76303154 11.454719

lstm.bias_ih_l0 f4 [12]
000000 60 76 02 be 4b 6b 78 bf 5e f8 0a bf 53 8c 56 3f
       -0.12740469 -0.97038716 -0.5428523 0.8380787
000010 a6 25 e5 bf b3 7e 12 c0 5e 5c a2 3f 3f c9 7c 3e
       -1.7902114 -2.288983 1.2684438 0.24686144
000020 4c 06 36 40 7e 4a e0 3f fb 3b e8 bc 4c 01 95 bc
       2.8441343 1.7522733 -0.028348913 -0.018189095

lstm.bias_hh_l0 f4 [12]
000000 20 91 ed be 6d 4e 42 bf 85 d8 0d bf bb 6a 8d be
       -0.46399784 -0.7590092 -0.5540851 -0.2762049
000010 14 15 e6 bf 33 50 c3 bf c8 88 e7 3f 40 7b cd 3e
       -1.7975183 -1.525885 1.8088617 0.40133095
000020 0b bd 06 40 a4 6e fa 3f 48 5d d3 3d 03 a8 5e 3e
       2.1052883 1.9565015 0.10320526 0.21743779

out.weight f4 [8, 3]
000000 13 a9 17 c0 a8 e8 29 c0 96 85 90 c0 50 83 e9 c0
       -2.3696945 -2.6548252 -4.516307 -7.2972794
000010 8f 63 0f c1 f1 b3 26 41 71 b0 56 c1 64 ff 51 c1
       -8.961806 10.418931 -13.4180765 -13.124851
000020 fa 93 82 41 f0 b5 36 40 b1 72 f2 bf 88 ba 63 3f
       16.322254 2.8548546 -1.8941251 0.889565
000030 8e 71 e9 bf 9b de e2 c0 52 50 52 c1 d6 49 ae bf
       -1.8237779 -7.0896735 -13.144609 -1.3616283
000040 40 51 33 c1 6d 34 41 c1 64 20 bb bf fb 73 f1 bf
       -11.207336 -12.075299 -1.461926 -1.886352
000050 ef 5a fd bf ff f9 7c 41 dd 93 24 c1 33 cf a3 3f
       -1.9793376 15.811034 -10.286099 1.2797607

out.bias f4 [8]
000000 02 f9 ca 3f b1 bc d4 3f 85 70 24 40 06 23 28 3d
       1.5857241 1.6620084 2.5693676 0.041049026
000010 00 99 03 40 41 67 cb 3f 79 e0 94 3f 71 44 73 c0
       2.0562134 1.5890886 1.1631004 -3.8010523
