results/02-27-2019/model9/model/encoder.pth (torch_old, 1349 bytes, 4 tensors)

lstm.weight_ih_l0 f4 [12, 8]
0	0xbbf2d5c8	-0.0074107386
1	0x3e4f6394	0.2025283
2	0x3e7d6a6b	0.24747626
3	0x3e232eb1	0.1593578
4	0x3e6a603f	0.22888277
5	0x3e8bfbaf	0.27340457
6	0x3d890208	0.066898406
7	0x3f1eb72b	0.6199824
8	0x406c1f92	3.689427
9	0xbee0a75a	-0.4387768
10	0x3e2d1a40	0.16904545
11	0xbe5be20c	-0.21472949
12	0x3ebd7af7	0.37007877
13	0x3d1e500f	0.03865057
14	0x3fe98c70	1.8245983
15	0xbdf3ac2b	-0.11898073
16	0x3d48ae14	0.04899414
17	0x3e4a18e2	0.19736055
18	0x3eb3920d	0.35072365
19	0xbdaf220f	-0.08551418
20	0x3db7ceb7	0.089749746
21	0x3dda1dfe	0.10650252
22	0x3d2639a4	0.040582314
23	0xbed656d8	-0.41863132
24	0xc002e1cf	-2.0450323
25	0x3eaba670	0.3352542
26	0x3f209ddf	0.6274089
27	0xbf9a2402	-1.2042239
28	0xbf8a054c	-1.0782866
29	0xbcd5859a	-0.026064683
30	0xbf06f4c9	-0.5271726
31	0xc05d31bd	-3.4561608
32	0x3eb81a38	0.35957503
33	0xbecb6d42	-0.39731795
34	0xbef5928d	-0.47963372
35	0xbdee6fbf	-0.116424076
36	0x3f553dfd	0.8329771
37	0x3f32e77e	0.6988448
38	0x3e06df4a	0.13171116
39	0xbef0ed57	-0.47056076
40	0xbfb974d4	-1.4488778
41	0xbeafc74e	-0.34331745
42	0x3ea009eb	0.31257567
43	0xc014730c	-2.319522
44	0xbf9a182f	-1.203863
45	0xbffd4e31	-1.9789487
46	0xbfbaf6d8	-1.4606581
47	0xc0b815c0	-5.752655
48	0xbdc8049f	-0.097665064
49	0xbf1b079c	-0.60558486
50	0xbf2eab9a	-0.68230593
51	0xbe8e9edc	-0.27855575
52	0xbecd0e40	-0.40049934
53	0xbf7586b9	-0.95908695
54	0xbe053350	-0.13007855
55	0xbfd1d17e	-1.6392057
56	0xbfc3119a	-1.5239747
57	0x3ec7a6e3	0.38994512
58	0x3f12867a	0.57236445
59	0xbf916f01	-1.1362001
60	0x3d7cbfe0	0.061706424
61	0xbf1bfad1	-0.6092959
62	0xbdb3f197	-0.08786314
63	0xbf839dce	-1.0282533
64	0x3eb37055	0.3504664
65	0x403ce864	2.951684
66	0x4096f388	4.717228
67	0xbdebdedc	-0.115171164
68	0xbe3fd0aa	-0.18731943
69	0x3f0a98a7	0.5413918
70	0x3c853b25	0.016263554
71	0xbfd97ec2	-1.6991808
72	0x3fc67cc9	1.5506831
73	0x4053eca3	3.3113182
74	0x3f936b9f	1.1517218
75	0x403302d5	2.7970479
76	0xbef09ca7	-0.46994516
77	0x403d8722	2.9613729
78	0x404bdb86	3.1852736
79	0x3d24fc80	0.040279865
80	0x3eba6581	0.36405566
81	0xbe9b34cc	-0.30313718
82	0xbed74903	-0.4204789
83	0xbe262392	-0.16224506
84	0x3f4f778c	0.8104179
85	0x3f627b3f	0.8846931
86	0x3dd3c39f	0.10340046
87	0xbed43bc5	-0.4145185
88	0x3bdba949	0.00670353
89	0x3eaea0bb	0.34107003
90	0x3f95efbd	1.1713787
91	0xbe12aa35	-0.14322741
92	0x3d5f8300	0.05456829
93	0xbcee12c1	-0.029061677
94	0xbd6724b6	-0.056431495
95	0xbf52b46c	-0.8230655

lstm.weight_hh_l0 f4 [12, 3]
0	0x407abea9	3.917887
1	0x3eff56a1	0.4987078
2	0xc04e7eca	-3.2264886
3	0xbeae06b4	-0.3398949
4	0xc0c6b578	-6.209652
5	0x40cd452e	6.414695
6	0xc0159457	-2.337179
7	0x3f9077d8	1.1286573
8	0xc000975c	-2.0092382
9	0x414becd5	12.74532
10	0x40704203	3.754029
11	0xbfb268c3	-1.3938221
12	0xbfb1e38e	-1.3897569
13	0x40ce970e	6.4559393
14	0x3f718dae	0.9435681
15	0x3f9d0660	1.226757
16	0x40bfd59f	5.994827
17	0xc119a0f5	-9.601796
18	0xc1208206	-10.031744
19	0xbf7ab237	-0.97928184
20	0x402b9ac1	2.6813204
21	0x410d6b8c	8.838757
22	0xc0263b29	-2.5973608
23	0xc0f4cdd6	-7.6501265
24	0xc15b77da	-13.716761
25	0xbe9c576b	-0.30535445
26	0xc11bbf42	-9.734194
27	0xc0165f79	-2.3495772
28	0xc068dbf8	-3.6384258
29	0x40c43154	6.1310215
30	0xbfef34d1	-1.8687993
31	0x40148ce0	2.3210983
32	0x405b00a8	3.421915
33	0xc2128066	-36.62539
34	0x4018e158	2.388754
35	0xc0c46a6b	-6.1379905

lstm.bias_ih_l0 f4 [12]
0	0xc0300b8d	-2.750705
1	0x409df1a3	4.9357467
2	0xbf7d08f5	-0.9884179
3	0xc0cf50f8	-6.478634
4	0x3ead72fb	0.33876786
5	0xc08c82af	-4.3909526
6	0x3e06f877	0.1318072
7	0xc10f9e19	-8.976098
8	0x4079dc02	3.9040532
9	0x40eac670	7.3367233
10	0x3feaf092	1.8354666
11	0x3fa3b6ee	1.2790201

lstm.bias_hh_l0 f4 [12]
0	0xc02e1560	-2.7200546
1	0x40ac10de	5.377059
2	0xbf965c73	-1.1746963
3	0xc0c8083b	-6.2510047
4	0x3e2d2adc	0.16910881
5	0xc085af5b	-4.1776557
6	0x3e6490f1	0.22320916
7	0xc10c4299	-8.766259
8	0x407fa4a0	3.994423
9	0x40e9441a	7.289563
10	0x3faebc01	1.3651124
11	0x3fed6f77	1.8549641
