results/04-03-2019_n/all_ca_arc_sinh_h24/ch21/grad_clip_0.0005/model/encoder.pth (torch_old, 406252 bytes, 4 tensors)

lstm.weight_ih_l0 f4 [96, 1030]
000000 49 f9 a7 bf 5a 4e 7b 3e 3e bb d9 3f ea fa c6 3f
       -1.3122951 0.24541607 1.7010267 1.5545323
000010 77 d1 14 3f 67 02 9d bf be 8e be bf 9d 39 6b bf
       0.5813212 -1.2266358 -1.4887311 -0.91884786
000020 dd b9 cd bf 7d 18 d8 bf 18 bd 92 bf a9 5d 2c c0
       -1.6072346 -1.6882473 -1.1463957 -2.6932166
000030 c0 8f ca bf 42 73 c7 bf d7 cc 19 bf 41 fc a1 3f
       -1.5825119 -1.5582049 -0.60078186 1.2655107
000040 09 59 fa 3f 96 75 3d 3f e0 a2 b6 3e 02 f3 e5 bf
       1.9558421 0.74007547 0.3567114 -1.7964785
000050 4e 24 96 3f d7 e0 63 3f 6d 9d cb 3f b8 38 36 3e
       1.1729829 0.89014953 1.5907418 0.17795074
000060 6b dd 59 bf a0 c8 be 3f e9 83 78 bf 6d bc e8 3e
       -0.8510348 1.4904976 -0.9707628 0.45456257
000070 49 b0 46 3f 35 f5 af 3e ed 20 db 3e 47 e6 2c bf
       0.7761274 0.34366766 0.42798558 -0.67538875
000080 d5 32 06 40 4f 76 93 3f 3d 74 a9 3f b6 5a d5 3e
       2.0968525 1.152048 1.3238598 0.4167077
000090 5c 39 de 3e f7 a6 81 3f 35 fb bc bf d2 0c 14 bf
       0.43403137 1.0129079 -1.4764162 -0.5783206
0000a0 d0 2a 4a 3f 3c dd a6 be 41 92 50 40 05 fc 29 bf
       0.78971577 -0.32590663 3.2589266 -0.66400176
0000b0 46 20 82 3f 7e f9 bc 3e 0a e4 0d c0 2a 3b 87 bd
       1.0166099 0.36909097 -2.2170434 -0.066030815
0000c0 4b 42 13 40 7e 35 aa be d4 92 dc be 8c f3 db 3f
       2.3009212 -0.33243936 -0.4308077 1.71837
0000d0 30 93 0d 3f 1c 8a 82 3f 94 89 b2 3f 2f b3 f6 3f
       0.55302715 1.0198398 1.3948236 1.9273432
0000e0 19 55 2b 40 88 e2 d6 3e 40 69 9c 3d c6 c5 8c 3f
       2.677069 0.41969705 0.07637262 1.0997856
0000f0 34 5d 05 c0 ea 30 1f c0 80 19 87 3e 5a d2 c1 bd
       -2.0838137 -2.4873605 0.26386642 -0.094639495
000100 c4 b8 27 40 c4 82 03 bd ed b6 76 3f d0 cf ba bf
       2.6206522 -0.03210713 0.9637287 -1.4594669
000110 b9 3e 28 3f 47 ff 11 40 2a d5 ab be 3f f3 2a bf
       0.6572071 2.281206 -0.3356107 -0.66777414
000120 ae a4 36 3f b9 c9 33 bf 09 d2 40 40 21 ef 7c 3f
       0.7134503 -0.7022968 3.0128195 0.9880238
000130 ad 28 b3 bd b1 33 14 3f f2 2a fa 3f 01 a7 8b bf
       -0.08747993 0.57891375 1.9544356 -1.091034
000140 9b ca a8 3e 4e f4 d9 bf 46 50 37 3d ed 30 0f 40
       0.32967076 -1.7027681 0.04475429 2.2373612
000150 57 00 c9 3f c6 a3 0d 40 f1 40 53 c0 29 7b 4e 3f
       1.5703229 2.213121 -3.3008387 0.8065668
000160 a5 c9 11 40 56 a7 9b be 7a cc 59 3f a3 68 8c bf
       2.2779324 -0.30401105 0.8507763 -1.0969433
000170 2b a0 42 c0 fa 89 d8 bf 7a 9c 05 c0 d9 f6 24 3f
       -3.0410259 -1.6917107 -2.0876756 0.6443916
000180 2a 1e db 3f 7d db 58 3f ea 91 a0 3f ac 3e 36 3e
       1.711858 0.8470991 1.254453 0.17797345
000190 f6 00 fe bf 91 86 c9 3f 7f b0 57 3f da 70 af 3f
       -1.9844043 1.5744191 0.84253687 1.3706315
0001a0 a4 16 45 3f fb 59 3a bd 45 b2 a5 be bb bb 94 3f
       0.7698767 -0.04549597 -0.3236257 1.1619791
0001b0 55 86 4c 3f 3f 83 0d 3f 26 a1 8f 3f de 8e 94 bf
       0.79892474 0.5527839 1.1221054 -1.16061
0001c0 c7 4d b3 3f 92 d9 99 3f 14 e2 3f 40 80 1e 6d bf
       1.4008111 1.2019522 2.9981737 -0.92624664
0001d0 17 43 53 bd 31 f0 c0 bf a6 00 32 40 bc 22 a9 bf
       -0.051577654 -1.5073301 2.7812896 -1.3213725
0001e0 2d 2a da 3c ba 45 05 bf 4f 36 d2 3e 19 02 0e be
       0.02663144 -0.5205952 0.4105706 -0.13867988
0001f0 87 0f 49 bf 38 72 75 3f 7c 7f 60 3e e5 43 9c bd
       -0.7853932 0.9587741 0.21923631 -0.07630137
000200 0b 74 74 3e 53 8e 5e 3f 8e 93 af bf 04 df 47 3f
       0.23872392 0.8693592 -1.3716905 0.7807467
000210 40 2e 06 c0 48 30 bc bf e7 c0 ff be a9 66 ed 3f
       -2.0965729 -1.4702234 -0.4995186 1.8546954
000220 e4 ca 18 c0 7a 31 28 40 5e 54 81 3e 0b 5b 70 40
       -2.3873835 2.6280198 0.2525968 3.7555568
000230 02 cb 59 3e fc 37 3d 40 7b d0 0b 40 af fc 4b be
       0.21268848 2.956542 2.1845996 -0.1992061
000240 82 38 5c 40 ce 17 0c 3f 71 df e5 3f 58 ba a7 bf
       3.440949 0.54723823 1.7958814 -1.3103743
000250 a5 34 c1 bc 54 c0 74 c0 77 94 b6 bd 03 95 21 40
       -0.023584673 -3.8242388 -0.08915036 2.52472
000260 dc bd 26 be 88 bc bc 3d 7c 8f 2a bf 64 84 94 bf
       -0.16283363 0.09215647 -0.6662519 -1.1602902
000270 c7 83 2a c0 3f 6c e2 bf 0c 3b 01 40 18 5e 28 bf
       -2.664293 -1.7689284 2.019229 -0.65768576
000280 e4 72 a3 bf 07 5b c4 bf 71 56 09 bf a1 b2 08 40
       -1.2769437 -1.5340279 -0.53647524 2.1359026
000290 f1 05 4a 3e 24 9c 15 40 57 ed 84 bd 6e 52 1f 40
       0.19728829 2.337655 -0.064905815 2.489406
0002a0 01 f3 03 3f 08 66 03 40 e4 ad cc bf 2d 97 d2 40
       0.5154267 2.0531025 -1.5990567 6.580954
0002b0 21 fd e3 bf 59 9d 65 bf 68 65 96 3f bd e0 b5 bf
       -1.7811624 -0.8969322 1.1749697 -1.420921
0002c0 e2 d1 a5 3f f1 62 00 40 4f be 11 3e 1a 39 1d c0
       1.2954676 2.006039 0.14232753 -2.4566102
0002d0 68 30 23 bf 88 d9 49 bf 1f 73 d2 bf cb 8f 29 40
       -0.6374574 -0.7884755 -1.6441382 2.6494014
0002e0 5e 96 16 c0 66 3a d9 bd e7 0f 88 3f 11 af 2d be
       -2.3529277 -0.10606842 1.0629853 -0.16961314
0002f0 0e a4 5a 40 11 c7 03 3f 29 f4 c5 3e d2 28 09 bf
       3.416263 0.51475626 0.38662842 -0.5357791
000300 6f 12 12 c0 b2 be d3 bf f8 11 24 c0 5b 52 dd 3f
       -2.282375 -1.654257 -2.5635967 1.7290758
000310 10 da 2c 3f 3d ae 3f 3f b9 d4 d3 be 01 4d 7b be
       0.67520237 0.7487524 -0.41373232 -0.24541093
000320 d9 6e 96 3f 33 bd ac bf 85 f2 82 40 17 2a 27 c0
       1.1752578 -1.3495239 4.0921044 -2.611944
000330 7c 6b 26 40 a7 74 69 3f 4f 36 0f 40 92 d9 31 c0
       2.6003103 0.9119362 2.2376897 -2.7789044
000340 f0 8f 2b 3f e6 6e bd bf d9 6e 38 c0 ba db a3 bf
       0.67016506 -1.4799469 -2.8817656 -1.280143
000350 91 d5 b4 3e 37 9a cc 3f d9 5d 2d bf 79 29 ff bf
       0.35319188 1.5984563 -0.67721325 -1.9934531
000360 19 2b 3c be 1a 5a 70 bf 9f 8a bf be 5d c6 d4 be
       -0.18375815 -0.93887484 -0.37410447 -0.4155759
000370 51 f9 80 bd ed dd e5 3e ab 9d e8 bf 91 26 ed bf
       -0.06297553 0.44895878 -1.8173116 -1.8527395
000380 63 ea b6 3f f2 6b 39 be 15 a7 a5 3f 1c fb 9d 3e
       1.4290279 -0.18107584 1.2941614 0.30855644
000390 74 96 fa be 25 51 42 bf 65 e5 f6 3e 6f 4d 4e bf
       -0.48942912 -0.75905067 0.4822189 -0.80586904
0003a0 e6 9e 3a 3f e4 74 f0 bf 57 61 71 bf 3a 95 1c c0
       0.7289871 -1.8785672 -0.94289154 -2.446608
0003b0 be 67 a9 bf b4 c3 9a be 0f 95 82 bf a3 83 6c bf
       -1.3234785 -0.30227435 -1.0201739 -0.9238836
0003c0 b0 4f d7 3f 7e 24 05 40 71 69 57 bf 86 b7 07 c0
       1.6821194 2.0803523 -0.84145266 -2.1205764
0003d0 1b 4f 37 40 cb 9e 18 40 8c 55 19 3f e0 62 3f bf
       2.8642032 2.384692 0.5989616 -0.74760246
0003e0 ff d7 bd be 36 6d 9d 3d f8 bd 81 3f e5 4d a5 3e
       -0.37078854 0.07686846 1.0136099 0.3228599
0003f0 47 08 b2 bf 4d 81 6b 3f cb 24 b9 bf c4 8c ff 3f
       -1.3908776 0.9199417 -1.4464353 1.9964833

lstm.weight_hh_l0 f4 [96, 24]
000000 be d3 9f 40 3c 2c 1c c1 ca 34 19 c1 bc 85 0a c1
       4.9945974 -9.760799 -9.575388 -8.65765
000010 47 1a fa c1 c6 cb ae c1 e4 5a 9e 41 0e 77 ba c0
       -31.26283 -21.849499 19.79438 -5.827033
000020 d8 d4 5c c1 a4 40 b8 c1 10 21 8b c1 2c 46 d6 41
       -13.801964 -23.031563 -17.391144 26.784264
000030 e1 99 47 41 80 4c 81 c1 d8 fc a6 c1 3d fc da c1
       12.475068 -16.162354 -20.873459 -27.373163
000040 96 de 99 41 46 26 82 c1 d4 ea 2c c1 03 50 d6 c1
       19.233685 -16.268688 -10.807331 -26.789068
000050 30 8b 4b c1 cf 50 fe 41 29 e1 61 41 c2 63 9e 41
       -12.721481 31.789457 14.117471 19.79871
000060 e5 87 3e 40 68 a0 68 3f 19 14 b0 3f 6a c6 66 41
       2.9770443 0.9086976 1.3756133 14.423441
000070 bd 1e 87 41 b1 c6 0b 41 f9 14 08 3f 2d d9 7a 40
       16.890009 8.736009 0.53157 3.9195054
000080 37 72 c1 c1 a2 7d 83 40 28 25 b3 c0 f9 d9 4f c1
       -24.180769 4.109086 -5.5982857 -12.990716
000090 da 28 11 41 ad 04 19 c1 d4 d8 73 c0 9f 98 1b c1
       9.072474 -9.563642 -3.8101091 -9.724761
0000a0 11 20 07 c1 3e 2b fa c0 73 ea 05 c1 41 ad 61 c0
       -8.445329 -7.8177786 -8.369739 -3.5261996
0000b0 2c 02 ff bf 1d ff 80 41 30 ab d7 40 48 e2 da 40
       -1.9922538 16.124567 6.739647 6.840122
0000c0 5b 0d c2 c0 e1 f4 b3 c0 c6 a9 5d c0 2b dd 51 41
       -6.0641303 -5.6236424 -3.4634871 13.116496
0000d0 40 28 a7 41 3e 68 eb c0 3f c7 2e c1 b7 5e 38 c0
       20.894653 -7.356475 -10.923644 -2.880781
0000e0 b4 a2 77 c0 d5 07 02 c2 92 72 e6 c0 02 0f 30 41
       -3.8693056 -32.50765 -7.2014856 11.003664
0000f0 9d 6a 19 41 47 fa b2 c0 03 ee bb 40 95 16 ae 41
       9.588529 -5.5930514 5.872804 21.761026
000100 8f 86 e2 40 66 ff a1 c1 86 b8 a1 3f 67 83 ec c1
       7.0789256 -20.249706 1.2634437 -29.564161
000110 ad 1a c1 40 f6 90 cf c1 b2 6c 19 41 e1 43 33 c1
       6.0345063 -25.945782 9.589037 -11.204072
000120 96 99 f9 c0 0f f5 6b c0 52 6e 66 40 61 a1 bd c0
       -7.7999983 -3.6868322 3.6004834 -5.9259496
000130 36 28 af 40 e6 95 89 40 19 2d 4a 40 14 58 9a c0
       5.4736586 4.299548 3.1590025 -4.8232517
000140 e7 52 3d 40 09 37 03 40 12 bf 14 c1 34 f3 06 c1
       2.958185 2.050234 -9.296648 -8.434376
000150 03 cf 80 41 58 22 a3 40 2e 07 20 41 3a 86 e8 40
       16.10108 5.0979424 10.001753 7.266385
000160 d8 3a 64 c1 d3 41 e2 be c0 51 78 40 c0 cc ba c0
       -14.264366 -0.44190845 3.8799896 -5.837494
000170 1b 92 2e 41 32 d5 47 c1 85 cf 7d 40 58 da c0 c0
       10.91067 -12.48955 3.965791 -6.0266533
000180 79 13 73 40 72 09 7f bf c9 7e 95 40 22 83 b2 40
       3.7980635 -0.9962379 4.6717267 5.5785074
000190 2a f6 a4 40 d9 5f df 3f e9 8c 7c 40 d4 8b 2f c0
       5.1550493 1.7451125 3.9461005 -2.7429094
0001a0 b3 d9 24 c1 bf 38 4c c0 85 86 b4 c0 35 8d 86 40
       -10.303149 -3.1909635 -5.641421 4.204737
0001b0 0c b8 d5 40 9c 54 e0 bf b4 27 18 40 dd 95 4f c0
       6.6787167 -1.7525821 2.3774233 -3.243522
0001c0 5a 26 92 bf 10 0d 9d bf ba 34 56 c0 6b 10 4c c0
       -1.1417954 -1.2269611 -3.3469682 -3.188502
0001d0 76 8f 7d c0 36 76 a4 3f ce 02 2b bf f6 ec 23 40
       -3.9618812 1.2848575 -0.66801155 2.561338
0001e0 4c 5f 6d 41 3f c5 37 c1 ea 59 b9 c0 02 87 23 41
       14.835766 -11.485656 -5.792226 10.220461
0001f0 57 be 8f 41 95 8f 02 c1 35 62 11 40 87 ab 81 40
       17.96794 -8.160054 2.271619 4.0521884
000200 d3 f1 24 c1 af 8f 20 c1 58 d3 7c 3d 80 70 e3 bf
       -10.309039 -10.035079 0.06172499 -1.7768707
000210 50 cf c0 bf 49 10 80 c1 20 66 d0 c1 d3 87 9c c0
       -1.5063267 -16.007952 -26.049866 -4.89158
000220 1f 6c 4b 41 3b 50 d8 c0 7d 3d 99 c0 73 c6 1e c1
       12.713897 -6.7597938 -4.788756 -9.9234495
000230 da 0a 8c c0 08 d4 f9 41 ab eb 82 41 63 a5 07 41
       -4.3763247 31.22853 16.365072 8.477878
000240 fe 48 97 3f ae 13 4f c0 fd 36 8f 3f 02 35 79 bf
       1.181915 -3.2355762 1.1188656 -0.9734651
000250 86 c5 48 c0 ff 6f 07 bf b3 e3 f1 c1 67 f1 0c c1
       -3.1370559 -0.5290527 -30.236181 -8.808936
000260 83 d0 b5 3f 78 d0 4f c0 ce f5 92 3e e1 48 5b c1
       1.4204258 -3.247099 0.2870316 -13.705293
000270 69 d4 9e 40 36 22 43 c0 46 63 ac c0 92 df 5a c0
       4.963429 -3.048963 -5.3871183 -3.4198956
000280 cb 89 a4 40 c0 d3 53 c1 5e bd c1 c0 64 59 44 c0
       5.1418204 -13.239197 -6.054366 -3.067956
000290 02 42 29 41 06 75 05 42 73 bf 12 3f 78 61 c1 40
       10.578615 33.36428 0.5732338 6.043148
0002a0 be 0c c1 3e 36 6b 3b 40 a1 fb f4 bf e2 c1 72 c1
       0.37705034 2.9284186 -1.9139291 -15.172335
0002b0 5d 20 0d c1 ba 46 8f c0 7b 10 8b 40 5c 46 39 42
       -8.820401 -4.4773836 4.345762 46.31871
0002c0 35 95 cd c0 06 69 85 c1 1b d6 43 c1 8d ac 19 41
       -6.4244637 -16.676281 -12.239772 9.604627
0002d0 89 fd 3a 41 75 0a 8e c0 ae 7d 5a c1 42 b8 0e 40
       11.686898 -4.4387765 -13.6556835 2.2299962
0002e0 b1 c9 cf 41 f8 0c 70 c0 c6 a2 dc 3f ec 8a 6a c1
       25.973482 -3.7507915 1.7237175 -14.658916
0002f0 b7 1c e2 40 d9 e9 89 bf 6b 0c c2 40 98 57 78 c0
       7.066005 -1.077449 6.064016 -3.8803463
000300 55 af 24 41 69 42 31 c1 02 7c b9 3f 2d fd 7e 3f
       10.292806 -11.078713 1.4490969 0.99605066
000310 e4 ac b6 41 e7 b2 ef c0 15 60 cc bf eb 6e 25 c1
       22.83442 -7.4905887 -1.5966822 -10.33958
000320 48 09 0f 41 e2 a1 b5 c0 9b c8 94 3f 9c c8 00 41
       8.939766 -5.676011 1.162372 8.048977
000330 90 f1 5c bf 02 78 8f 40 57 d9 af c0 94 63 0a bf
       -0.86306095 4.4833994 -5.4952807 -0.54058194
000340 66 c5 0d 41 b8 d0 77 40 1c 5e 15 c1 ad 69 57 c0
       8.860693 3.8721142 -9.335476 -3.365825
000350 e5 79 ae 40 4e 76 16 c1 f5 48 7e c0 aa fd da be
       5.4523797 -9.403883 -3.973203 -0.42771655
000360 31 cb b1 41 86 1b af c1 ea d5 8b c1 3d 9b f6 3f
       22.224215 -21.88844 -17.47945 1.9266125
000370 75 b1 85 c1 c0 17 79 c1 55 36 65 41 bf 02 be c0
       -16.711649 -15.568298 14.325765 -5.937835
000380 2a ba 7d c1 f8 6e 54 c1 8c a2 bd c0 9a a7 4e 41
       -15.85795 -13.277092 -5.926092 12.915918
000390 98 76 25 40 47 d3 cc c1 1e 5f e7 c1 cc 84 9b c1
       2.5853634 -25.603163 -28.921444 -19.439842
0003a0 0d 6d d2 40 2b f3 c8 c0 64 30 8d c0 e7 a4 2c c1
       6.575812 -6.2796836 -4.412157 -10.790259
0003b0 bd 90 71 c1 1e b8 b2 41 e7 96 a4 41 2f 13 d7 41
       -15.0978365 22.339901 20.573683 26.884367
0003c0 30 9b c7 41 67 81 39 c1 9d fd 3a c1 6b 3b 6c 41
       24.950775 -11.594092 -11.686917 14.764506
0003d0 15 9a 88 40 a0 c3 07 c2 1c 81 f6 c0 b3 19 31 41
       4.268809 -33.94104 -7.7032604 11.068774
0003e0 73 fc 9b c0 22 61 bc 40 f2 e0 93 40 2e 06 96 41
       -4.8745666 5.886857 4.621209 18.753017
0003f0 4e 79 d3 c0 1f e6 8f c1 47 f6 f8 c1 ff 68 2e c1
       -6.6085577 -17.987364 -31.120253 -10.900634

lstm.bias_ih_l0 f4 [96]
000000 90 f9 2c 42 bb cc 57 be de 62 a4 c1 4d f5 d5 c0
       43.243713 -0.21074192 -20.548275 -6.686194
000010 a6 5e 14 41 2d 8b 70 41 66 ea 7d 41 1a e2 5e 41
       9.273108 15.033978 15.869726 13.930201
000020 99 f6 33 c0 db c6 39 42 7e a9 21 42 ce a4 a3 41
       -2.8119261 46.444195 40.41552 20.455471
000030 c3 4f 05 c1 79 40 29 42 7f 23 a5 41 f9 86 27 42
       -8.331973 42.31296 20.642332 41.88181
000040 60 b6 03 42 78 21 3a 41 0e 34 42 41 5f c0 74 42
       32.9281 11.633171 12.137709 61.187862
000050 0a 9c b7 41 69 eb 56 42 35 90 e3 41 53 0e 98 c1
       22.95119 53.729893 28.445414 -19.006994
000060 72 42 f1 c1 96 3f 68 c2 19 f3 8a c2 42 02 24 c2
       -30.157444 -58.062096 -69.4748 -41.002205
000070 24 6c cc c1 32 28 38 c2 37 61 ff c1 83 e6 23 c2
       -25.552803 -46.039253 -31.922468 -40.97511
000080 3c 2b 38 c2 79 e9 8b c1 46 5a c8 c1 ac 7b 35 c2
       -46.04222 -17.489 -25.044079 -45.370773
000090 5d 51 f8 c1 51 5e b7 c1 4b 72 1f c2 8d b8 e0 c1
       -31.039728 -22.921053 -39.861614 -28.090113
0000a0 3d dc df c1 53 6c 2f c2 e5 ce 2d c2 ba 26 70 c1
       -27.982538 -43.855785 -43.452045 -15.009455
0000b0 94 44 61 c1 69 54 92 c2 49 fb 26 c2 a1 1c 6e c2
       -14.079243 -73.16486 -41.745396 -59.527958
0000c0 72 b3 29 42 55 45 2a c2 24 60 0d c2 ab 76 f8 c1
       42.42524 -42.567707 -35.343887 -31.057943
0000d0 e0 82 01 c2 32 cf 4d c2 83 de 45 42 67 82 14 c2
       -32.377808 -51.45234 49.467297 -37.127346
0000e0 6c db 39 c2 20 f0 55 c2 69 03 4f c2 fc 3f 39 42
       -46.46428 -53.484497 -51.75333 46.312485
0000f0 70 3b 7c 40 c4 29 20 c2 b6 fc 33 c2 3b 36 09 41
       3.9411278 -40.040787 -44.996788 8.57574
000100 7c d4 40 42 33 23 3f c2 d4 07 40 c2 76 c6 61 c2
       48.207504 -47.784374 -48.007645 -56.44381
000110 97 1e 40 c2 bd 4e 06 42 f7 9e 33 42 97 a5 21 41
       -48.029873 33.576893 44.90524 10.102927
000120 ec b3 4e c2 b6 5f 1e c2 1b 60 ed c1 b7 2e 19 c1
       -51.675705 -39.593468 -29.671926 -9.573905
000130 6f a6 6e 41 9d 5e 02 c2 0e 61 dd c0 8b e6 25 c2
       14.915633 -32.592396 -6.9180975 -41.47514
000140 72 d9 ff c1 dd f4 07 42 e5 cd 1b c2 28 fe 14 3f
       -31.981174 33.989124 -38.95107 0.5820031
000150 f6 06 31 c2 cd 7c 2c c2 1d fc 2a c2 bf 7d 42 c2
       -44.256798 -43.121876 -42.746204 -48.6228
000160 41 1a 0f c2 75 74 01 c0 d4 ae 17 c2 a1 0a 5d 40
       -35.77564 -2.022733 -37.92073 3.4537737
000170 f5 31 7e 41 60 18 2b c2 4d 63 4b c2 57 0b 90 c2
       15.887197 -42.773804 -50.846973 -72.02215

lstm.bias_hh_l0 f4 [96]
000000 1e c5 2d 42 40 96 b2 be b4 6c a4 c1 3b 7f c9 c0
       43.442497 -0.34880257 -20.553078 -6.296781
000010 6c 51 12 41 56 2a 73 41 7b fc 80 41 bf d1 5e 41
       9.144878 15.197836 16.123281 13.926208
000020 9d 87 33 c0 1b 50 3a 42 54 83 20 42 24 76 a1 41
       -2.8051522 46.578228 40.12825 20.182686
000030 12 a2 02 c1 01 64 28 42 07 fd a5 41 02 0e 28 42
       -8.164568 42.09766 20.748549 42.01368
000040 c4 ea 04 42 39 99 3c 41 9d b3 42 41 81 88 75 42
       33.229263 11.787408 12.168851 61.383305
000050 6b 8e b6 41 a2 40 56 42 30 73 e6 41 0e 0f 98 c1
       22.81954 53.563118 28.806244 -19.00735
000060 7b 81 ef c1 dc 20 69 c2 44 ee 8a c2 5e 67 23 c2
       -29.938223 -58.28209 -69.46536 -40.850945
000070 ff 9a cc c1 4b 0c 38 c2 18 f9 fe c1 c4 04 23 c2
       -25.575682 -46.012005 -31.871628 -40.754654
000080 da 33 38 c2 a9 8d 8c c1 4d 40 c7 c1 9c 2b 35 c2
       -46.050636 -17.56917 -24.906397 -45.292587
000090 73 60 f8 c1 f8 81 b6 c1 a3 46 1f c2 4e bc e1 c1
       -31.047094 -22.813461 -39.81898 -28.216946
0000a0 5a f1 dd c1 60 d7 2f c2 37 91 2e c2 20 3b 6f c1
       -27.742847 -43.960327 -43.64181 -14.951935
0000b0 69 83 66 c1 e7 12 92 c2 37 64 26 c2 eb 5a 6d c2
       -14.407083 -73.03692 -41.597866 -59.338787
0000c0 17 bc 28 42 63 f1 2a c2 0c 1b 0e c2 19 fd f8 c1
       42.18368 -42.73573 -35.526413 -31.123583
0000d0 21 dc 00 c2 74 7d 4e c2 12 53 46 42 17 6a 15 c2
       -32.21497 -51.622513 49.581123 -37.353603
0000e0 79 53 3a c2 29 6d 55 c2 34 ab 4d c2 5f 26 3a 42
       -46.581516 -53.3566 -51.41719 46.53747
0000f0 86 af 7c 40 f1 7a 20 c2 e5 8f 33 c2 cd 8e 03 41
       3.948213 -40.12006 -44.890522 8.222363
000100 fd 7e 41 42 29 3c 3f c2 81 a8 3f c2 7f 15 61 c2
       48.374012 -47.80875 -47.914555 -56.270992
000110 a0 50 40 c2 d8 95 06 42 70 59 33 42 cd e1 24 41
       -48.078735 33.64633 44.83734 10.305127
000120 7f 6c 4e c2 4a c0 1e c2 f2 00 ef c1 5d 6f 19 c1
       -51.605953 -39.687782 -29.875462 -9.589688
000130 cc 9f 6d 41 0e ac 02 c2 ab bd e5 c0 15 0d 26 c2
       14.851513 -32.668022 -7.179403 -41.512775
000140 27 3a ff c1 99 03 08 42 1b 74 1b c2 3f 88 c7 3e
       -31.903395 34.003513 -38.863384 0.38971135
000150 b9 c8 31 c2 64 81 2c c2 e1 64 2b c2 7c 4e 43 c2
       -44.44602 -43.126358 -42.848515 -48.826645
000160 f0 75 0f c2 84 a6 f4 bf 75 5a 18 c2 9e 89 55 40
       -35.865173 -1.9113317 -38.088337 3.3365245
000170 e8 6a 80 41 34 bd 2a c2 06 ce 4b c2 d5 d7 8f c2
       16.0522 -42.68477 -50.951195 -71.92155
