results/03-04-2019_n/bidir_h4/model/decoder.pth (torch_old, 2054 bytes, 10 tensors)

lstm.weight_ih_l0 f4 [8, 4]
-2.0235903 -2.9055114 -0.5755744 1.1628224 3.8988938 2.7688484 0.4970305 1.2277097
12.906987 -4.2862353 6.493281 -2.6134079 4.1730685 -31.071327 -0.31223366 -1.4989731
0.5258878 41.195576 0.070192054 -24.368767 2.6071908 8.488689 0.4418776 0.8064343
0.7074787 0.9487314 0.8973825 -1.8490874 -0.07686917 -9.125936 -0.360439 4.5148478
00000000: 8182 01c0 e6f3 39c0 d858 13bf 5dd7 943f
00000010: 7a87 7940 d034 3140 c87a fe3e 9725 9d3f
00000020: 0583 4e41 d728 89c0 f5c8 cf40 1342 27c0
00000030: c789 8540 1492 f8c1 17dd 9fbe 5ade bfbf
00000040: 95a0 063f 45c8 2442 dac0 8f3d 3cf3 c2c1
00000050: 37dc 2640 acd1 0741 c83d e23e 7a72 4e3f
00000060: 531d 353f 10e0 723f dcba 653f e5ae ecbf
00000070: 956d 9dbd d503 12c1 768b b8be a279 9040

lstm.weight_hh_l0 f4 [8, 2]
-0.9013625 -0.5683924 0.025685564 0.88760877 1.0485034 1.3362693 0.26572642 0.10823602
-1.6809702 0.26233456 -1.8433088 -0.106300354 0.5250875 0.7492084 -2.7604983 3.5066297
00000000: b1bf 66bf 2a82 11bf 886a d23c 543a 633f
00000010: 5c35 863f df0a ab3f 4b0d 883e d9aa dd3d
00000020: 082a d7bf b750 863e 8bf1 ebbf 00b4 d9bd
00000030: 226c 063f 1fcc 3f3f 01ac 30c0 9f6c 6040

lstm.bias_ih_l0 f4 [8]
0.3281796 0.7825613 6.811634 0.7082203 0.053542987 2.8302994 1.8308421 1.5321176
00000000: 2807 a83e f055 483f e8f8 d940 ed4d 353f
00000010: e44f 5b3d a023 3540 0959 ea3f 6e1c c43f

lstm.bias_hh_l0 f4 [8]
0.4045125 0.19469471 5.715933 1.3954777 -0.046315208 2.847019 2.070607 1.9756731
00000000: 431c cf3e 0d5e 473e ece8 b640 039f b23f
00000010: 04b5 3dbd 8f35 3640 d384 0440 dbe2 fc3f

lstm.weight_ih_l0_reverse f4 [8, 4]
1.334123 0.15064952 13.264625 0.62576467 20.563759 -0.5075453 -0.0904067 -5.8761377
-1.061415 0.08603349 -8.176347 0.955963 -1.5268186 0.6648116 -0.59871745 7.0241566
-3.0836895 -0.122149564 -78.3124 -0.19368441 -35.78359 4.515645 -1.1432664 -0.2312788
-0.5034636 0.01693099 0.91049856 0.47617483 2.9897676 0.6924796 0.90153795 1.0234035
00000000: 8bc4 aa3f de43 1a3e e73b 5441 1d32 203f
00000010: 9482 a441 7dee 01bf 2627 b9bd 5209 bcc0
00000020: 72dc 87bf 5432 b03d 51d2 02c1 feb9 743f
00000030: cb6e c3bf 1831 2a3f 8c45 19bf e4c5 e040
00000040: 2b5b 45c0 8d29 fabd f39f 9cc2 3555 46be
00000050: 6522 0fc2 2a80 9040 8e56 92bf 5ad4 6cbe
00000060: fee2 00bf dcb2 8a3c 6f16 693f 30cd f33e
00000070: 5a58 3f40 5846 313f 31cb 663f e3fe 823f

lstm.weight_hh_l0_reverse f4 [8, 2]
-3.6593916 -0.75483423 0.2148176 -0.9226738 1.1927764 -0.8571526 0.83919156 -0.21916267
0.41305426 0.20111255 -1.472648 0.5346524 -1.4155421 0.32159492 0.9338298 -3.8822808
00000000: 7933 6ac0 d13c 41bf 25f9 5b3e 5a34 6cbf
00000010: e6ac 983f 5a6e 5bbf 42d5 563f 2e6c 60be
00000020: d97b d33e 73f0 4d3e bb7f bcbf fbde 083f
00000030: 7c30 b5bf 17a8 a43e 780f 6f3f 4a77 78c0

lstm.bias_ih_l0_reverse f4 [8]
0.58566684 2.3350112 2.8722277 0.82068574 -0.6467468 -4.4891686 -0.48272336 1.4790443
00000000: 43ee 153f d370 1540 94d2 3740 7618 523f
00000010: 3391 25bf 45a7 8fc0 8427 f7be 5351 bd3f

lstm.bias_hh_l0_reverse f4 [8]
0.041150656 2.6679673 2.9484694 -0.023686612 0.14869529 -4.306014 -0.33651993 1.7736197
00000000: 978d 283d fabf 2a40 b9b3 3c40 6d0a c2bc
00000010: 9443 183e deca 89c0 574c acbe f805 e33f

out.weight f4 [8, 4]
-2.9088356 0.015133284 -2.0000439 -4.2541633 5.5511646 5.816346 -5.0028057 -6.5314565
10.20379 8.279832 -7.348392 -10.713207 -0.8199922 1.618071 0.06494471 1.2346754
-7.4023795 -0.05050847 -3.1908872 -8.190219 -0.7141435 -0.89357966 -18.956102 4.1345444
-0.6469345 0.24643347 -1.5038784 -2.5359454 -5.27496 7.8746743 1.1712246 2.146944
00000000: 5d2a 3ac0 98f1 773c b800 00c0 1b22 88c0
00000010: 24a3 b140 821f ba40 fc16 a0c0 b101 d1c0
00000020: b942 2341 317a 0441 0726 ebc0 4c69 2bc1
00000030: 02eb 51bf f31c cf3f bb01 853d d809 9e3f
00000040: 4be0 ecc0 f8e1 4ebd 7f37 4cc0 230b 03c1
00000050: 1cd2 36bf a3c1 64bf 19a6 97c1 304e 8440
00000060: 809d 25bf 0e59 7c3e 167f c0bf ee4c 22c0
00000070: 79cc a8c0 55fd fb40 b0ea 953f 8867 0940

out.bias f4 [8]
1.2114154 8.3276615 12.09454 1.7337465 0.8766704 3.9523008 1.3214995 4.766429
00000000: a90f 9b3f 1a3e 0541 3c83 4141 68eb dd3f
00000010: 796d 603f 7ff2 7c40 e526 a93f 9686 9840
