results/03-04-2019_n/bidir_h4/model/encoder.pth (torch_old, 1905 bytes, 8 tensors)

lstm.weight_ih_l0 f4 [8, 8]
000000 86 cf 02 be 73 ee 9d 3d 5c 38 38 3e 81 ad be bc
       -0.12774476 0.07711496 0.1799025 -0.023276092
000010 14 3e 9d be 73 5c ea bc 8a e9 43 bd d6 12 66 be
       -0.30711424 -0.028608536 -0.047830142 -0.22468123
000020 db 5e a6 3f 15 11 90 be 28 43 0e bf 89 14 92 3e
       1.2997698 -0.28138033 -0.5557122 0.28531292
000030 c8 88 ae 3f 1a 26 38 3f d7 27 b5 3e c7 42 bf bf
       1.3635492 0.7193314 0.35381958 -1.4942254
000040 3c 26 6d bf 06 66 37 3e bb 37 c8 3e 34 a4 e0 bc
       -0.92636466 0.17910013 0.3910502 -0.027422048
000050 86 8c 25 c0 52 ee a1 be b4 d7 b4 be 69 e9 16 c0
       -2.5867019 -0.31627136 -0.35320818 -2.3579962
000060 a8 55 dc 3d 54 9c 8f be 0a d3 9a be f9 69 6f be
       0.10758525 -0.28048956 -0.30239135 -0.23380269
000070 2a 9e 54 3e 75 f3 b5 3d 69 b8 f6 3d fe 33 98 bf
       0.2076346 0.08884326 0.12046892 -1.1890867
000080 37 dd 09 bf db 28 f1 3e 4a cf 5f 3f e5 9f 7c be
       -0.5385317 0.47101483 0.87425673 -0.2467037
000090 a5 01 9a bf 37 88 81 be 1e d3 fd bd c6 04 94 bf
       -1.2031752 -0.25299236 -0.12393783 -1.1563957
0000a0 cb ba 3c bf 51 ce 2c bf 78 01 93 bf d1 77 a0 bf
       -0.73722523 -0.67502314 -1.1484823 -1.2536565
0000b0 af e4 39 3e 9a b1 a9 be 93 9a 85 bf 83 29 65 bf
       0.18153642 -0.33143312 -1.0437797 -0.89516467
0000c0 20 67 b2 bf 82 a8 30 3d c4 ae 24 3e 73 2d fc be
       -1.3937721 0.04312945 0.16082293 -0.49253425
0000d0 65 7b bf bf ba 2b 18 bf 4c 30 17 be 15 14 4c bf
       -1.4959532 -0.5944172 -0.14764518 -0.7971814
0000e0 a8 8a 2d 3e 2e e5 8c be ea 70 be be 1b 56 4c be
       0.16947424 -0.275186 -0.37195522 -0.19954722
0000f0 ef ed 3b 3e 60 b7 1c 3e ca 5f 82 3c c7 d0 71 bf
       0.18352483 0.15304327 0.015914816 -0.94459194

lstm.weight_hh_l0 f4 [8, 2]
000000 a4 48 31 c0 77 2a 25 3e 8f f4 e3 40 c8 2b 94 40
       -2.7700586 0.1612948 7.1236033 4.6303444
000010 10 65 35 c0 98 75 65 c1 3d af 78 40 7b 73 bd 3f
       -2.8342934 -14.341209 3.8856957 1.4800867
000020 fb fc b7 3c 45 f8 80 3f ca 89 40 c0 5d 12 20 40
       0.022459498 1.0075766 -3.00841 2.5011208
000030 09 9f 8b c0 b5 c2 fd 40 f0 16 3d 40 d3 54 fa 3f
       -4.3631635 7.930018 2.954525 1.9557136

lstm.bias_ih_l0 f4 [8]
000000 e0 b1 4a 3f 02 6a 3a 41 8c 58 00 c1 c2 45 ee bd
       0.79177666 11.650881 -8.021618 -0.11634399
000010 a6 c9 d8 40 4a 12 87 c0 3d 29 02 c1 5c fc 29 40
       6.7746153 -4.2209826 -8.135068 2.6560278

lstm.bias_hh_l0 f4 [8]
000000 36 9e 08 3f cf 4f 44 41 e3 00 f7 c0 c9 84 51 bf
       0.5336641 12.2694845 -7.7188582 -0.8184324
000010 da 8e dd 40 f4 fb 98 c0 07 c6 03 c1 6f ca 1e 40
       6.923688 -4.780756 -8.2358465 2.4811056

lstm.weight_ih_l0_reverse f4 [8, 8]
000000 c2 e0 a7 3f 6a 3e ee 3e 0a 4d 6d 3e 85 07 b3 3f
       1.3115466 0.46531993 0.2317392 1.398667
000010 6f 7d d1 3f da 30 e3 3d 4c b1 fa 3e f6 b7 d6 3f
       1.6366404 0.11093302 0.48963392 1.677489
000020 aa 3e 27 bf a2 7c c4 be fc 90 28 bf 0a fd a4 3e
       -0.6532999 -0.38376337 -0.6584623 0.32224303
000030 dc 49 b8 bf c7 94 4f 3f f9 89 14 3f a3 bc 8f 3f
       -1.439754 0.8108639 0.5802303 1.1229442
000040 7a 93 14 be 40 7d 3b be e9 4a 43 be b5 4e 3c bd
       -0.14509383 -0.18309498 -0.19071545 -0.0459735
000050 7b 3b 5a be 8b ca 12 c0 ec dd bc bd 8a 76 db 3d
       -0.21311752 -2.2936122 -0.09222016 0.10715969
000060 a7 c3 30 bf a2 19 8b be 78 e7 fd bd 1c 23 f7 3d
       -0.6904854 -0.27167994 -0.12397665 0.120672435
000070 d0 11 6c bf 66 fc c9 3e b9 12 3e be f0 ae a6 3e
       -0.9221468 0.39450377 -0.1856183 0.32555342
000080 ff 4a 9e 3f 50 ff 64 3f c8 d8 34 be 5a a4 07 40
       1.2366637 0.89452076 -0.1766082 2.1194062
000090 f8 0c 36 3f 03 6e 08 3f 31 d8 fd 3f ee 73 1e 40
       0.7111354 0.53292865 1.9831601 2.4758258
0000a0 ad 18 42 3e d7 0b 44 bd a2 cd 31 3e cd ab 2e 3f
       0.18954726 -0.047862854 0.17363599 0.682309
0000b0 a6 f7 0a 3e e9 ac 4b 3f c0 b9 22 3f 0d 50 0d 3f
       0.13571033 0.79560715 0.6356468 0.5520027
0000c0 5c 6e ca 3d df 49 23 3e 3a a5 49 3e 09 e7 99 3c
       0.09884331 0.15946148 0.19691935 0.018786924
0000d0 1a ae 73 3e 24 c3 91 3f e7 ad da 3d 92 b5 c6 bd
       0.23796883 1.1387677 0.106777005 -0.097026005
0000e0 50 d4 88 be 6d de 1f be 82 d8 8e be 49 b7 e8 3d
       -0.26724482 -0.15612192 -0.27899557 0.11363084
0000f0 75 57 13 bf 15 0f 8c 3e 4c 1f 0d be ea 99 81 3e
       -0.57555324 0.27355257 -0.1378147 0.2531274

lstm.weight_hh_l0_reverse f4 [8, 2]
000000 bb 24 4c be 6e 6e 40 41 7e 6b 86 40 0a 66 ac c0
       -0.19935887 12.02696 4.2006216 -5.387456
000010 59 f5 c7 c0 ee c8 04 c0 d0 2d 5e bf 01 73 d7 bf
       -6.2486997 -2.0747638 -0.86788654 -1.6831971
000020 1b bb a2 3e a0 79 b4 40 70 35 54 bf 3b 70 18 c0
       0.31783375 5.639847 -0.8289404 -2.38185
000030 7a f7 63 c0 e5 1d 41 40 d1 ad 18 3f ff 74 82 bf
       -3.5619798 3.0174496 0.5964022 -1.0191954

lstm.bias_ih_l0_reverse f4 [8]
000000 bb 39 e7 40 67 d1 27 41 9a 46 a8 3f 83 86 14 c0
       7.225797 10.488624 1.3146546 -2.32071
000010 50 31 97 40 02 3c 2a 40 25 bd 95 c0 78 ff 85 3f
       4.7247696 2.6599126 -4.679339 1.0468588

lstm.bias_hh_l0_reverse f4 [8]
000000 7f 52 ec 40 15 c1 26 41 8d 85 4a 3f 04 6b 19 c0
       7.3850703 10.422139 0.7911003 -2.3971567
000010 cd 59 9d 40 5d 4c 5f 40 51 c0 97 c0 72 25 a8 3f
       4.917212 3.4890358 -4.742226 1.3136427
