results/02-25-2019/lr-2/model/encoder.pth (torch_old, 1349 bytes, 4 tensors)

lstm.weight_ih_l0 f4 [12, 8]
000000 96 f2 67 3e ae e0 5b be 9e 02 a9 be b1 bc 48 3e
       0.22651133 -0.21472427 -0.3300981 0.1960323
000010 ad d0 ae 3e 8c 24 da 3e d3 65 ee 3c 20 a2 d3 3f
       0.34143582 0.42606008 0.029101288 1.6533852
000020 60 11 c8 be 14 74 19 40 e3 68 1d 3f 0e 27 97 be
       -0.39075756 2.3977098 0.6148817 -0.29521984
000030 19 7b 7e be 7b 6f bf 3e 33 4a a7 3f d5 34 38 c0
       -0.24851646 0.3738974 1.3069519 -2.8782246
000040 46 64 12 be cf 0e 3b 3f d8 4c 96 3f 5b 23 0d be
       -0.14296064 0.7306947 1.1742201 -0.13783018
000050 1b 1e 13 bf 94 56 a5 be db 04 a9 bd c6 55 70 bf
       -0.5746781 -0.32292616 -0.08252879 -0.9388088
000060 ab 08 c3 3d 92 5a 3e bd c3 5c 25 be 2b 7d b5 3d
       0.09523138 -0.046473093 -0.16148667 0.088617645
000070 e8 dc 63 3e d9 89 83 3e 12 32 9e 3c e4 c8 09 3f
       0.22252238 0.25691107 0.019310985 0.5382216
000080 d8 79 6d 40 61 a4 31 bf 23 56 5c bf 49 fc 9b 3f
       3.7105618 -0.6939145 -0.86068934 1.2186366
000090 4a 68 9b 3f 8d 16 14 be 70 44 34 3f 85 90 9a 40
       1.2141201 -0.14461727 0.7041693 4.8301415
0000a0 76 50 72 3d e6 2d a9 be a5 a8 e3 be 06 db 05 3e
       0.059158765 -0.3304283 -0.44464603 0.13071832
0000b0 56 c3 80 be 65 45 55 bf 75 8b 09 3e 9c 39 88 bf
       -0.2514903 -0.8330901 0.13432105 -1.0642581
0000c0 51 cb 85 3e 57 aa 3b 40 8f 4a a4 40 77 c0 0d 40
       0.2613168 2.9322717 5.1341014 2.2148721
0000d0 0b 2b 9b 3f 03 9b 34 3f 33 c9 19 40 2c d6 fe 40
       1.2122511 0.7054903 2.4029052 7.963644
0000e0 4d b7 52 bf fa 56 ac bf b1 34 17 bf 42 69 12 bf
       -0.82310945 -1.3464043 -0.59064776 -0.5719186
0000f0 cc 28 48 3c 21 b6 13 3e f8 8c 66 3e 4f c0 18 bf
       0.012216758 0.14424945 0.22514713 -0.5966844
000100 d0 80 58 40 94 cd e2 3e 54 f6 cf 3f 56 17 ea 3f
       3.382862 0.4429747 1.6247048 1.8288372
000110 80 02 b6 3e 16 a3 1c 3e 49 09 fe 3f d8 ad 29 bc
       0.35548782 0.15296587 1.9846584 -0.010356389
000120 6d 9a ad 3f 2d 59 f9 3f f9 15 f6 3f 56 4b 2b 3f
       1.3562752 1.9480339 1.9225456 0.6691183
000130 b2 bf 27 3f d3 c6 1c 3f 70 0c 12 40 85 56 e7 40
       0.6552688 0.6124088 2.2820091 7.2293115
000140 4a af 3a 3e ac 7d 0d 3e e7 5b 21 3e c4 f8 96 bc
       0.1823093 0.13817471 0.15757714 -0.018429168
000150 cf 32 ba 3e e6 84 d3 3e 00 3a ce 3d 44 b8 14 be
       0.3636689 0.4131233 0.10069656 -0.14523417
000160 1d 16 c6 3c b0 85 6b be 3a c8 b9 be cf 60 60 bc
       0.024180466 -0.23000216 -0.36285573 -0.013694956
000170 dc a8 51 3a 54 f3 f3 bc db 81 8b bc 0a 31 0e be
       0.00079978793 -0.029779114 -0.017029693 -0.13885894

lstm.weight_hh_l0 f4 [12, 3]
000000 63 da 2c c0 6d 09 6c c0 5f d4 95 c0 09 79 55 40
       -2.7008293 -3.6880753 -4.682174 3.3355124
000010 97 03 16 c0 7f c1 b4 40 32 ce fb 3e dd d8 97 c0
       -2.343969 5.64862 0.49180752 -4.7452226
000020 2b 96 43 3f 7d 4b e0 c0 95 b7 ea 3d 6e 59 20 3f
       0.76401013 -7.009215 0.11460797 0.6263646
000030 74 fc 27 41 5b 61 ab c0 a6 54 15 41 1a 40 44 40
       10.499134 -5.355634 9.333166 3.0664124
000040 4f 0a a0 bf 4f b6 72 c0 72 e2 b0 3f 1c 5c 1a c0
       -1.2503146 -3.7923772 1.3819106 -2.411872
000050 14 fb 50 40 f9 be a4 3f 7d a5 6b 40 12 fc 42 bf
       3.2653246 1.287078 3.6819756 -0.7616588
000060 55 20 ec 3f 7a d7 93 c0 fc 38 25 40 42 4e e7 3f
       1.8447367 -4.6200533 2.581603 1.8070757
000070 31 bf 04 c0 d6 0e f6 40 54 92 40 c0 f8 db c1 3e
       -2.0741694 7.689311 -3.0089312 0.37863135
000080 ba e2 20 bf 2b 75 38 c0 d7 d8 be bf 13 ec 00 c0
       -0.6284596 -2.8821514 -1.4909924 -2.0144088

lstm.bias_ih_l0 f4 [12]
000000 1d 91 8f 40 e5 3d ae 40 c3 c2 8d 40 0c fc dd 3f
       4.486464 5.4450555 4.4300246 1.7342544
000010 a9 21 28 41 3b c8 95 40 00 6a 82 40 ce 15 a3 bf
       10.508218 4.680692 4.0754395 -1.2741029
000020 76 25 4d 40 90 63 bb 40 be 8c a6 3f ba 95 2c 40
       3.2054114 5.8559036 1.3011701 2.6966386

lstm.bias_hh_l0 f4 [12]
000000 c2 f5 80 40 4b c4 bc 40 56 c7 82 40 3c 51 68 3f
       4.0299997 5.8989615 4.086833 0.90748954
000010 7f 51 27 41 96 f2 9c 40 93 73 92 40 fc b0 a2 bf
       10.4573965 4.9046125 4.576608 -1.2710261
000020 62 f5 44 40 b2 57 cf 40 c5 6f 4d 3f aa c4 3b 40
       3.077477 6.479455 0.8024867 2.9338784
