results/02-26-2019/model3/model/decoder.pth (torch_old, 1472 bytes, 6 tensors)

lstm.weight_ih_l0 f4 [12, 3]
00000000: 9968 76c0 d00b d1be f724 223f 0e3d 643e
00000010: 794c 8c40 4362 8fbf d4e5 0ac1 74e9 6240
00000020: edce dac0 5d06 4ac0 0e65 aabf 9e67 e8c1
00000030: 05c1 aa40 126a 8340 f03d f1c1 d482 0840
00000040: 5d83 39c1 31b5 01c0 5c66 c440 c2b7 eb3f
00000050: fde7 03c0 6c96 9f3e f502 0140 85d0 d8be
00000060: 38a9 2dc0 9732 75bf 0048 a540 4c13 1dbf
00000070: beda 6840 29a4 79bf eace 9ebf b38e 1140
00000080: def2 bfbf dc9b 87c0 267c 1840 289a 9bbf
-3.8501341 -0.40829325 0.63337654 0.22288916 4.384335 -1.1201862 -8.68111 3.5454988
-6.8377595 -3.1566384 -1.331209 -29.050594 5.336062 4.106698 -30.155243 2.132985
-11.594571 -2.026684 6.137495 1.8415453 -2.0610344 0.3116945 2.0158055 -0.42346588
-2.7134533 -0.9578032 5.165039 -0.6135757 3.638351 -0.97516114 -1.2406895 2.2743347
-1.4995992 -4.237776 2.3825774 -1.215642

lstm.weight_hh_l0 f4 [12, 3]
00000000: e8b9 1bc0 8090 0cbf b2f3 8c3f 517d 1cbf
00000010: 91d9 bc3f 6e15 4a3f cbcc d2bf d19b 763f
00000020: 4d68 db3e 05f8 adc0 667e 5bc0 7aa1 7fc0
00000030: 9649 8ebe f889 fb3f 5193 08c0 a3c0 2cc0
00000040: eb8b d3be 9c95 ecbf cb89 e3be b393 33bf
00000050: dfe9 383e e5c3 f2bf 7c39 d43f 0099 d3c0
00000060: e637 8e3f 532d fc3f 9177 e73f cd46 7ec0
00000070: 7f2e 02c0 d35d 833f 11c0 7240 1302 b640
00000080: 4590 0dc0 fc1a 5abf eb66 f23f 4a81 03bf
-2.4332218 -0.5490799 1.101187 -0.6112872 1.4753896 0.7893895 -1.6468748 0.96331507
0.42853013 -5.436526 -3.4295897 -3.9942307 -0.27790517 1.965148 -2.1339915 -2.6992576
-0.41317686 -1.8483157 -0.44441065 -0.70147246 0.18057965 -1.8966032 1.6580043 -6.6124268
1.1110809 1.9701332 1.8083364 -3.9730713 -2.034088 1.0263008 3.7929728 5.687753
-2.2119305 -0.85197425 1.8937658 -0.51369154

lstm.bias_ih_l0 f4 [12]
00000000: a353 2540 c9a4 0540 7a61 5a3e 4662 983e
00000010: 6dca d13d 6fdb 0841 6ff6 74c0 d46e 1d40
00000020: 5e1e fe3f 51ea 2440 fbd5 5b40 f9a4 5240
2.5832298 2.0881827 0.21326247 0.29762477 0.10243688 8.553573 -3.827541 2.4598894
1.9853017 2.5768015 3.4349353 3.2913191

lstm.bias_hh_l0 f4 [12]
00000000: 882c 4940 45ba 2a40 72d9 033f 2c68 513f
00000010: 8c9d 3fbe 36fc fd40 c9e6 59c0 ebf1 4240
00000020: b73e fa3f a79c 4740 180b 8740 f4d2 8240
3.143343 2.667619 0.5150367 0.8179958 -0.18712443 7.9370375 -3.404711 3.0460155
1.9550389 3.1189363 4.220104 4.088251

out.weight f4 [8, 3]
00000000: 5928 8840 1b2f 9340 433a 95bf f550 e9c0
00000010: 49de 3141 ce7e c040 3c68 36c1 abc7 8941
00000020: 44ac 2f41 c090 33c0 046d 36bf 6e20 11c0
00000030: b3fb 0d41 1c6b 0441 c323 b0c0 347a d93f
00000040: 2c45 cf40 b9c3 16c0 e4d3 bc3f 3591 2640
00000050: f172 12be b38b 26c1 c58d 33c0 a96b 50c1
4.2549253 4.5995 -1.1658405 -7.2911325 11.116769 6.015479 -11.400448 17.222494
10.979557 -2.8057098 -0.71260095 -2.2676044 8.87395 8.27615 -5.5043654 1.6990418
6.477194 -2.355696 1.4752164 2.6026127 -0.14301659 -10.409106 -2.805528 -13.026284

out.bias f4 [8]
00000000: 7cb4 d33f bee1 ae40 0ac5 0441 2c84 533e
00000010: f909 c63f 801f da3f 1ac4 a83f 85e6 47c0
1.6539454 5.4650564 8.298105 0.20655888 1.5471793 1.7040863 1.3184845 -3.1234448
