results/03-04-2019_n/znorm_model4/model/encoder.pth (torch_old, 1349 bytes, 4 tensors)

lstm.weight_ih_l0 f4 [12, 8]
-0.023422273 -0.008636332 -0.028193599 0.70488864 -0.0757366 0.075342335 0.33780527 0.13391635
-0.21823113 0.2257094 0.34593427 -0.082382225 -0.39642227 0.009923535 -0.15129292 -0.107636325
-0.19838709 -0.11138994 -0.28078046 0.40041736 -0.20302348 0.034272097 -0.33726755 0.44189236
0.39077768 -0.32948145 0.7882947 -0.21480975 1.2348783 0.30454522 0.8100735 0.6374065
-0.8786656 0.70776576 0.85269856 -0.26849836 -1.0515305 0.2774544 -0.54421335 -0.28764766
-0.76685023 -0.23062232 -0.5391297 0.88549596 -0.49390894 0.029019265 -0.5524892 0.84057134
-0.9582215 -0.13490304 -0.032155413 -0.17801246 0.06515754 -0.47660083 -0.30402398 -0.19159429
-0.7521886 1.196209 1.4898403 -0.25359496 -1.6335242 0.32478604 -0.4608691 -0.54139817
-0.31452486 -0.11990385 -0.39855546 1.4708714 -0.14585388 0.49488622 -0.43660948 1.6547142
0.2727062 0.27068907 0.27751297 0.27108935 0.4314099 0.25417578 0.26550928 0.30287045
-0.4795801 0.42721385 0.48774698 -0.37555182 -0.7379188 -0.047465045 -0.2581969 -0.42534038
0.27625766 0.2567056 0.27207658 0.34051996 0.42928883 0.24738698 0.21242987 0.3041453
00000000: 11e0 bfbc 677f 0dbc 43f6 e6bc 9573 343f
00000010: ca1b 9bbd 154d 9a3d d0f4 ac3e 5e21 093e
00000020: fb77 5fbe 5d20 673e 4c1e b13e 03b8 a8bd
00000030: dcf7 cabe 5396 223c 88ec 1abe 6f70 dcbd
00000040: fc25 4bbe 6920 e4bd 75c2 8fbe 8103 cd3e
00000050: 63e5 4fbe e660 0c3d 55ae acbe b73f e23e
00000060: 0314 c83e cbb1 a8be aecd 493f 16f7 5bbe
00000070: 7e10 9e3f 5aed 9b3e fa60 4f3f 132d 233f
00000080: 3bf0 60bf 2330 353f 744a 5a3f 9e78 89be
00000090: 8d98 86bf 810e 8e3e 9151 0bbf 8e46 93be
000000a0: 4c50 44bf 4228 6cbe 6704 0abf ddaf 623f
000000b0: a2e1 fcbe cfb9 ed3c ef6f 0dbf af2f 573f
000000c0: 014e 75bf 0624 0abe 65b5 03bd e648 36be
000000d0: 5171 853d 0605 f4be 08a9 9bbe 4b31 44be
000000e0: 6f8f 40bf 601d 993f 16b3 be3f 33d7 81be
000000f0: 5217 d1bf 5b4a a63e 09f7 ebbe 1299 0abf
00000100: 6709 a1be 2690 f5bd 760f ccbe 8445 bc3f
00000110: b85a 15be ba61 fd3e 478b dfbe adcd d33f
00000120: 26a0 8b3e c297 8a3e 2e16 8e3e 39cc 8a3e
00000130: c2e1 dc3e 5423 823e d5f0 873e d611 9b3e
00000140: 868b f5be c6bb da3e f9b9 f93e 5448 c0be
00000150: 3fe8 3cbf b56a 42bd 6232 84be 37c6 d9be
00000160: a571 8d3e eb6e 833e 9f4d 8b3e a258 ae3e
00000170: bfcb db3e 0353 7d3e 3787 593e efb8 9b3e

lstm.weight_hh_l0 f4 [12, 3]
-1.0688523 5.3756795 5.1230006 -0.46781942 -3.6295037 -0.004297196 -0.8065015 0.025143668
-1.1901863 6.731866 1.7495184 -7.979667 2.6573095 -4.47219 -1.4530528 2.268213
2.2996502 -2.5999243 0.9166011 -1.1892588 -1.7750082 -0.9038188 -3.7640839 0.18670516
-1.6034874 0.24060167 -8.609966 2.680127 -2.9215615 1.1949809 -1.6317196 -2.4507003
0.34886426 -0.3507441 3.2820048 -2.061005
00000000: 27d0 88bf 9105 ac40 9fef a340 0786 efbe
00000010: ca49 68c0 7ecf 8cbb e276 4ebf 18fa cd3c
00000020: 0658 98bf 726b d740 38f0 df3f 6f59 ffc0
00000030: 5c11 2a40 2e1c 8fc0 a2fd b9bf 672a 1140
00000040: 782d 1340 2965 26c0 5fa6 6a3f a239 98bf
00000050: 7833 e3bf ab60 67bf c0e6 70c0 a32f 3f3e
00000060: 133f cdbf 4960 763e 6cc2 09c1 3387 2b40
00000070: ddfa 3ac0 22f5 983f 30dc d0bf 46d8 1cc0
00000080: 569e b23e bb94 b3be 5e0c 5240 82e7 03c0

lstm.bias_ih_l0 f4 [12]
9.348168 0.52981955 -0.15702091 -9.54127 -8.843299 -3.1335273 -5.708242 7.7993836
2.6603134 -2.277176 -1.6878418 -0.6394666
00000000: 1992 1541 41a2 073f 17ca 20be 0ba9 18c1
00000010: 277e 0dc1 b68b 48c0 eba9 b6c0 8d94 f940
00000020: 9342 2a40 40bd 11c0 330b d8bf 15b4 23bf

lstm.bias_hh_l0 f4 [12]
9.6140175 1.2650944 -0.47551447 -9.078656 -9.627831 -3.5398579 -6.2549944 7.360966
1.7160486 -1.9693502 -2.5674107 -1.0368991
00000000: 04d3 1941 9dee a13f a276 f3be 2d42 11c1
00000010: 990b 1ac1 088d 62c0 ea28 c8c0 098d eb40
00000020: 7ba7 db3f ab13 fcbf 7550 24c0 1cb9 84bf
