results/03-04-2019_n/downstream/h4/model/encoder.pth (torch_old, 2652 bytes, 4 tensors)

lstm.weight_ih_l0 f4 [16, 24]
000000 ec 5c 38 40 3f 71 86 be a6 16 0c 40 41 b2 14 be
       2.8806715 -0.26258275 2.1888824 -0.14521123
000010 a1 af 46 be 22 ae 56 be 52 c5 5e bf 25 95 c2 be
       -0.19402935 -0.20964864 -0.87019837 -0.38004413
000020 72 61 05 bf eb 93 c0 be a9 27 93 bf 95 92 16 bf
       -0.52101815 -0.37612852 -1.1496478 -0.58817416
000030 00 9d 08 bf d8 91 ce 3e d8 78 59 40 4d 33 0f be
       -0.53364563 0.40345645 3.3980007 -0.13984413
000040 6f 21 f6 3d 2e 24 67 bf 87 06 0e bf a6 be cf be
       0.12018096 -0.9028958 -0.5547871 -0.4057514
000050 e8 60 12 3d 36 5b 8e 3c 66 11 13 bc 8c 62 d2 be
       0.03573695 0.017377477 -0.008976316 -0.4109081
000060 53 35 db 3d 1d 34 56 3d 50 f5 a5 3d cd 61 36 3d
       0.1070353 0.052295793 0.0810343 0.044526864
000070 c4 c9 aa 3d 7f c1 5f 3d 0d f0 7c 3d c2 e5 c2 3d
       0.08339265 0.05462789 0.061752368 0.09516479
000080 16 5a 82 3d 7e d6 17 3e de b8 4c 3e 4a fd 9a bd
       0.06364839 0.14827916 0.19992396 -0.07567842
000090 c5 10 61 3c 8f 9a fd 3c 4f 98 17 3e 13 67 db 3c
       0.013736908 0.030957488 0.14804195 0.026782548
0000a0 4d 8b 8d 3d 0d d9 1f 3d 79 d6 0e 3d 51 f0 b2 3d
       0.06911335 0.039025355 0.034872506 0.08737243
0000b0 79 f1 2e 3d 6e af 6e 3d 68 10 a3 3c 08 4a 50 3d
       0.042710755 0.05827277 0.019905284 0.05085185
0000c0 6f 67 0c 3f 35 e5 b0 bd 22 61 8c bf 91 d6 30 3d
       0.5484533 -0.08637468 -1.0967143 0.043173376
0000d0 02 91 b3 3d db 6a 39 3e a4 7d b5 3d 9d 9e 9e be
       0.087678924 0.18107168 0.08861855 -0.30980387
0000e0 5f ad f0 be af 09 07 bf c3 19 0b 3f 83 77 93 3f
       -0.47007272 -0.5274915 0.54336184 1.1520847
0000f0 8c 49 6d bc 14 d6 ce be 6c d7 70 3f bc e1 16 3d
       -0.014482867 -0.40397704 0.9407871 0.03683637
000100 1b 69 2a be 27 dd ea be 25 b3 d1 be 22 69 32 bd
       -0.16641657 -0.4587185 -0.4095699 -0.043557294
000110 89 87 36 3e 66 9d d2 bd 92 c9 b1 3e 1b a6 b3 3e
       0.1782514 -0.102839276 0.34724098 0.35087666
000120 04 24 c6 3e 09 93 3d 3f 21 4c 8f c0 4f d8 1e 3f
       0.38699353 0.7405248 -4.478043 0.6204881
000130 1c e4 0a bf c5 1d 0d 3f 57 04 3f 3f 2a 1f 94 bf
       -0.5425432 0.5512355 0.74616 -1.157201
000140 37 8e 43 3f a8 53 06 40 e5 37 ed 3e 8e 28 a1 bf
       0.7638888 2.098856 0.46331707 -1.2590501
000150 d1 4a 04 bf 8c 0e 65 3f ad ee 2c 3f bd a2 48 3f
       -0.5167666 0.8947532 0.6755169 0.7837332
000160 60 80 95 3f 07 a7 e9 3e cc 08 9f bf 40 3d a7 3d
       1.1679802 0.45635244 -1.242456 0.081659794
000170 b2 d2 03 40 a8 62 bc 3f 2a d0 0c bf bb 7c 0f bf
       2.0597348 1.4717607 -0.55005133 -0.560497
000180 93 8f 5a 3f 0c de 59 bf bf 61 25 40 af 14 00 bf
       0.85375327 -0.8510444 2.584091 -0.5003156
000190 ce 96 cf bd b5 b4 08 be 88 a3 38 bf d2 ca 80 bf
       -0.101361856 -0.13350184 -0.7212453 -1.0061896
0001a0 f8 40 13 bf 41 60 6a bf 4b 3e e5 bf f7 99 e8 bf
       -0.5752101 -0.9155312 -1.7909635 -1.8171986
0001b0 c3 19 9e bf a7 33 20 bf 06 4f da 3f 80 aa d8 3e
       -1.2351612 -0.62578815 1.7055366 0.4231758
0001c0 87 1e d0 bf 80 40 55 bf ba 11 27 bf 75 fb 87 be
       -1.6259316 -0.83301544 -0.65261424 -0.26559034
0001d0 74 8e d1 be a5 1c 98 bf 5b ae ea bf aa 4f 32 bf
       -0.40928996 -1.1883742 -1.8334459 -0.6965281
0001e0 44 07 14 3f 66 7b 81 3e d4 61 2d 3f 93 4f 5c be
       0.57823586 0.25289458 0.677274 -0.2151473
0001f0 76 52 1c 3f 30 6d e8 3e d5 28 39 3e da 67 1f 3f
       0.61063325 0.45395803 0.18081982 0.6226784
000200 b2 e1 ee 3e 29 d9 51 3f 24 41 3c 3f b8 4e 58 bf
       0.46656567 0.81971985 0.73536897 -0.84495115
000210 08 a6 a0 3e dc 75 53 3e b6 91 43 3f 92 6f 3c be
       0.31376672 0.20650429 0.7639421 -0.18401936
000220 e6 9b ca 3e 06 21 36 3e ba 5b 9b 3e 3e 22 86 3e
       0.39572066 0.17786035 0.3034342 0.26198
000230 59 0d 9b 3e e2 ff e2 3e 34 28 a8 be 3a 11 ed 3e
       0.3028362 0.44335848 -0.32843173 0.46302205
000240 40 b0 06 3f 87 13 20 3f 28 a2 8e bf d3 eb 3c 3e
       0.52612686 0.62529796 -1.1143236 0.18449335
000250 5e 30 d8 bd df 96 f8 be 86 8b bc be 35 16 71 3b
       -0.105561 -0.48552606 -0.36825198 0.0036786918
000260 1d a0 4d 3e ac f3 22 c0 b6 d8 7b 3f 79 54 64 3f
       0.2008061 -2.5461226 0.9837755 0.89191395
000270 7a 5a 4b 3e 76 cb 81 be 91 b2 48 3f 6b 39 c1 3e
       0.19858733 -0.2535054 0.7839747 0.3773912
000280 8a 39 af bf 4e 68 c2 bf 27 79 a4 3e c1 54 99 3c
       -1.3689435 -1.5188081 0.32123682 0.018717172
000290 3e 9f 42 bf af 75 fb be 06 9c 1b be 1d 6c c8 3e
       -0.76024234 -0.49113223 -0.15196237 0.39144984
0002a0 56 8f de 3d 54 e7 9b 3d 76 36 87 bf 89 4e 3e 3d
       0.10867183 0.07612482 -1.0563495 0.046461616
0002b0 db be 4f 3d 7c 32 5e 3c 2e ca 5a 3c 68 3f 01 3d
       0.050719123 0.013561841 0.013353867 0.03155461
0002c0 fd 0c b5 bc 1e 10 a1 3d b6 b2 84 3e 65 34 f0 be
       -0.02210092 0.07864402 0.25917596 -0.46914974
0002d0 39 b5 93 bd 15 6b 10 bd d5 a0 3e 3e b0 8f a2 3d
       -0.072123 -0.03525837 0.1861604 0.079375625
0002e0 7d f0 8f bd 6d 35 ae bc 5d b4 fb bb f7 14 0c bc
       -0.070282914 -0.02126571 -0.007681413 -0.00854992
0002f0 f2 a5 9c 3d d7 ec d9 3d 37 e4 fd bc 0e c6 89 bb
       0.07648839 0.10640877 -0.03099261 -0.004204518
000300 5e 0c 0a c0 c5 23 9c bf 1b 9c 30 c0 e0 ba 14 c0
       -2.1570048 -1.2198416 -2.759528 -2.323906
000310 7c 65 19 c0 3a d9 11 c0 09 8f c4 bf d1 c4 90 bf
       -2.396819 -2.2788835 -1.5356151 -1.1310064
000320 8d ed c4 bf a3 2e ed bf 1e 8b c5 3f 44 27 0b be
       -1.5384995 -1.8529857 1.543308 -0.13589197
000330 af f1 d6 bf 61 6a fd bf 94 c6 0b c0 23 b2 f7 bf
       -1.6792506 -1.9798089 -2.1839952 -1.9351238
000340 1d 3b a0 bf fc 4b b2 bf ad a9 d4 bf 3a 4d 59 be
       -1.251804 -1.3929439 -1.6614281 -0.21220866
000350 84 90 e0 bf 4c dd 01 bf 7a 87 71 bf 50 70 2f bf
       -1.7544103 -0.507283 -0.94347346 -0.6853075
000360 96 3d 0c 40 e5 b7 f3 3e 7e 68 08 40 98 01 32 40
       2.191259 0.47601238 2.1313777 2.7813473
000370 fd c5 67 3f 07 9c 58 3f 0e 4a 58 40 50 65 ca 3f
       0.9053648 0.8461308 3.37952 1.5812168
000380 d8 c7 f3 3f 1f cb 8a 40 75 10 0f 40 6f b5 b9 bf
       1.9045362 4.337295 2.2353795 -1.4508494
000390 12 22 52 3c b8 1e 05 40 bb 0e 11 40 19 1f 55 40
       0.012825506 2.08 2.266524 3.330023
0003a0 18 27 e0 3e 28 da 74 40 96 71 cb 3f 7c ac ac bd
       0.43779826 3.8258152 1.5894039 -0.08431336
0003b0 e2 2f 96 40 ec 75 21 40 06 1f b7 be e7 f2 b7 3e
       4.693345 2.5228224 -0.35765857 0.35927507
0003c0 96 93 10 40 18 3b 46 be 4a 95 26 40 e6 41 11 3e
       2.259008 -0.1935848 2.602862 0.14185295
0003d0 78 5c f2 be 85 ca 3d be 5f 58 73 3e 76 39 2f 3e
       -0.47336173 -0.18534286 0.2376418 0.17111763
0003e0 a0 0b 08 bf 65 e2 29 3e b2 f9 4b 40 b8 de 87 40
       -0.5314274 0.16590269 3.1871152 4.2459373
0003f0 e2 0e e3 3e 9a ec 99 3f 0e 8d c8 40 57 31 54 bf
       0.44347292 1.202533 6.2672186 -0.82887787

lstm.weight_hh_l0 f4 [16, 4]
000000 5c 4c 9a 40 0b 89 ae 3f e9 87 07 41 bc 8c bc bf
       4.821821 1.3635572 8.470681 -1.4730449
000010 64 80 b4 be 5a 5d 92 bf 15 5d 7b bf e6 7d 92 3f
       -0.35254204 -1.1434739 -0.98188907 1.1444671
000020 37 45 86 40 cd f3 12 c1 27 6f 0a c1 70 98 99 be
       4.195949 -9.184522 -8.652137 -0.29999113
000030 d3 2e 45 c0 67 48 61 be 32 04 86 41 37 f9 29 3e
       -3.080983 -0.22000276 16.752048 0.16598974
000040 55 8f 10 41 03 87 bb c0 a6 4e 40 c0 0b 3b 47 40
       9.034993 -5.860231 -3.0048003 3.1129787
000050 e2 0d ad 40 c1 1e 2f c1 5e 8b c9 c0 45 05 08 41
       5.4079447 -10.945008 -6.2982626 8.5012865
000060 45 4e 04 41 1e 93 eb bf cb a7 aa c1 d0 92 1f 40
       8.269109 -1.8404272 -21.33193 2.4933357
000070 e8 e3 16 3f 61 fc 18 3e 4a db 0d 40 c4 6d 3f bf
       0.5894151 0.14940025 2.2165093 -0.74776864
000080 12 9b 5c c0 7d 0a db bf 8d 2d b2 bf a6 e0 7a be
       -3.4469647 -1.7112576 -1.3920151 -0.24499759
000090 d3 d7 80 c0 64 02 9a 3f ce 1c c9 3f a0 ac 34 c1
       -4.0263457 1.203198 1.5711915 -11.292145
0000a0 72 5d 0e c1 20 df 08 c0 f2 b1 d0 bf bc 73 87 3f
       -8.897814 -2.1386185 -1.6304305 1.0582194
0000b0 64 3f bf 3f 7c c2 fc be 04 d6 75 c0 10 d9 e3 3f
       1.494122 -0.4936713 -3.8411875 1.7800617
0000c0 90 53 cd 3f c2 64 3d 3f 60 5e 79 40 e9 6e 08 be
       1.6041126 0.7398187 3.8963852 -0.13323559
0000d0 13 12 aa bf 6d 08 5b c0 52 c1 3e 40 96 e9 65 3c
       -1.3286766 -3.4223893 2.9805493 0.014032742
0000e0 13 74 9c c0 e9 a8 27 c0 aa d5 d5 3e af f6 4b be
       -4.889169 -2.6196845 0.41764575 -0.19918321
0000f0 78 f3 3a 40 14 7c 0e c0 85 a7 2a 40 c9 2e 4b 40
       2.9211102 -2.2263231 2.6664746 3.1747305

lstm.bias_ih_l0 f4 [16]
000000 9b 75 5e 41 56 10 2b bf e1 31 3e c1 d5 2f 85 41
       13.903712 -0.668218 -11.887177 16.648355
000010 cc 1a c3 c0 7e 22 6f c1 ed 25 8b c1 e2 51 99 3d
       -6.097021 -14.945921 -17.393518 0.07486321
000020 5b e0 70 c0 08 e0 f3 40 ff b7 1e c0 db f0 86 c0
       -3.7636936 7.6210976 -2.4799802 -4.2169013
000030 3c 69 59 3e 16 0a 83 be 25 bc fc 40 db 10 dd c0
       0.2123155 -0.25593632 7.897967 -6.9083076

lstm.bias_hh_l0 f4 [16]
000000 47 b9 63 41 6f 31 66 bf 11 af 35 c1 d6 44 7d 41
       14.232734 -0.8991918 -11.355241 15.829306
000010 e5 f3 c1 c0 56 a4 6a c1 b2 95 8c c1 63 67 ef 3e
       -6.0610223 -14.665121 -17.573093 0.46758565
000020 3b f0 5f c0 03 ce 00 41 fc 6c 1d c0 74 46 7c c0
       -3.4990375 8.050296 -2.4597769 -3.9418
000030 a8 c7 47 be e5 6d 07 bf 78 f4 00 41 ad bf dc c0
       -0.19509757 -0.5290206 8.059685 -6.898398
