results/04-27-2019_n/hidden/6/model/decoder.pth (torch_old, 477370 bytes, 24 tensors)

lstm.params.0.i2h.weight f4 [24, 6]
00000000: f1b2 f13d 2fc3 113e 21d7 88be 29b8 c7bc
00000010: 585b 483e c859 2c3d 33c9 9ebe 9186 ba3e
00000020: 3c43 ccbe 5b80 23be def6 10be 30f2 af3d
00000030: 7bc4 933e 4cd8 6cbc 19ce 2abe 9a22 4d3c
00000040: 443f d43d acd9 5a3e bad4 8cbe fbce b9be
00000050: 8c5c b6be 4646 db3b 993a a6bd cc28 38be
00000060: 2c77 553e 98fd 72bd af91 3ebe b9e7 6a3d
00000070: c4fa 033e b01f 513e f996 d83d 31e4 d3bd
00000080: 8206 9ebe e61e bd3e 76a8 c93e 7450 ce3e
00000090: cd65 cebe 730e c93e b37d 7cbe fbe6 363c
000000a0: 2345 88be fc48 623e e7ae 8b3e cf5f 9dbe
000000b0: c58c bc3e 534b 8e3e 08c5 c3be 6074 c2bc
000000c0: f90d 99be ee99 553e bc21 c53e 1c4b a8bc
000000d0: 237b dcbc 109b 54bd 7d45 64be 5756 9abe
000000e0: 4992 c93d 7779 18be 36a5 073e 04c0 7bbe
000000f0: ef68 ea3c 0396 d8bd e8f0 4cbe 6933 a93d
00000100: ca1a eb3d ca4e 6abe 0a5e 2ebe 5766 1a3e
00000110: 7fa9 c6be 6790 913e bc3c ca3e e8f9 54be
00000120: e84b d0bd 4c21 9d3d 15bc dabd 740b a83e
00000130: 1bd7 993e ed1c acbe 0d01 c9be 7d59 ab3e
00000140: 8c7b b3be cc5c 253e 4ef7 b9be 98ef bcbe
00000150: a59c 64be 13fa f8bd 2a98 dfbd bb53 14be
00000160: 7524 10be a0bb 0d3e 2278 c93e 9aba b43e
00000170: ceb2 85be 7dc7 26be e1f0 55be 36c3 cb3e
00000180: d395 c93e 6978 5e3c 7fd6 873e 9d16 4d3e
00000190: dbee bbbe aea1 803e 9990 933d c829 b6be
000001a0: e1f5 103c f305 cdbe 0e19 0c3e b051 023e
000001b0: 39ea 9f3e 1b01 6fbe a1e4 fa3d e289 cdbe
000001c0: ee6a 4cbe 24c7 6c3e 024b 9a3c cc32 55be
000001d0: f4ad c8be 2649 903e 7212 5bbe 0c18 ab3d
000001e0: 2d26 4dbe 932d 85bd 7b14 b23e c3de bbbe
000001f0: 6f84 5b3e 4f2c 3bbe 5037 41be e71c a23d
00000200: eb77 04be cb43 9cbe 10bc 0dbd 185a 87be
00000210: f98c cf3e 0e80 ac3d 2779 6fbe bc28 b2bd
00000220: b6c9 8b3e a352 39be f273 9fbd 81fb c3bc
00000230: 510f ad3e a602 b5be 7c58 76be 3bc9 31be
0.118017085 0.14234613 -0.2672663 -0.024379807 0.19566095 0.04207781 -0.31012878 0.3643079
-0.39895046 -0.15966932 -0.14156672 0.085911155 0.2886084 -0.014455866 -0.16680183 0.012520457
0.103636295 0.21372098 -0.27506047 -0.36290726 -0.35617483 0.006691727 -0.08116645 -0.17984313
0.20846242 -0.059323877 -0.18610261 0.057349894 0.12888628 0.20422244 0.10575671 -0.103462584
-0.3086434 0.36937636 0.39386338 0.40295756 -0.40312043 0.39268836 -0.24657325 0.0111634685
-0.26615247 0.22098154 0.27281877 -0.3073716 0.3682615 0.27791843 -0.3823626 -0.023737133
-0.29893473 0.20859501 0.385023 -0.020543627 -0.026914185 -0.05190569 -0.22292133 -0.30143997
0.09842355 -0.14890085 0.13246617 -0.24584967 0.02861449 -0.105754875 -0.20013773 0.08261759
0.11479719 -0.22881618 -0.1702806 0.15078102 -0.3880119 0.28430483 0.39499462 -0.20798457
-0.10170728 0.076723665 -0.10680405 0.32821238 0.30046925 -0.3361582 -0.39258614 0.33466712
-0.35055196 0.1614868 -0.3632149 -0.36901546 -0.2232538 -0.12157073 -0.10917695 -0.14485066
-0.14076407 0.13841105 0.39349467 0.35298616 -0.2611298 -0.16287036 -0.2089267 0.39797372
0.3937212 0.013578513 0.26530835 0.20028158 -0.3670567 0.25123352 0.07205314 -0.35578752
0.008847685 -0.400436 0.13681433 0.12726474 0.31233385 -0.23340265 0.12250639 -0.4014426
-0.19962665 0.23122841 0.018834595 -0.20820159 -0.39195216 0.28180808 -0.21393755 0.08354196
-0.20034094 -0.06502833 0.3478125 -0.3669339 0.21437238 -0.18278621 -0.18868756 0.07915669
-0.1293637 -0.30520472 -0.03460318 -0.26435924 0.4053724 0.08422862 -0.2338606 -0.08699176
0.2730233 -0.1809793 -0.07785787 -0.023923637 0.33800748 -0.35353583 -0.24057192 -0.1736192

lstm.params.0.i2h.bias f4 [24]
00000000: 9fdb a6be ef90 81be b5b8 22bd b518 683d
00000010: ed6d a6be 9b92 5c3e c98a 003e 2602 afbe
00000020: 44d5 4d3e e06a 4ebe 222f 35be a379 933e
00000030: 5d44 9fbd c89d 68be 0058 32be edc3 28be
00000040: b5cf 0f3e c389 34bd 5668 af3e 7aac 893d
00000050: 9fba 7ebe cbdf 173e abdc 493d 69d4 893e
-0.32589433 -0.25305888 -0.03972693 0.056664187 -0.32505742 0.215403 0.12552942 -0.34181327
0.20100886 -0.20157957 -0.17693761 0.2880374 -0.07776711 -0.22716439 -0.17416382 -0.1648099
0.14044078 -0.044076692 0.3425929 0.067223504 -0.24875878 0.14831464 0.04928271 0.2691987

lstm.params.0.h2h.weight f4 [24, 6]
00000000: f9e6 813d 6a99 43be 4db9 15be 714c 863c
00000010: 6768 873e 927c afbe 880d 61be e576 b03c
00000020: 1635 cd3e c9aa 333e 5fa3 abbe a572 013d
00000030: 390d 893e d833 a4be a924 85be 1db9 58bd
00000040: a6cc 7b3a ae57 2abe 79a4 803e 3eb5 f9bc
00000050: 5797 9abe 3824 63be 8509 8cbe 5733 993e
00000060: c242 b0be 6720 acbe 41ec b73c 9e40 57be
00000070: cf36 22be 189a 113e 0ac3 08be def5 27be
00000080: 4b0e 2d3e 8c49 52be 7603 a93e 35a2 0dbe
00000090: 390e 1dbd d3ea 233e f8a7 333e 5618 a8bd
000000a0: 7ceb 5d3e dd7d c23e 2a39 adbe 5925 283d
000000b0: 1735 5c3e 013c 6abd f8a7 44be abb3 aabe
000000c0: f640 203e bb49 793e 60f6 893e e097 c6be
000000d0: 1291 cebe 0297 cdbe 276d 293d 1999 d0bd
000000e0: e6bd 7a3e 556f c33d 163a 5ebe 426f 70bd
000000f0: 2016 943e afef 85bc 585c 953e e4d8 87be
00000100: 9b7a bcbb 0182 8bbd d1af 74be 573f d73d
00000110: 21f1 923e 0dbf 333e 8221 92be d7fc 093d
00000120: 3c92 9dbe 8b2b 82be 64a7 81bd dd63 c33d
00000130: 9e34 96be 8165 7fbe f983 193e 6689 8ebe
00000140: 3d65 c33e 7455 15be 535f cb3e 73fa 863d
00000150: 46cd 2a3e 2bf4 303e 0337 253c 2ee6 c23e
00000160: 43fc 2ebe 6778 bebe cb9e 70be 2f1a 823c
00000170: 8712 a23e adce 753e ee8c b5bd adc2 a3be
00000180: 4b72 cabd abac 76bd 3004 6cbe 7459 a73e
00000190: b266 693e 7fe1 79be 9e3d 933e 3102 153d
000001a0: d38e 893e 252e 093e 9e26 bfbe 82b9 b1be
000001b0: f813 4a3e 4c50 89bd 4d43 99bc ccfe fe3d
000001c0: 2705 c9bd 8cb1 803e 0ddd abbe 8579 253e
000001d0: 1ecb b03d 152f bdbe af47 953e 9bd3 53bd
000001e0: 3446 babe 8109 563d 88ff 733e bc7f b93d
000001f0: 58f1 aabe e865 1cbd d40b dd3d c394 1dbe
00000200: b1f8 c4bc c6aa 813e b9be 863b dbb0 a4be
00000210: 8bc9 9f3d 4556 64be c07a 9bbd 6a71 4e3e
00000220: 2968 af3e df8a 0dbe 3434 1fbe 6f8e 8f3e
00000230: d623 e93d dda3 d8be eb34 64be fa78 ab3e
0.06342883 -0.19101492 -0.14621468 0.016393872 0.2644684 -0.34274727 -0.21977818 0.021541068
0.40079564 0.17545618 -0.3352308 0.031603474 0.267679 -0.32070804 -0.26004532 -0.052910913
0.0009605385 -0.1663501 0.25125483 -0.03048193 -0.30193588 -0.22181785 -0.27351013 0.29921982
-0.34425932 -0.3361847 0.022451522 -0.21020743 -0.1584122 0.14218938 -0.13355651 -0.16402385
0.16899984 -0.20535868 0.33010453 -0.13831408 -0.038343642 0.16007547 0.17544544 -0.08207767
0.21671861 0.3798665 -0.33832675 0.041051243 0.21504627 -0.05718613 -0.192047 -0.333402
0.1564978 0.24344532 0.26945782 -0.38787746 -0.40345055 -0.40154272 0.04136386 -0.10185451
0.24486503 0.09542719 -0.21701846 -0.058699854 0.2892313 -0.016349642 0.29172015 -0.26532662
-0.0057519204 -0.06811906 -0.23895194 0.10510128 0.28699592 0.17553349 -0.2854119 0.033688392
-0.3077563 -0.25423846 -0.06330755 0.09540532 -0.2933702 -0.24941064 0.1499175 -0.27839202
0.38163176 -0.14583379 0.39721164 0.06590738 0.16679868 0.17280643 0.010083917 0.38066238
-0.17088418 -0.37201235 -0.23498075 0.015881626 0.3165476 0.24004622 -0.08864771 -0.31984463
-0.09885081 -0.060223263 -0.23048472 0.32685435 0.22793081 -0.24402426 0.28757948 0.036379043
0.2686678 0.13396509 -0.3733415 -0.34711844 0.1973418 -0.067047685 -0.01870885 0.124509424
-0.09815436 0.25135458 -0.33567086 0.16159637 0.086324915 -0.36949983 0.29156253 -0.051715475
-0.36381686 0.052255157 0.23827946 0.090575665 -0.33387256 -0.038183123 0.10793272 -0.1538878
-0.024044367 0.25325602 0.0041120914 -0.3216618 0.07802113 -0.22298534 -0.07591772 0.20160452
0.34259155 -0.13822506 -0.15547258 0.28038356 0.11383788 -0.42312518 -0.22285812 0.33490735

lstm.params.0.h2h.bias f4 [24]
00000000: ea61 00be 2ea1 d2ba 4f7d c9be eb42 66bd
00000010: 491d 02be 0e53 da3c 8d47 9bbb ec4d b33e
00000020: 02c8 15be 57af 02be 280c 533e 2b01 853c
00000030: ef17 a63e 23ad a5be 5dda 31be 9929 d43e
00000040: 6359 803e 54d6 403e 38a2 9b3e 87b4 c8be
00000050: b8fb ccbe e216 dcbd 052a ef3d a7b5 5dbe
-0.12537351 -0.0016069764 -0.39353415 -0.05621616 -0.12706484 0.026650932 -0.004738754 0.35020387
-0.14627078 -0.127622 0.20610106 0.016235908 0.32440135 -0.32358655 -0.17368455 0.41437986
0.25068197 0.1883176 0.303972 -0.3920023 -0.40035796 -0.10746552 0.116779365 -0.21651326

lstm.params.0.ln_i2h.alpha f4 [1, 24]
00000000: d93a 4ebe c1b3 2ebe 009e be39 8541 f8bd
00000010: 3063 513c 64b3 f33d 4eb0 ccbd 37d9 31be
00000020: 480d 833c 88e9 573d 786b 283e f32f cbbd
00000030: 241d 4e3e 08a2 333e 46b2 9bbd 62ea 4ebe
00000040: d855 36be 60d2 943d 1495 343e 4a63 103e
00000050: 160f 50be 5c1f 863d 347f 4dbe 08b2 083e
-0.20139636 -0.17060758 0.00036357343 -0.12121872 0.012779996 0.118994504 -0.09994565 -0.17368017
0.015997544 0.052712947 0.16447246 -0.09921255 0.20128304 0.17542279 -0.07602362 -0.20206597
-0.17806184 0.07266688 0.17634994 0.14100376 -0.20318255 0.0654895 -0.20068055 0.13349164

lstm.params.0.ln_i2h.beta f4 [1, 24]
00000000: 1dbe e5bd 98ed 453d ec81 cc3d b4fa a63d
00000010: 660f 433e f081 9e3d 94ee 71bd 54e1 013d
00000020: 7c4d 263e 549a 2a3e b021 5d3d a44b 303d
00000030: c30b 07be b85f ce3d 5cec d13d 620f 213e
00000040: 60c4 253c 862a 153e b8bc f73d 8ac2 f8bd
00000050: 7949 ffbd b0da 6c3d d892 01bd 4d1c 11be
-0.11217902 0.04832229 0.09985718 0.081532866 0.19048843 0.07739627 -0.059065416 0.03170903
0.16240495 0.16660434 0.053987205 0.043040887 -0.1318808 0.10076851 0.1025016 0.15728524
0.01011762 0.14567003 0.12096542 -0.121464804 -0.12465186 0.057825744 -0.03163418 -0.14170952

lstm.params.0.ln_i2h.fc_alpha.weight f4 [24, 1024]
00000000: 4a4d 2bbe 9859 d43d 7809 24be e878 b63d
00000010: 323c 28be 70c8 04be 7045 45bd 7cee 8d3d
00000020: d036 bbbc bc4e e53d feb3 fdbd 7488 d33d
00000030: 80dc 54bd 60c8 813c 6888 a9bc 6e14 3d3e
00000040: d849 5a3d a981 33be 9018 393c 9d33 c1bd
00000050: cc4e 4a3e c0cb 74bb 8826 bd3d 08c1 2cbd
00000060: 0084 703d 4c8f 5abd 82a5 23be a548 41be
00000070: e22a 073e 8c44 a43d 7032 a03d cb3e e5bd
00000080: b869 a3bc f86f 743d c69a 453e fcd2 4e3e
00000090: e0d0 343d 60ec bc3c 58bc cc3c 7cff 073e
000000a0: 540f e33d 6cfa 97bd 39fc 28be e45e 983d
000000b0: 5c91 63bd 1ece 203e 9ea7 433e 0472 0e3d
000000c0: 3065 16bd b824 413d 7810 7d3d e23e 093e
000000d0: 4079 09bc 6c46 fa3d 680e 18be 0abd 36be
000000e0: 1a9c 343e 281d 3c3e cee7 363e a444 f03d
000000f0: 6456 09bd 2c87 143e 88ae cb3c 3410 303e
00000100: e01c 43be cc15 a1bd 1c9e d93d 40bc d53d
00000110: 3947 18be 4e82 043e 2071 ff3c a802 723d
00000120: f8ab 473d 0037 4abe 7c44 ce3d 4b44 32be
00000130: f016 e73d 9aae 163e 48ee 78bd c0d0 d83d
00000140: 2c9d 1e3d 3472 3f3e 40a1 f43d cb4a bdbd
00000150: 88f5 90bc 48a1 93bc ba22 303e fda9 3ebe
00000160: 8e92 473e 90fd 003e 000c cc3b 501b 893c
00000170: 9ab2 4e3e 5d21 18be da6d 85bd 5cad a33d
00000180: e67a babd f830 813c 5c69 3d3e ba0f 123e
00000190: c02b c6bc 90fd 9b3c 0098 34bd 5464 a63d
000001a0: a474 103e 0000 d63c a1f0 13be 14a2 b03d
000001b0: 4eb8 22be 154a c0bd a352 49be 9ab6 27be
000001c0: de68 3a3e b480 06bd 8095 893d 98af 1ebd
000001d0: 60b3 18bd c0f5 93bd 50e9 3c3e 0485 e3bd
000001e0: 5c4e 343e 9c53 c73d 1462 313d c852 d63c
000001f0: 8432 d63d 4013 f63d a836 343d 581b 443e
00000200: 30f5 dc3c 522f 10be 6067 50be b40e 153e
00000210: 449c 72bd 38cc 263e 0084 193a c617 213e
00000220: 6a1d 393e 70e2 c93d 8014 ac3d 00a8 bd3a
00000230: 004e fd3a 0054 6b3c edab 33be 2030 103e
00000240: f8b7 87bc b87b 333e 18ca b93d 6e6b 103e
00000250: 92c2 26be d225 fdbd f403 383d a49b e43d
00000260: f950 bbbd 7a64 3cbe c06b e83c 9eb0 3d3e
00000270: 68bc 32be 64b3 043e c082 d13c e835 31bd
00000280: b0d9 5dbc 5dff 45be e010 a6bc e471 ca3d
00000290: 17fe a7bd 9cf4 dd3d 5836 fdbc a00f 03be
000002a0: 2005 ab3c 4b57 bebd f026 cb3d 6c15 a8bd
000002b0: 1831 623d daa5 b2bd aea4 05be 04e1 18be
000002c0: 0819 c93d 3cea f13d c023 c8bb 3c32 1c3e
000002d0: 485f 94bd b80d bfbc 364a 1a3e 4690 4fbe
000002e0: 9bda 4fbe c430 9f3d 5ef9 2e3e 02d4 15be
000002f0: a0f9 9e3c 086f 083e f8cf 473d d02d c53d
00000300: 26ee 323e aa9d c3bd 8027 f3bc 3075 e33d
00000310: 307f b33d cc20 cf3d ecc2 97bd 787f d33c
00000320: 778f ecbd e082 793d 2083 dbbb c495 2f3d
00000330: 16db 323e d799 4fbe 7474 9bbd d4c9 88bd
00000340: 5c01 cd3d 7396 cebd 8aab 81bd dc43 40be
00000350: 5050 1fbe e0f7 cbbc b03c 273d 26bf 8fbd
00000360: 1e26 1cbe 637a c4bd 04f5 ba3d 48ac c63d
00000370: 3884 463e 4c99 073e 6411 2fbd c00d 443d
00000380: 406e 023e 873d 41be ea6d b5bd b2b9 88bd
00000390: 6c6f c33d cbe1 32be 800d 053c ecf7 273d
000003a0: 80ae f73d 540e 003e d0dc 2e3c b0eb 3c3d
000003b0: f09d 113d 9426 5bbd bc01 d03d ba19 f9bd
000003c0: b8ff e7bc f3b3 dbbd 59d4 a2bd 8430 45be
000003d0: ac6b aa3d a84e 26bd e0f1 d13b 2dd5 c7bd
000003e0: 5456 d93d e83c be3c 70bf 5f3d 0e46 353e
000003f0: 62e2 0abe 5ad2 0f3e 3da3 4cbe 82d6 25be
-0.16728702 0.10368651 -0.16019237 0.0890978 -0.16429213 -0.12967086 -0.048161924 0.06930253
-0.022853285 0.11196658 -0.123878464 0.10328761 -0.051968098 0.015842617 -0.020694926 0.18464825
0.05329308 -0.1752993 0.01129736 -0.094336726 0.19756621 -0.003735289 0.09235865 -0.042176276
0.058719635 -0.053359315 -0.15981105 -0.18875368 0.13199952 0.08020887 0.0782212 -0.111936174
-0.019947872 0.059677094 0.19297323 0.20197672 0.04414451 0.023061931 0.024992153 0.13281053
0.11086908 -0.07420811 -0.16502465 0.07439974 -0.055558547 0.15703627 0.1910691 0.034776703
-0.036717594 0.04715416 0.061783284 0.13402894 -0.008390725 0.12220463 -0.14849246 -0.1784555
0.17637673 0.18370497 0.17861864 0.11731842 -0.033529654 0.14504689 0.024863496 0.17193681
-0.19053984 -0.078654855 0.1062586 0.104362965 -0.1487092 0.12940332 0.031181872 0.059084564
0.048747987 -0.19747543 0.10071656 -0.17408864 0.11283672 0.14715043 -0.060774118 0.10586691
0.03872411 0.18695909 0.119448185 -0.09242781 -0.017695203 -0.01802124 0.17200747 -0.18619533
0.194895 0.12596726 0.0062270164 0.016736656 0.20185319 -0.14856477 -0.06515093 0.0799205
-0.09105472 0.01577042 0.18497223 0.14263812 -0.024190784 0.019041806 -0.04409027 0.08124605
0.14106995 0.026123047 -0.14447261 0.08624664 -0.15890619 -0.0938913 -0.1966043 -0.1637825
0.18204066 -0.032837585 0.06717968 -0.038741678 -0.03728044 -0.072246075 0.18448377 -0.11109355
0.17608017 0.09732744 0.043306425 0.02616252 0.10458854 0.120153904 0.043997437 0.19151056
0.026972383 -0.14080551 -0.20351934 0.1455639 -0.059231058 0.16288841 0.00058561563 0.15731725
0.18077627 0.09857643 0.084023476 0.0014469624 0.0019325614 0.014363289 -0.17546053 0.14080858
-0.016567215 0.17527664 0.090717494 0.14103481 -0.1628516 -0.12360729 0.044925645 0.111624986
-0.09146304 -0.18397704 0.028371692 0.18524405 -0.17454684 0.12959057 0.025575042 -0.0432643
-0.01354067 -0.19335695 -0.020271719 0.09885004 -0.08202761 0.10837671 -0.030909702 -0.12798929
0.020876467 -0.092939936 0.09919536 -0.08207211 0.0552226 -0.0872304 -0.13051102 -0.14929587
0.098192275 0.11812255 -0.0061077774 0.15253538 -0.07244736 -0.023321971 0.15067372 -0.2026988
-0.20298235 0.07772973 0.17087314 -0.14631656 0.01940614 0.13323605 0.04878232 0.09627879
0.17473659 -0.095515564 -0.029681921 0.11106336 0.087644935 0.101136774 -0.07410225 0.025817618
-0.11550801 0.060915828 -0.006698981 0.042867437 0.17466387 -0.20273529 -0.07590571 -0.06679121
0.10010025 -0.1008729 -0.063315466 -0.18775886 -0.1555798 -0.02489847 0.04082936 -0.070188805
-0.15248916 -0.09593656 0.09128764 0.09700829 0.19386375 0.13242072 -0.042741194 0.047864676
0.1273737 -0.18871127 -0.08858855 -0.066760436 0.095427364 -0.17468946 0.008120894 0.04100792
0.1209383 0.12505466 0.010672763 0.046123207 0.03555101 -0.053503588 0.10156581 -0.1216311
-0.028320178 -0.10727682 -0.07950658 -0.19256788 0.08321318 -0.040602356 0.0064070076 -0.09757457
0.10612169 0.023222402 0.05462593 0.17702505 -0.1356292 0.14045087 -0.19984145 -0.1619511

lstm.params.0.ln_i2h.fc_alpha.bias f4 [24]
00000000: 1024 acbc d847 d53d b63a d7bd 7853 b8bd
00000010: f2a1 30be 52b1 0a3e 36b2 4f3e c0ef 2d3c
00000020: e8df 6c3d a860 f73d 4e3e 9dbd 480d 0c3e
00000030: c493 2b3e 747f 833d 07ff aebd dc10 1fbd
00000040: ce61 94bd 0800 833c 4413 e23d 4e37 3bbe
00000050: 4bb1 00be 003c 823d 02d0 2a3e 10dc 413d
-0.02101329 0.10414094 -0.10509245 -0.090002954 -0.17249277 0.13544205 0.20282826 0.010616243
0.05783072 0.120789826 -0.07677899 0.13676941 0.16755587 0.06420794 -0.08544736 -0.038834438
-0.07245217 0.015991226 0.11038831 -0.18282816 -0.12567632 0.063591 0.16680911 0.04732901

lstm.params.0.ln_i2h.fc_beta.weight f4 [24, 1024]
00000000: 9421 ad3d 7bf6 50be 7cba 17be cc7c 77bd
00000010: d008 bb3d 448e fe3d 168b 073e ccb4 a43d
00000020: 8c51 1bbe 1e55 443e 54d6 2a3e 400b fc3d
00000030: 0e0e 493e b044 013e f845 d93d fe9e 383e
00000040: b83c 31be 3c1b ad3d b005 883d 6479 a9bd
00000050: a0a4 dcbd 5439 93bd 0052 a639 7418 b63d
00000060: c8ea d03d 9864 80bc 5850 bc3d 6cba 24bd
00000070: 4f44 d5bd e091 ef3c 16b4 3b3e b26f 323e
00000080: 4e9d 3fbe 4e0d 153e 50d4 c5bc cc4d 0e3e
00000090: 00ed 783b 2fc6 dabd 69d6 50be beea 2b3e
000000a0: 6ea0 023e 2682 44be bff9 3fbe d86b 95bd
000000b0: 20eb d93d ea70 3e3e d05e bc3d dd21 47be
000000c0: a819 cf3d f867 853d d077 4f3e ca06 43be
000000d0: a099 9c3b e868 8d3d e860 de3d d442 3c3e
000000e0: a040 103e 68d4 303e 022f 85bd 2881 6dbd
000000f0: 3620 e1bd 5211 313e 6eb0 393e 3cc6 ed3d
00000100: c8b3 42be b481 9b3d dcbb 03bd d48a ed3d
00000110: 3c9c acbd 00e0 183b 4aaa 453e 4025 27bb
00000120: 583f 1a3e 1649 0b3e f03e 083e 0096 b4bb
00000130: 28f5 05bd 004f a7bb 686c 1cbd 5276 86bd
00000140: 90e6 9b3d 00f6 c639 7e39 2e3e 488a 0e3e
00000150: 12f2 1bbe f54a 0ebe 553d 3bbe 34fc fa3d
00000160: b8e0 90bd a482 c83d 80c0 703d aae6 373e
00000170: 4c63 853d 70e7 eb3d f03c b33d 157a 4cbe
00000180: d09d f2bd 0054 31be f8be 59bd 8cdc 1b3e
00000190: 48ea b13d 047e 48bd c82f 123e 881e 203e
000001a0: 9cef c03d 8839 e13c e896 58bd 4a07 4d3e
000001b0: 583d ab3d 564b 0abe 0610 093e fee1 2f3e
000001c0: a4d3 983d 4872 cf3d 997a fcbd c074 b1bd
000001d0: a0e1 ec3d e0d2 5bbc 6c7d 023e 78df 7dbd
000001e0: 80a6 01bb 725a 8cbd 2c41 983d 6f8e b9bd
000001f0: 6606 2a3e 6d43 bbbd fa52 0f3e 28df e43d
00000200: e4f4 f63d 7879 43bd 4ceb 2bbe a03d db3d
00000210: 5879 babc 840f b33d 9c7c 1c3e 3409 a3bd
00000220: 31b1 09be b729 cfbd 4c26 2f3d 8405 433e
00000230: 6ce6 fabd dc9f f73d 4db7 b8bd 9cf7 e43d
00000240: 30d8 ce3d 5c16 943d 4cfc 083e 2d9b 4ebe
00000250: 7411 e13d 4f9c 48be 51de d7bd 4cd0 be3d
00000260: d8af dd3d 2c7f febd d2f2 3d3e 3721 d4bd
00000270: 68fc 1fbe da11 3ebe fc2e 9b3d b251 4fbe
00000280: 94c7 dc3d f52a adbd 4a04 1e3e 6e67 adbd
00000290: 358e 45be 43e1 17be e4ff 11be f89a f6bc
000002a0: c859 52bd 2ceb 403e 708a 163d ec38 113d
000002b0: 7007 d1bc e4d5 10be d24b 483e 7ec3 40be
000002c0: bf62 1dbe 0080 6237 ae78 f5bd 2afb a0bd
000002d0: a8f5 573d 67d4 bbbd a49f 0a3d c260 1cbe
000002e0: 88e6 063e e4ff 473e b649 3e3e b00a 6bbc
000002f0: 4647 d3bd aade 4abe 70e6 1a3e a8c5 273d
00000300: f288 163e e827 85bd b8ce 39bd c301 c8bd
00000310: 1267 183e 6e1d e1bd 1cd6 a83d e86b 1a3e
00000320: d04f e83c 42ed f6bd b090 d13d ff30 12be
00000330: a454 253e 30cf 4b3d 2e22 043e 3bfc f8bd
00000340: 1038 21be 140e 7bbd ec0a 87bd 3803 1bbd
00000350: d806 4fbd f04b 953c 1014 d63c cd23 11be
00000360: 2c0c 133d f0db 433e e0dc f53c 54ca 21be
00000370: 6519 1dbe 90a6 66bd 8859 943d caa4 33be
00000380: 64fa 4f3e 1a5a 4f3e 6436 07be 0433 943d
00000390: 58f5 e7bc a23b 4c3e 6003 753d 8c97 7bbd
000003a0: 8039 30bc 2058 4f3e 4b9c c5bd 1660 4dbe
000003b0: 0602 0cbe 4051 2e3b aa70 423e b062 eabc
000003c0: b0d3 bf3d 68c8 33bd b08c 2c3c d4c5 bdbd
000003d0: fdbf bcbd 80b2 29bb e99d 18be c0c8 a03d
000003e0: be4e 283e ce3f 84bd 04c1 b93d 92a1 363e
000003f0: 20e6 22be c8c9 adbc 2e98 bebd 40a3 07bc
0.0845367 -0.20406525 -0.14817232 -0.06042175 0.0913254 0.12429479 0.13236651 0.08042297
-0.15167826 0.19173095 0.16683322 0.12306833 0.19634268 0.12623858 0.106090486 0.180294
-0.17308319 0.0845246 0.0664171 -0.082751065 -0.10773587 -0.07188669 0.00031723082 0.08891383
0.10201031 -0.015672967 0.09195012 -0.04021685 -0.104134195 0.029244363 0.18330416 0.17425421
-0.1871235 0.14555857 -0.02414909 0.13896865 0.003798306 -0.10682332 -0.20394291 0.16788766
0.12756512 -0.19190273 -0.18747614 -0.0729596 0.1064055 0.18597761 0.091977715 -0.19446512
0.101123154 0.06513971 0.20260549 -0.19045559 0.0047790557 0.06904775 0.10858327 0.18384868
0.14087152 0.17268527 -0.06503107 -0.0579845 -0.10992472 0.17291763 0.18133709 0.11610076
-0.19013894 0.07593098 -0.03216158 0.11598745 -0.08428237 0.0023326874 0.19303241 -0.002550438
0.15063226 0.13602099 0.13305259 -0.0055110455 -0.032704502 -0.005105853 -0.03818932 -0.065655366
0.07612336 0.00037948787 0.17014119 0.13919938 -0.15229061 -0.13895781 -0.18285115 0.12255135
-0.07074112 0.09790543 0.058777332 0.17959085 0.0651308 0.115187526 0.08751857 -0.19968446
-0.118465066 -0.173172 -0.053160638 0.1522085 0.08687264 -0.048948303 0.1427604 0.15636647
0.09420702 0.027493253 -0.05287829 0.20022312 0.0836131 -0.13505301 0.13385019 0.17176053
0.07462242 0.10129219 -0.12328071 -0.086648464 0.11566472 -0.013416976 0.12743157 -0.061980695
-0.001978308 -0.068531886 0.074343055 -0.0906037 0.16604003 -0.0914372 0.13996497 0.11175376
0.12058428 -0.047723264 -0.16788977 0.107051134 -0.02276294 0.08743194 0.1528191 -0.0796074
-0.134465 -0.10115378 0.042761132 0.19045073 -0.12250981 0.12091038 -0.09019337 0.1118004
0.10099828 0.07230827 0.13377494 -0.20176382 0.10989657 -0.19590877 -0.1054045 0.09317073
0.10824555 -0.124266 0.1854966 -0.10357898 -0.15623629 -0.18561497 0.07577321 -0.20246008
0.10780254 -0.08455459 0.15431324 -0.08466993 -0.19292529 -0.14832024 -0.14257771 -0.030103192
-0.051355153 0.18839711 0.036753118 0.035454676 -0.025516242 -0.14144093 0.19560173 -0.18824574
-0.153697 1.3500452e-05 -0.119859084 -0.07860406 0.05272451 -0.09171372 0.03384365 -0.15271285
0.13173878 0.19531208 0.18582806 -0.01434581 -0.10316329 -0.19811502 0.15126967 0.040959984
0.14700678 -0.06501752 -0.045363158 -0.09765961 0.14883068 -0.109919414 0.08243963 0.15080225
0.02835837 -0.12056972 0.10232675 -0.14276503 0.16145569 0.049758136 0.12903664 -0.12157484
-0.15744042 -0.061292723 -0.0659388 -0.037844867 -0.050543636 0.018224686 0.026132613 -0.14173813
0.03590028 0.19126868 0.030012548 -0.15799838 -0.15341718 -0.05631119 0.07243639 -0.17543331
0.2031036 0.20249215 -0.13204342 0.07236293 -0.028315231 0.19944623 0.05981767 -0.061423823
-0.010755897 0.20248461 -0.09648951 -0.20056185 -0.13672647 0.0026598722 0.1898829 -0.028611511
0.09366548 -0.043892294 0.010531589 -0.09266248 -0.09216306 -0.0025893748 -0.14903988 0.0785079
0.16436288 -0.06457482 0.09070018 0.17835072 -0.15908098 -0.02121438 -0.0930637 -0.008278668

lstm.params.0.ln_i2h.fc_beta.bias f4 [24]
00000000: 29a1 dabd e8fd b1bd b8f0 f7bc d6af 133e
00000010: 4ecb 053e 6011 b2bd e898 08be e425 6cbd
00000020: 2a77 143e f084 f53d a053 933b 6cd0 b33d
00000030: c066 2a3e 0034 27b9 28ba e5bc 7ed4 2dbe
00000040: 587d cf3c f089 e83c 225c 03be 6927 11be
00000050: 049f 2c3e b574 e0bd 65c7 acbd ac66 41bd
-0.1067527 -0.08691007 -0.03026615 0.14422545 0.13065836 -0.0869472 -0.13339579 -0.057653323
0.14498582 0.119882464 0.004496053 0.08779988 0.16640759 -0.00015945733 -0.028042868 -0.1697559
0.025328323 0.028386086 -0.12828115 -0.1417519 0.16857535 -0.1095976 -0.08436469 -0.047217056

lstm.params.0.ln_h2h.alpha f4 [1, 24]
00000000: 1135 d8bd de0b 403e 3415 1a3e f88f df3c
00000010: b440 2f3e 66a3 093e ec3e 123e d06e 03bd
00000020: 9a2d 1abe f869 c93d 5035 263e 1a7b 403e
00000030: c1ec f4bd 87bf 1fbe c0aa fa3d e075 2ebd
00000040: cffa 0cbe 3094 a23c a59d 50be 5cb1 223d
00000050: 786c 1ebe 2c80 1e3e 8c36 10be 4867 f4bd
-0.105569966 0.18754527 0.15047151 0.02729033 0.17114526 0.13441238 0.14281815 -0.0320881
-0.15056458 0.09834665 0.16231275 0.1879696 -0.1195922 -0.15600406 0.12239599 -0.042592883
-0.13767551 0.019846052 -0.20372637 0.039719924 -0.15471065 0.15478581 -0.14083308 -0.11933762

lstm.params.0.ln_h2h.beta f4 [1, 24]
00000000: 9af1 023e 00f7 1e3b 0a85 3abe 43cc cebd
00000010: 7c9d fb3d 014d 50be b849 ba3c a8b7 003d
00000020: 30ba b2bc 10cd ee3d 860f 313e c4ea 39be
00000030: 324d 2f3e 00d4 19ba a370 fbbd 7aac 2c3e
00000040: c85b aa3d e0d2 433c d806 b03d e6b7 363e
00000050: 084e af3c b878 a7bc 8171 cabd 2000 513c
0.12787476 0.002425611 -0.18214813 -0.100975536 0.12285897 -0.20341875 0.02274023 0.03142515
-0.021817297 0.11660206 0.17291078 -0.18155962 0.17119291 -0.0005868077 -0.12277343 0.1686267
0.08318287 0.011952132 0.08595055 0.17843589 0.021399513 -0.020443305 -0.098849304 0.012756377

lstm.params.0.ln_h2h.fc_alpha.weight f4 [24, 1024]
00000000: 3446 59bd 38b1 f0bc 809f 7b3b f063 063e
00000010: e4ab 973d 48a0 4cbd b8b9 b0bd ad4b e1bd
00000020: 265d 2fbe 6466 143e 537a bfbd 7827 c6bd
00000030: 624e 29be ce77 1e3e e865 3e3d 7099 79bd
00000040: 2873 d23c e6b1 123e 1070 15be 52e4 4f3e
00000050: a0f9 47bd d03f 04be 2811 fd3d aacb 07be
00000060: bc58 b13d 042d 4dbd 6042 a5bc e20d 1fbe
00000070: d459 f83d 807c a33d 8cc7 063d 30e7 dc3d
00000080: b4dd 20be a4b8 983d f666 36be bc9a 04be
00000090: 7209 45be 2f7a d1bd 94d6 52bd 68c0 883d
000000a0: 4429 4bbe b8f4 d73c 587a d8bc 20e4 45bc
000000b0: 843c 003d 6f06 debd 70ef 583d 1623 3bbe
000000c0: 3e47 4d3e f66e 93bd 75d3 1cbe 2772 2fbe
000000d0: 284e 31be a49a c73d 60d0 72bd c405 233d
000000e0: 8cca c83d bca3 1a3e 56c7 373e 8cde 203e
000000f0: 4c16 fe3d ead3 16be 1f75 17be d08b 9f3d
00000100: c74a a7bd 685d ae3d c830 0e3e 3172 cabd
00000110: c811 acbc ca50 2c3e 7c21 d8bd 307b 233d
00000120: f845 0b3e 4c56 9abd 80de 3d3e 4454 233e
00000130: d2cb 1c3e e2fb 8abd 0eef 213e c8fe e93d
00000140: 45cb d2bd 8c6e 3abd 6291 fcbd a4aa 8d3d
00000150: 6abe 10be 9870 093d 3479 ef3d 005e afbc
00000160: 08fe 1b3d b833 a13c 623e a5bd 1062 b23d
00000170: 1033 ee3d a84b de3c 66cb 13be 1e14 093e
00000180: 13b7 ffbd ec28 9b3d bebe 42be 868f edbd
00000190: 5d2e 4bbe 20ec c33c 506d 253e e0b4 9ebc
000001a0: 2e7b 03be 5b5f 03be aca1 19be 03d2 50be
000001b0: 0022 cdbb 6852 08be 803c 28bb 5aa7 1a3e
000001c0: f0c9 403d 7a7d 3d3e 8a03 0abe 0421 be3d
000001d0: 84df 83bd 138b 3fbe 0caa c5bd 8601 013e
000001e0: 807f 143d cd52 b6bd 9866 81bd 64c4 55bd
000001f0: 8b3b b1bd 6cc8 2d3e c086 253c 00cb 39bb
00000200: 3dfc a3bd b0cc 683d 1045 a63d fa9f 49be
00000210: e021 033c 2ae6 3abe 4297 84bd a01b 1d3e
00000220: 98ca 02be 27d0 4abe 354c b4bd da9c 8cbd
00000230: d411 42be 9833 863d d8f9 723d c48d c93d
00000240: ec3b 263e 6049 9a3d 0080 263e b14f a6bd
00000250: 7e32 f8bd 0f88 3abe 49ab b2bd 706c 0ebe
00000260: fca1 44bd 14a4 153e e099 da3c 259d 3fbe
00000270: 213d 49be 73a5 d8bd e08c 21bd a782 24be
00000280: 1867 493d d887 cb3d f024 473d 9437 d83d
00000290: 50ca 5f3d f8a4 39bd 980c 3c3d 71a2 3ebe
000002a0: f4d0 353e 1ca6 223d 7572 a2bd ffdd 2ebe
000002b0: 8d44 f5bd e875 13be ac06 d63d 92d5 b4bd
000002c0: 6e11 13be f29f 0f3e 2c21 1bbd 247b 7cbd
000002d0: b88c f33d e4be 0b3e 5c4b ad3d c3c4 32be
000002e0: fcf8 41be 449a e5bd 006e a03d 8367 4abe
000002f0: ccc5 f53d d0c5 f63d 3e5c b5bd a1b5 0cbe
00000300: d04b c2bd 2489 71bd 280c edbc 787d 4c3d
00000310: a8c7 b73d b67d 2e3e 9002 993d 002f 1abc
00000320: 0c0c e33d f069 35be ed96 11be 6096 da3d
00000330: 18c7 a2bc 2490 11be f0dc fe3d 604f 213e
00000340: 5db0 02be 1851 193d 35eb 4bbe ba9f 3fbe
00000350: ae66 91bd 3cd3 d13d 7a4d 113e a84a 8dbd
00000360: 400d 7d3b 546b 43bd 4d52 2fbe 9ec8 503e
00000370: 0837 3b3d 18c2 30be a46c e83d a016 1dbc
00000380: cc7b 313d 44de 2f3d 5c3d a63d e020 8abd
00000390: dc09 44bd 205e fd3b 2ce6 ee3d 2828 c63d
000003a0: bc0d 59bd 80fe b03c 5980 e2bd 669d 1e3e
000003b0: 1454 32be d4bf 2d3e bab0 d9bd 1e0b d4bd
000003c0: e447 4e3e 60da 3bbd fc4a 363e b304 acbd
000003d0: 40b9 e33c 247f 353d d041 2cbe 34da 0b3d
000003e0: ff0b a8bd 247b b53d 9078 413c 70f8 3dbe
000003f0: 0896 de3d c047 403d 00b8 89b8 81c4 2abe
-0.053045467 -0.02938138 0.003839463 0.1312406 0.074058324 -0.049957544 -0.08629173 -0.11000762
-0.17125377 0.14492184 -0.09349503 -0.09675497 -0.16533807 0.1547539 0.046483904 -0.060937345
0.025689676 0.14325675 -0.1459353 0.20301941 -0.048822045 -0.12914968 0.12356788 -0.13261285
0.08659503 -0.05009176 -0.020173252 -0.1553264 0.12126508 0.07982731 0.032905146 0.10786283
-0.15709573 0.074570924 -0.17812714 -0.12949651 -0.19241884 -0.10228383 -0.05147417 0.066773236
-0.1983996 0.026361808 -0.026425526 -0.012078315 0.031307712 -0.10841071 0.05296272 -0.18275103
0.20046708 -0.071988985 -0.1531504 -0.1713339 -0.1731497 0.09746292 -0.059280753 0.03980042
0.09804258 0.15101522 0.17947134 0.15709895 0.124065965 -0.14729276 -0.14790772 0.07790339
-0.081685595 0.085139096 0.13885796 -0.098850615 -0.021004573 0.16827694 -0.10553262 0.039912403
0.1360091 -0.07535991 0.18541908 0.15950114 0.15312126 -0.06786324 0.15813848 0.11425549
-0.10292677 -0.045515582 -0.12332417 0.06917313 -0.14135137 0.033554643 0.116930395 -0.021407127
0.03808406 0.019677982 -0.08068539 0.0871011 0.11630833 0.027135685 -0.14433059 0.1338658
-0.124860905 0.075761646 -0.19018075 -0.115996405 -0.19841905 0.023916304 0.1615498 -0.019373357
-0.12839958 -0.12829344 -0.15003079 -0.20392613 -0.0062601566 -0.13312685 -0.0025670826 0.15102902
0.047067583 0.18504897 -0.13477913 0.09283641 -0.064391166 -0.18705396 -0.096515745 0.12598237
0.036254406 -0.08902512 -0.06318396 -0.052189246 -0.08653935 0.16970986 0.010102928 -0.0028349757
-0.08007095 0.05683583 0.081186414 -0.19689932 0.008003682 -0.18251863 -0.06474163 0.1534257
-0.12772596 -0.19805966 -0.08803598 -0.068658546 -0.18952113 0.065528095 0.0593203 0.09841493
0.16233796 0.075335264 0.16259766 -0.08120669 -0.121190056 -0.18215965 -0.08724076 -0.13908553
-0.048006043 0.14613372 0.026684701 -0.1871229 -0.19652225 -0.10578432 -0.03944099 -0.16065465
0.049170583 0.099380195 0.04861921 0.10557476 0.0546363 -0.045323342 0.045910448 -0.18616654
0.1775549 0.039709195 -0.07931987 -0.17076872 -0.11975966 -0.14400446 0.10450491 -0.08829798
-0.14362118 0.14025858 -0.037873432 -0.061640874 0.11892074 0.13647038 0.08461639 -0.17457871
-0.18942636 -0.112110645 0.07833481 -0.19766049 0.120006174 0.120494485 -0.088554844 -0.13741161
-0.09487116 -0.058968678 -0.02893646 0.049924344 0.08973628 0.17040142 0.07471192 -0.00941062
0.11086282 -0.17716193 -0.1421773 0.10673213 -0.019870326 -0.14215142 0.12444484 0.15752935
-0.1276259 0.037430853 -0.19913943 -0.18713275 -0.07099663 0.10245368 0.14189711 -0.06899005
0.0038612634 -0.047709778 -0.17121239 0.2038903 0.04570678 -0.17261541 0.113488466 -0.009587914
0.043330953 0.04293658 0.08117172 -0.06744552 -0.047860965 0.007732168 0.116649956 0.09675628
-0.052991614 0.02160573 -0.110596366 0.1548973 -0.17414886 0.16967708 -0.10629411 -0.10353683
0.20144612 -0.045862556 0.17802042 -0.08399334 0.027798295 0.044310704 -0.1682198 0.03414364
-0.08205413 0.08861378 0.0118085295 -0.18551803 0.1086846 0.046943426 -6.566942e-05 -0.16676523

lstm.params.0.ln_h2h.fc_alpha.bias f4 [24]
00000000: e5d1 babd 50f4 9d3d 145c bebd 9012 ab3d
00000010: 19ff c2bd 8464 18be 1eae 17be b862 c53c
00000020: dc5d 0a3e 2eaf fabd 40ef 423e d097 2e3c
00000030: b6e9 113e af25 cebd e0c8 69bc 4c45 413e
00000040: 00b6 febb 1893 053e 403a 10bd cee3 e8bd
00000050: 0c16 91bd f4c2 be3d 68cc 6dbd 5ca5 3f3e
-0.091220655 0.077126145 -0.09294906 0.0835315 -0.09521312 -0.14882094 -0.14812514 0.024094924
0.13512367 -0.12240444 0.19036579 0.010656312 0.1424931 -0.10065781 -0.014269084 0.18874091
-0.007773161 0.13044393 -0.0352118 -0.11371575 -0.07084283 0.09314528 -0.058056265 0.18715423

lstm.params.0.ln_h2h.fc_beta.weight f4 [24, 1024]
00000000: 46c7 85bd f834 a93c b5a6 2fbe 7cd0 98bd
00000010: 04d4 72bd 8c6d f53d 47bb 3bbe e0fe c0bc
00000020: d692 473e 7ab0 40be 50a9 483d 8ea9 00be
00000030: 467a f1bd af8f 15be 1046 23bd 70ce 483d
00000040: a653 41be 2668 363e c084 773d 5421 3abe
00000050: 6869 863d 0686 37be 5050 46be 78f7 1cbd
00000060: f002 c33c b93d 12be c7c7 01be 8417 eb3d
00000070: 196a 0cbe 22da 3e3e d8f1 82bd 74b9 b33d
00000080: 9e16 30be 6031 fd3b ebda f4bd b833 9a3c
00000090: 0e41 143e fc72 363e 3a3b 49be 949c 41bd
000000a0: e65c 453e 9032 073e a215 393e b0bc 2bbe
000000b0: 623a 99bd f6fe 3d3e 17b9 b7bd 8000 f9bc
000000c0: bedf fcbd e495 e23d 1072 3f3d 4025 2d3d
000000d0: d024 aa3d 207c 963d a299 22be 1b22 0abe
000000e0: 1c25 313e 569f d5bd 8951 14be 402f 35bc
000000f0: e9ba 3abe 38d5 e23d 006c 26be de58 0f3e
00000100: ce20 47be d0f7 5b3c 6c71 36bd 3823 b2bc
00000110: 2007 4abc 241e 8cbd a20d 2d3e d425 1d3e
00000120: f00c 3e3e 1886 dbbc 30f6 14be 28f5 023e
00000130: 68fe 6fbd d4b1 ce3d e8fb 0b3d 50d9 4e3d
00000140: a895 6e3d a842 ab3d 78cc 763d 08af f23d
00000150: fc5d 9dbd 0078 483e d80d fd3d da9d 4dbe
00000160: 506f e83d e000 753d d653 133e 809c 133c
00000170: 80e5 ca3d 7a58 273e 94f7 253d 2872 a03d
00000180: 80bb cbbb 2ecc 9abd 42d4 d9bd f0c7 90bc
00000190: 8c1c 123d c6e5 04be ee9d 23be 34e9 71bd
000001a0: 8286 1abe c019 08bd 3910 22be ee06 babd
000001b0: 283d 98bc 2d56 e5bd 1052 9b3c e0da fa3d
000001c0: 50a2 c53c 784a f1bd e09a 203c 90d9 0abc
000001d0: bc73 8bbd 5a3d 26be 48ce b6bc 68d2 923c
000001e0: cbb2 09be 60be 543c b68d 0abe f037 283d
000001f0: 8679 1ebe 7cc9 0dbe c2dd 92bd 48d3 503d
00000200: 200c 743d 0074 8bbd ee82 503e 3cf2 91bd
00000210: 34fa c73d 6859 4abd 0a19 473e 80e2 663c
00000220: 3464 003d 8d18 e2bd ea87 37be f4f3 e0bd
00000230: 346f 64bd 5231 273e dcb8 243e f0d9 07bc
00000240: 8045 ba3d f25e 92bd acef abbd 5299 89bd
00000250: 7098 28bc 949c 4fbe f4fc 1e3d 86df f4bd
00000260: e4bc db3d 64e9 9a3d c052 9cbc 53a4 0ebe
00000270: dc10 2fbd 784a f83c 00ac 02be a006 7e3d
00000280: 0dd3 39be eae2 3c3e 695b 28be 00b0 e9ba
00000290: 37ae 42be acd1 3bbe 9d56 41be fdf8 e6bd
000002a0: 809e 6fbc 0cdf 1b3e 5e9d 393e 84fc a23d
000002b0: 285e d83d 56f4 163e 88f0 663d e87c 433d
000002c0: db13 a7bd 14a8 16bd 54e1 303e 0c4c cf3d
000002d0: f016 de3d cb7c 4ebe 1f05 30be 40fd 42bc
000002e0: 464b fabd 74fd 473e e2ee 0ebe 78a2 8f3c
000002f0: c82d 813d f1e8 a5bd d876 82bc 6a8f 043e
00000300: c009 bb3b 1c4c a63d 4842 313e 98ef 753d
00000310: b8fb df3d e847 d1bd 5408 4f3e 90a3 3e3d
00000320: 9e46 463e f05d 88bd 2879 aebc 54b6 71bd
00000330: 5499 483e 3266 283e 7c4c 46bd 9c9a 28be
00000340: 5882 9ebc d411 27be f499 49be 00c5 663c
00000350: 6075 babb 5863 a9bd 10df bdbc 5ac1 b3bd
00000360: 88d9 863c 21a9 00be 08d7 013e f413 18be
00000370: 0011 903b 44a5 89bd e41e ec3d cac8 353e
00000380: 42a5 043e b68d a1bd 00b3 6d3b 68c6 1c3d
00000390: 9818 71bd a4b2 d73d 8a97 303e 7d45 afbd
000003a0: 80ad 38bb 38ea 39be 60f8 3b3d 069f 0d3e
000003b0: a031 c73d 9013 da3c 3645 20be 3074 fe3d
000003c0: a05e c0bd 30f2 fe3d 7b6b 25be 2995 1abe
000003d0: 8a02 b2bd 2830 e43d 6071 263c 989e 153e
000003e0: 2f35 36be 5768 39be 2e2e f7bd fd1f c7bd
000003f0: c8b7 43bd a8c5 dbbd bd30 d0bd dc15 ae3d
-0.06532149 0.02065514 -0.17153437 -0.0746164 -0.059284225 0.11983785 -0.1833316 -0.023559034
0.19489607 -0.1881732 0.048989594 -0.1256468 -0.117909 -0.14605592 -0.03986174 0.049025
-0.18879566 0.17813167 0.060429335 -0.18176776 0.065630734 -0.1792222 -0.19366574 -0.038321942
0.023805112 -0.14281358 -0.12673865 0.114790946 -0.13712348 0.18637899 -0.06393784 0.08775607
-0.17196128 0.007726833 -0.11955818 0.01882349 0.14477941 0.178173 -0.196515 -0.047268465
0.19273719 0.13202882 0.18074659 -0.16771197 -0.07481839 0.18554291 -0.0897085 -0.030395746
-0.12347363 0.110637456 0.046739638 0.042271852 0.08307803 0.07347894 -0.15878919 -0.13489573
0.17299312 -0.104307815 -0.14484228 -0.011058629 -0.18235363 0.110758245 -0.16252136 0.13998744
-0.19446108 0.013425782 -0.04454176 -0.02174531 -0.0123308 -0.06841686 0.16899732 0.15346462
0.18559623 -0.02679734 -0.14547038 0.12788832 -0.05859223 0.10092512 0.034175783 0.050500214
0.058248192 0.08362323 0.06025359 0.11849791 -0.07683942 0.19577026 0.12356156 -0.20079747
0.11349356 0.059815288 0.1438745 0.0090094805 0.09907055 0.16342345 0.040519312 0.078342736
-0.00621742 -0.075584754 -0.10636188 -0.017673463 0.035671756 -0.12978277 -0.15978214 -0.05906029
-0.15090373 -0.033227682 -0.15826501 -0.09083353 -0.01858385 -0.11198077 0.018960029 0.12248778
0.024125248 -0.11781782 0.00980255 -0.0084747225 -0.06809184 -0.16234341 -0.02231516 0.017922595
-0.1344711 0.012984842 -0.13530621 0.04106897 -0.15476045 -0.13846391 -0.07171203 0.050982744
0.059581876 -0.068092346 0.20362446 -0.07126281 0.09764519 -0.04940167 0.19443145 0.014092088
0.03134556 -0.11039839 -0.17922941 -0.1098403 -0.055770114 0.16327408 0.16086143 -0.008291706
0.09095287 -0.07147016 -0.08395323 -0.06718697 -0.01029025 -0.20274574 0.038815454 -0.11956696
0.107293874 0.07564047 -0.019082427 -0.13929872 -0.042740688 0.030308947 -0.12760925 0.062018037
-0.18146916 0.18445936 -0.1644112 -0.0017828941 -0.1901177 -0.18341702 -0.18880697 -0.112779595
-0.014625192 0.15221804 0.18126437 0.0795832 0.10564834 0.14741644 0.056381732 0.04772654
-0.08158084 -0.036781386 0.17273456 0.10121927 0.10844219 -0.20164792 -0.17189454 -0.0119012
-0.122213885 0.19530278 -0.13958314 0.017533526 0.0630756 -0.08101071 -0.01592581 0.12945333
0.0057079494 0.081199855 0.1731044 0.060042948 0.109366834 -0.10218793 0.2021802 0.046542704
0.19362876 -0.06658542 -0.021298006 -0.059011772 0.1958974 0.16445234 -0.048412785 -0.16465229
-0.019349262 -0.16315395 -0.19687635 0.014085054 -0.0056902617 -0.082709014 -0.023177654 -0.08777113
0.016461149 -0.12564518 0.12679684 -0.14851362 0.004396558 -0.06720975 0.115293294 0.17752376
0.12953666 -0.07888357 0.0036270022 0.038275152 -0.058861345 0.1053212 0.17245308 -0.08558176
-0.0028179586 -0.18155754 0.045891166 0.13830194 0.09726262 0.026620656 -0.15651402 0.12424505
-0.09393048 0.12448537 -0.16154282 -0.15095963 -0.086918905 0.111419976 0.010158867 0.1461128
-0.17793725 -0.18106209 -0.12069355 -0.09722898 -0.04778269 -0.10731059 -0.10165546 0.08500263

lstm.params.0.ln_h2h.fc_beta.bias f4 [24]
00000000: df47 d9bd 8061 a73c 00cd b13a fcc0 143e
00000010: 2cde 7abd bec3 e8bd 6ea9 483e 9bfa 27be
00000020: 8039 473e 3049 54bc 784e d8bd 6e80 1b3e
00000030: 6c89 bb3d e089 a13d 00a2 10bc 5dd5 11be
00000040: 640d 3b3d a87b d3bd 7a99 3fbe 9c53 9d3d
00000050: 8c1f 853d 11df 45be 9c33 40be 74b8 f03d
-0.106094114 0.020432234 0.0013565123 0.14526743 -0.061247036 -0.1136546 0.19595882 -0.16404192
0.19455528 -0.012956902 -0.10561842 0.15185711 0.091570705 0.07887626 -0.008827686 -0.14241548
0.045667067 -0.1032632 -0.1871089 0.07681963 0.06500158 -0.19323374 -0.18769687 0.11753932

lstm.params.0.ln_cell.alpha f4 [1, 6]
00000000: 50bd 28bd 5070 66be d8ef 1a3e 2c00 27be
00000010: 2072 563d a288 8cbe
-0.041196167 -0.22503781 0.15130556 -0.1630866 0.05235493 -0.27447993

lstm.params.0.ln_cell.beta f4 [1, 6]
00000000: f328 4abe 381b 963e d049 d5bc b04e 513e
00000010: 72d3 b33e c0d9 af3e
-0.19742183 0.2931764 -0.026036173 0.20440173 0.35122257 0.34345818

lstm.params.0.ln_cell.fc_alpha.weight f4 [6, 1024]
00000000: c8f6 4ebd 693f 9ebe 46c6 893e 2440 6bbe
00000010: 1c9e 173e 4849 a53e 6491 a2bd 33a3 2dbe
00000020: 701d d33d 8842 a43e 0482 593e ec14 9e3d
00000030: 9845 6b3d a05e 0c3e 380d c6be 608a 713e
00000040: 4451 c03e f8e9 75be e478 83be f586 79be
00000050: ce56 853e 0330 7abe f0a5 033e 40f7 edbc
00000060: d482 483e b082 5a3e bafa 18be e29a 88be
00000070: bc03 9a3e da83 853e 20dd a0be 00db 263e
00000080: 4a00 883e 49d6 5dbe c248 993e e8a1 8cbd
00000090: 7a8e ad3e 64cc bcbe 4071 703e 0b4b 2cbe
000000a0: 6728 95be 96b2 85be 5d00 9dbe c2d0 11be
000000b0: ac00 acbe b6c8 be3e 803b 573b 3005 eebc
000000c0: 6815 603e a27c 7ebe c029 79be 3f65 7bbe
000000d0: a253 8b3e 6431 e8bd 3050 fa3d e01d 80be
000000e0: 5d1d cfbe 8056 25bb c806 4abd d696 b6be
000000f0: f8af 023e 5654 79be a8f8 81be 901c f73d
00000100: 0cf5 153e 70e8 8f3e e611 8c3e 70b9 2cbe
00000110: ccc4 d6bd 762b ccbe d053 1f3e a312 cabe
00000120: 1daf b2be c0a8 67be f856 293d 4ca1 82be
00000130: feec c43e c2a1 833e 10b2 a13e 7c94 443e
00000140: c0fa 3f3c 24d5 443e 98ba 243e 0086 efbd
00000150: 5009 42bd 907e fdbc 1044 afbe 3803 173e
00000160: 10c2 893e 2cfb 943e a679 3ebe 3417 a03d
00000170: ac86 843e 0c15 523e d289 bebe 4871 06be
00000180: e0b9 d93d d8e8 233e d85c 1c3e a184 6dbe
00000190: 243c 383e 263a c53e c05f d23d 2000 7a3c
000001a0: ea1b cb3e 082a 22be bc79 673e 7c94 093e
000001b0: 7063 6cbe f81c bdbe 1093 963d 08c1 b63d
000001c0: d87f ab3d 704a 7dbd 4ed9 91be 2cf4 9a3e
000001d0: 4019 b73c 66f2 90be 4eed 8f3e 2f5e aebe
000001e0: 6dc5 b0be 9cc2 913e b605 983e fafc 75be
000001f0: 485a 8f3d d419 7e3e acb4 c93e 96c6 853e
00000200: 488e c53e 74ba 043e 52a5 d0be 70b1 dabc
00000210: b8ac 0a3e a0ce 2f3e 2fbf 66be 24f5 3b3e
00000220: 2493 cebd f072 2b3e 60d6 3cbd 681e 053e
00000230: 2825 603e 4829 e43d 31d3 a4be 4153 bfbe
00000240: 28d8 8abe f816 79bd 1039 9cbe c037 06bd
00000250: ee43 0bbe b4b3 483e 0081 85bb 551d afbe
00000260: 64d3 b53e cb76 47be d1e7 7dbe 6d3d 38be
00000270: 70ac 6cbd 3840 363e ccf6 4b3e 3caa 553e
00000280: 5919 69be 9032 603d f01c 2b3e 98ee bb3d
00000290: b85e 29bd 0cdb 963e 2420 cabd cdec 93be
000002a0: a4aa cabd a0d7 cbbc 32a1 8c3e 705f e23c
000002b0: 0b0c 8bbe 64fd 203e a0fb d53d f048 a13d
000002c0: 9bec 44be b28c 82be a4fa 3bbe c892 b2bd
000002d0: 8038 a73e 64b0 7b3e a026 e63c 00df e5ba
000002e0: e434 ad3d 00e4 3cbd 5602 d13e 3cc5 7b3e
000002f0: 958b 8bbe 0848 bc3e 909b 14be 7c2f 803e
00000300: 152f 4bbe 7188 98be 76c7 c2be 5e3b b23e
00000310: f236 8f3e 9bc7 cebe eeb3 9f3e 4823 9cbd
00000320: 6017 cf3e 0875 95bd cef5 b43e 68ac b13e
00000330: c02f 60be 8059 693d 86f0 36be c8e2 383d
00000340: e053 d03e 5c9f babd d919 a0be f66e c9be
00000350: fe08 7bbe 88e4 973e 8f02 a9be babb bcbe
00000360: a48c 433e 70d1 f5bd 89f0 c6be ac99 133e
00000370: fc4e 273e 3c3e 9abd 68e1 c43d 20ad 933c
00000380: 4086 c73d 4e25 a43e 24fd 063e bab6 21be
00000390: a572 95be 2403 cabd 64d8 e8bd b02b febd
000003a0: cb9b 53be 9423 4f3e 3a1f 903e 9280 81be
000003b0: 209e 7f3e c85d e93d 0844 9bbe a0fd 8abd
000003c0: 4428 063e 9e7d 9b3e 643a a13e 489a 84bd
000003d0: 8c9f bc3e 9cdc 7ebe 7639 5bbe 2c1e 64be
000003e0: 78b9 98be c2f9 a53e c276 a93e f039 9c3c
000003f0: f019 d5bc 9ec3 953e 06b9 98be fa8e b9be
-0.050528318 -0.30907753 0.26909083 -0.22973686 0.14806408 0.32282472 -0.07937887 -0.16956787
0.10308349 0.3208201 0.21241003 0.07718834 0.057439417 0.13707972 -0.3868196 0.23587942
0.37562 -0.24015033 -0.2567817 -0.24367888 0.2604279 -0.24432378 0.12856269 -0.029048562
0.19581157 0.21338916 -0.14939395 -0.26680666 0.30080974 0.26077157 -0.31418705 0.1629448
0.2656272 -0.21663775 0.29938322 -0.06866819 0.33897763 -0.36874688 0.23480701 -0.16825502
-0.29132387 -0.26112813 -0.3066434 -0.14239791 -0.33594263 0.37262505 0.0032841861 -0.029055208
0.21883166 -0.24852231 -0.24332333 -0.24550341 0.27212244 -0.113375455 0.12222326 -0.25022793
-0.4045209 -0.002522856 -0.049322873 -0.35661954 0.12762439 -0.24348578 -0.25385022 0.12065995
0.14644259 0.28107023 0.27357405 -0.16867614 -0.10486755 -0.39876908 0.15559316 -0.39467344
-0.34899226 -0.22622967 0.041342705 -0.25513685 0.3846206 0.2570935 0.31581163 0.19197267
0.011717498 0.19221932 0.16086805 -0.1169548 -0.047372162 -0.030944139 -0.34231615 0.14747322
0.2690587 0.2909788 -0.18601093 0.07816926 0.25883996 0.20515841 -0.37214524 -0.13129151
0.10631156 0.16006792 0.15269792 -0.23195125 0.17991692 0.38520926 0.10272169 0.015258819
0.39669734 -0.15836346 0.22605032 0.13435549 -0.23084807 -0.36936164 0.07352269 0.089235365
0.08373994 -0.061838567 -0.28486103 0.30264413 0.022350907 -0.28309935 0.28110737 -0.3405623
-0.34525624 0.28468788 0.29691857 -0.24022284 0.06999642 0.2481454 0.39395654 0.26128072
0.38585114 0.12961751 -0.4075113 -0.026695937 0.1354245 0.17168665 -0.22533868 0.18355232
-0.100866586 0.16743064 -0.04610288 0.1299988 0.21889174 0.11140686 -0.32192376 -0.37368205
-0.2711804 -0.06081292 -0.30512285 -0.03276801 -0.13600132 0.19599801 -0.004074216 -0.34202066
0.3551284 -0.1947891 -0.24795462 -0.17992182 -0.057781637 0.17797935 0.19918364 0.2086572
-0.22763576 0.05473572 0.16710258 0.091763675 -0.041350096 0.29463995 -0.098694116 -0.28891602
-0.09895828 -0.024883091 0.27466732 0.027633399 -0.27157626 0.15721661 0.10448384 0.0787524
-0.19230883 -0.25497967 -0.1835733 -0.087194026 0.32660294 0.24579006 0.02809459 -0.0017537773
0.08457354 -0.046115875 0.40822095 0.24586958 -0.2725493 0.36773705 -0.14512467 0.25036228
-0.19842179 -0.29791597 -0.38042802 0.3481092 0.27971607 -0.40386662 0.31191963 -0.07623917
0.4044752 -0.072977126 0.35343784 0.34701848 -0.21893215 0.05697012 -0.1786519 0.04513815
0.40688992 -0.09112427 -0.3126972 -0.3934247 -0.24515149 0.29666543 -0.33009765 -0.36861974
0.19096619 -0.12002838 -0.3885539 0.1441409 0.16338724 -0.075314015 0.09613305 0.018026888
0.09742403 0.3205971 0.13182503 -0.15792361 -0.2918903 -0.0986388 -0.11369398 -0.124106765
-0.20664899 0.20228416 0.28148824 -0.25293404 0.24962664 0.113948405 -0.3032534 -0.067866564
0.13101298 0.30369276 0.3148986 -0.06474739 0.36840475 -0.24888843 -0.21408638 -0.22277135
-0.29829 0.32417113 0.33098418 0.019070596 -0.026013345 0.29250807 -0.29828662 -0.36241895

lstm.params.0.ln_cell.fc_alpha.bias f4 [6]
00000000: 945d b1bd 4d67 98be 1240 28be 234e aabe
00000010: d439 41be 7841 5cbd
-0.08660427 -0.29766312 -0.16430691 -0.3326274 -0.18869716 -0.053773373
