results/04-27-2019_n/hidden/6/model/encoder.pth (torch_old, 546588 bytes, 22 tensors)

lstm.params.0.i2h.weight f4 [24, 1030]
0.20476674 -0.06105102 0.17737024 -0.008851554 0.25003052 0.33345208 0.27619734 0.11302654
-0.15962914 -0.012776994 -0.07902704 0.3115579 -0.3015961 0.23602334 0.07800937 -0.16806775
0.12459455 0.387835 0.18538406 -0.39228687 -0.19492535 -0.31045207 0.16252537 0.4033785
-0.0012483879 0.31015864 -0.26463416 0.10611415 0.41434947 -0.26696143 0.38462675 -0.05174098
0.1105017 0.42043778 -0.33282954 0.21523671 -0.08388463 -0.08450934 -0.2672715 -0.02921161
-0.0089153135 0.09133745 -0.1918309 -0.087774366 -0.32224396 -0.21569352 -0.18033478 -0.25229973
-0.19567144 -0.11502063 0.18312262 -0.13086845 -0.3087941 -0.1907193 -0.09224475 0.1632359
0.112320215 -0.12074957 0.32824558 0.053426318 -0.34730446 -0.1881434 -0.019394735 -0.24767141
-0.009447151 0.3274753 -0.09427985 0.10638873 0.31549323 0.0780548 0.15290579 -0.33446017
0.28694874 0.41001356 -0.18567562 -0.044965472 0.33518848 -0.24616694 0.41375566 0.010607818
-0.15647434 0.16965425 0.08956765 0.29125974 0.29373777 0.12070067 0.14955279 0.3015705
-0.25909874 0.23026621 0.057974055 0.08720367 0.4059064 0.37152568 0.34858668 -0.16113642
0.021011949 0.08423715 0.12820664 -0.071129 -0.05387736 0.38480255 -0.2787128 0.008530055
-0.18034092 0.38928416 -0.20154025 -0.20201024 -0.14093614 -0.1560855 -0.05482569 0.29385528
0.21209781 -0.18598072 0.23537979 -0.05935108 0.19151098 0.081049636 0.31241608 0.002637959
0.08129313 -0.3931579 -0.396175 0.03781032 0.13755663 -0.22824422 -0.29361495 -0.34952676
-0.2958439 0.3950884 0.14103174 -0.33803955 0.36333638 0.4013458 0.29684803 -0.37127128
-0.2269675 -0.348961 -0.18339367 0.083298914 0.33453056 0.36827338 0.27800637 0.033426065
-0.018860862 -0.3704879 0.31932878 -0.13184135 0.117303796 0.26462537 0.28785205 0.07537264
0.10272154 -0.2741972 0.3673155 -0.058162946 0.21349674 -0.06719225 -0.25368327 -0.090677164
-0.27093384 -0.21676768 0.06411684 0.2538779 0.35053673 -0.12006261 0.27315703 0.17229694
0.08810721 0.39074826 -0.16824396 -0.31215486 0.13071828 -0.2091185 -0.09684749 -0.015069752
-0.2566901 -0.39012808 0.09809804 -0.19366643 -0.35436422 -0.060698163 0.1654732 0.11914979
0.09473723 -0.10979439 -0.22344898 0.1675877 0.002698611 0.3895106 0.3175257 0.39621013
-0.048079822 0.1929964 0.043889314 -0.36685696 0.39117324 0.3953782 -0.21535574 0.15516548
-0.23297188 -0.28034604 -0.07282536 -0.07611631 -0.23954009 -0.16330448 0.38132858 0.23109849
-0.24771394 -0.13184302 0.3491591 0.23083532 -0.27977464 -0.18971263 0.1138816 0.14216495
-0.27801067 0.31259006 0.010853819 -0.384558 -0.08782987 0.12531805 -0.32377294 -0.25381047
-0.32106036 0.0041371323 0.05177289 -0.26774788 -0.13873136 -0.09840413 -0.17392148 -0.29901192
0.047717173 0.01908666 -0.047974546 0.130088 -0.1444976 0.3980418 -0.19879906 0.40801132
0.31580463 0.06456091 0.03569875 -0.08075652 0.022489777 -0.007445695 -0.23717135 -0.19795491
-0.09241048 -0.33334413 -0.13742512 -0.36375886 -0.19031072 -0.12342034 -0.07996877 0.11841641
00000000: 5fae 513e a210 7abd 8ba0 353e 1c06 11bc
00000010: 0004 803e 3bba aa3e bd69 8d3e 757a e73d
00000020: d275 23be 9956 51bc eed8 a1bd 8484 9f3e
00000030: ce6a 9abe 1ab0 713e 60c3 9f3d f419 2cbe
00000040: 6d2b ff3d 4f92 c63e 52d5 3d3e d3d9 c8be
00000050: 839a 47be 93f3 9ebe 0d6d 263e a087 ce3e
00000060: f2a0 a3ba 1dcd 9e3e 217e 87be 6052 d93d
00000070: 9d25 d43e 2baf 88be cced c43e 5aee 53bd
00000080: b74e e23d 9f43 d73e a268 aabe 0367 5c3e
00000090: b4cb abbd 3c13 adbd cfd7 88be 304d efbc
000000a0: 8911 12bc 210f bb3d 526f 44be 0cc3 b3bd
000000b0: 29fd a4be c3de 5cbe aea9 38be 6e2d 81be
000000c0: 185e 48be f08f ebbd 7f84 3b3e 6102 06be
000000d0: 431a 9ebe ec4b 43be d1ea bcbd 5027 273e
000000e0: 2408 e63d 8d4b f7bd ce0f a83e 8ed5 5a3d
000000f0: e4d1 b1be aaa8 40be b5e1 9ebc 939d 7dbe
00000100: 39c8 1abc d8aa a73e cb15 c1bd 56e2 d93d
00000110: 5488 a13e 32db 9f3d 5693 1c3e 5d3e abbe
00000120: f2ea 923e 4ced d13e c021 3ebe b72d 38bd
00000130: d39d ab3e 3013 7cbe c8d7 d33e 6acc 2d3c
00000140: cf3a 20be d8b9 2d3e 3e6f b73d ff1f 953e
00000150: cc64 963e ea31 f73d 5e24 193e 7367 9a3e
00000160: 97a8 84be e8ca 6b3e 3476 6d3d d697 b23d
00000170: f7d2 cf3e 9d38 be3e f479 b23e f200 25be
00000180: 4021 ac3c 8784 ac3d 9a48 033e 15ac 91bd
00000190: 82ae 5cbd d704 c53e 72b3 8ebe a5c1 0b3c
000001a0: 4aab 38be 4150 c73e 9160 4ebe c6db 4ebe
000001b0: 9051 10be e1d4 1fbe e790 60bd 3374 963e
000001c0: 2b30 593e bb71 3ebe 6607 713e 1e1a 73bd
000001d0: 741b 443e 5afd a53d 00f5 9f3e 9ce1 2c3b
000001e0: 037d a63d fe4b c9be 73d7 cabe fede 1a3d
000001f0: a5db 0c3e dab8 69be b354 96be 2cf5 b2be
00000200: da78 97be 0749 ca3e a06a 103e 8513 adbe
00000210: 3a07 ba3e 327d cd3e 77fc 973e 4517 bebe
00000220: 2b6a 68be 04ab b2be 8dcb 3bbe 9f98 aa3d
00000230: 9747 ab3e 548e bc3e da56 8e3e c5e9 083d
00000240: 1882 9abc 97b0 bdbe 107f a33e 6b01 07be
00000250: f93c f03d fa7c 873e 5861 933e f85c 9a3d
00000260: ac5f d23d 9363 8cbe c710 bc3e 453c 6ebd
00000270: e49e 5a3e 179c 89bd c6e2 81be f3b4 b9bd
00000280: d7b7 8abe 59f8 5dbe b14f 833d 49fc 813e
00000290: 8d79 b33e 63e3 f5bd 3ddb 8b3e 9c6e 303e
000002a0: 8e71 b43d 2810 c83e 2548 2cbe c3d2 9fbe
000002b0: 03db 053e 2923 56be fa57 c6bd 1fe7 76bc
000002c0: e36c 83be debe c7be a0e7 c83d 7e50 46be
000002d0: 3a6f b5be a39e 78bd ce71 293e ce04 f43d
000002e0: 9805 c23d e2db e0bd cfcf 64be 1c9c 2b3e
000002f0: 2edb 303b ef6d c73e bb92 a23e 0edc ca3e
00000300: 59ef 44bd d9a0 453e 48c5 333d add4 bbbe
00000310: dc47 c83e 036f ca3e 3786 5cbe b3e3 1e3e
00000320: 2e90 6ebe 8489 8fbe 7625 95bd dee2 9bbd
00000330: ff49 75be 4a39 27be 803d c33e 15a5 6c3e
00000340: b9a8 7dbe db01 07be fbc4 b23e 1860 6c3e
00000350: 9f3e 8fbe 0744 42be c23a e93d b093 113e
00000360: 6a57 8ebe ce0b a03e 37d4 313c c9e4 c4be
00000370: 26e0 b3bd 6053 003e 91c5 a5be 72f3 81be
00000380: 0662 a4be c890 873b cf0f 543d 4016 89be
00000390: 980f 0ebe 1b88 c9bd 7918 32be 1718 99be
000003a0: 1573 433d a15b 9c3c f580 44bd ca35 053e
000003b0: 2ef7 13be 23cc cb3e fb91 4bbe dce6 d03e
000003c0: 25b1 a13e 8338 843d da38 123d ad63 a5bd
000003d0: 7b3c b83c 04fb f3bb 0cdd 72be b1b4 4abe
000003e0: b541 bdbd 15ac aabe 2cb9 0cbe 9a3e babe
000003f0: d0e0 42be cec3 fcbd abc6 a3bd 4e84 f23d

lstm.params.0.i2h.bias f4 [24]
-0.03887349 0.19009168 0.059219625 0.33959532 0.122192815 -0.26652905 0.30992624 0.38692257
0.13391781 -0.11994258 -0.34246942 -0.41126785 -0.2720767 -0.082110144 -0.3292774 -0.22500342
0.32805422 -0.16951606 0.11289488 0.18724336 -0.28484523 -0.34862056 0.10062116 0.07362954
00000000: cf39 1fbd 65a7 423e 4790 723d 70df ad3e
00000010: 3a40 fa3d 7f76 88be a7ae 9e3e b71a c63e
00000020: c021 093e 75a4 f5bd 2758 afbe b391 d2be
00000030: a34d 8bbe 5d29 a8bd 0c97 a8be 4c67 66be
00000040: b9f6 a73e 9e95 2dbe 6e35 e73d b9bc 3f3e
00000050: 3cd7 91be 657e b2be 7712 ce3d 16cb 963d

lstm.params.0.h2h.weight f4 [24, 6]
-0.07203791 -0.34958532 0.2993002 0.022944039 0.2571208 0.05800316 -0.38342628 0.23735099
0.3581266 0.003186473 -0.37674323 0.22440892 0.14653707 -0.26534724 -0.2850607 2.1658609e-05
-0.09726274 0.30237442 0.23788542 -0.15586892 -0.34826666 0.32167813 -0.05777628 -0.16232306
0.029746678 0.36694568 0.065314874 -0.013419014 0.100225195 -0.074489474 0.22913094 0.034885902
0.11009036 -0.23382644 -0.16709833 0.11923502 -0.18475387 -0.14382002 0.029256243 -0.15664761
0.0839169 -0.20467068 0.18463308 -0.06823203 0.17040652 -0.17988649 0.20681725 0.24763459
-0.39927927 -0.35361934 0.18352622 0.17314294 0.28210905 0.3110436 0.40007657 0.0660073
0.26002634 -0.3757941 0.24105468 -0.0902982 0.3610352 -0.3041894 -0.14907126 -0.40933847
0.06344437 -0.1789345 0.29223073 0.11739435 -0.11926486 0.21836509 -0.048948504 -0.18569373
0.26020846 0.38617155 -0.06018937 -0.26961687 0.118471794 -0.37062678 -0.18629034 0.05692066
0.39284113 0.034892228 0.3713179 0.36649135 -0.40310478 -0.18373422 0.29785317 -0.3788188
-0.26768938 0.3823884 -0.12246936 -0.23497832 0.3499405 -0.10092225 0.19092113 0.1381529
0.36353657 -0.3869017 0.18578522 -0.33850375 0.35150126 -0.38736308 -0.37197626 -0.19603997
0.3797583 -0.21739747 -0.27451244 0.15300876 -0.18479647 0.22268426 0.17759553 0.27826655
-0.26757222 -0.2200809 -0.3637746 -0.14883775 -0.08715819 0.31648526 -0.39607218 0.092625
-0.22721799 0.02019314 -0.38505304 0.32942396 -0.12448868 -0.07022208 0.3731683 -0.30162057
0.25101325 0.083072886 0.19100916 -0.23190187 0.38837567 -0.26232043 -0.13019954 0.0252927
0.31529322 0.09318907 -0.03746136 0.020423647 0.1461233 -0.11998976 -0.3245921 0.32463467
00000000: 9d88 93bd d9fc b2be e03d 993e 23f5 bb3c
00000010: 56a5 833e b994 6d3d 7350 c4be 230c 733e
00000020: 5f5c b73e 25d4 503b 7de4 c0be 74cb 653e
00000030: d00d 163e 98db 87be 7af3 91be 82af b537
00000040: b031 c7bd d2d0 9a3e 3c98 733e 1a9c 1fbe
00000050: 0250 b2be ffb2 a43e d2a6 6cbd 0438 26be
00000060: 4eaf f33c 4ee0 bb3e cec3 853d 6ddb 5bbc
00000070: de42 cd3d f08d 98bd 4da1 6a3e 85e4 0e3d
00000080: 0e77 e13d 3370 6fbe d31b 2bbe 7d31 f43d
00000090: 1e30 3dbe 8e45 13be caaa ef3c 3b68 20be
000000a0: a0dc ab3d 3195 51be 7410 3d3e 3cbd 8bbd
000000b0: 0c7f 2e3e 2a34 38be e7c7 533e ec93 7d3e
000000c0: 556e ccbe 980d b5be 4cee 3b3e 624c 313e
000000d0: 9970 903e 1b41 9f3e d6d6 cc3e d62e 873d
000000e0: 2c22 853e 1668 c0be 0ad7 763e 43ee b8bd
000000f0: 9bd9 b83e b7be 9bbe 23a6 18be d094 d1be
00000100: 1fef 813d 9b3a 37be 449f 953e 736c f03d
00000110: 2341 f4bd 199b 5f3e 3a7e 48bd 7f26 3ebe
00000120: 0b3a 853e 47b8 c53e 2189 76bd 390b 8abe
00000130: 57a1 f23d cbc2 bdbe e5c2 3ebe a325 693d
00000140: 7922 c93e 27eb 0e3d 611d be3e c1a4 bb3e
00000150: c063 cebe d324 3cbe 3680 983e 8af4 c1be
00000160: 950e 89be 6ac8 c33e 37d1 fabd 289e 70be
00000170: 672b b33e 53b0 cebd d480 433e f477 0d3e
00000180: 7721 ba3e fb17 c6be 7b3e 3e3e 5d50 adbe
00000190: f9f7 b33e 7454 c6be ac73 bebe b4be 48be
000001a0: ae6f c23e 719d 5ebe e58c 8cbe 54ae 1c3e
000001b0: 493b 3dbe 5807 643e 9adb 353e f478 8e3e
000001c0: 3aff 88be e35c 61be aa40 babe ec68 18be
000001d0: fe7f b2bd 5b0a a23e f9c9 cabe 2db2 bd3d
000001e0: d5ab 68be 156c a53c ac25 c5be 42aa a83e
000001f0: ecf3 febd 98d0 8fbd ea0f bf3e 036e 9abe
00000200: cf84 803e 1e22 aa3d e897 433e af77 6dbe
00000210: 2dd9 c63e dd4e 86be 0753 05be a332 cf3c
00000220: 1d6e a13e e9d9 be3d 1571 19bd 7e4f a73c
00000230: 59a1 153e 31bd f5bd f030 a6be 8436 a63e

lstm.params.0.h2h.bias f4 [24]
0.30433947 0.12040307 0.1621693 0.21090513 -0.22214422 0.33717325 0.34397063 0.1061974
0.22106749 -0.34196538 -0.13195875 0.015032941 0.23026325 0.25012377 0.3132994 -0.31234318
-0.023886176 -0.18361898 0.1830561 0.065360814 0.3260736 -0.081454076 0.20510657 -0.277423
00000000: 62d2 9b3e e295 f63d b50f 263e 84f7 573e
00000010: c679 63be f9a1 ac3e eb1c b03e 067e d93d
00000020: 845f 623e 1616 afbe 3220 07be b94c 763c
00000030: 21ca 6b3e 3910 803e c768 a03e 72eb 9fbe
00000040: f1ac c3bc 9d06 3cbe 0f73 3b3e e4db 853d
00000050: 1ef3 a63e 65d1 a6bd 7507 523e 630a 8ebe

lstm.params.0.ln_i2h.alpha f4 [1, 24]
-0.20238839 -0.1602312 0.1014708 -0.1245225 -0.07678911 0.08301774 0.06428942 0.043606624
0.035377786 -0.16659653 0.12069771 0.061929226 0.10657281 -0.12357914 0.07623443 0.014091283
-0.02070257 0.064513 0.15497413 -0.038174197 0.06690267 -0.13055432 -0.17176509 -0.056430325
00000000: e73e 4fbe a613 24be eccf cf3d a705 ffbd
00000010: 9c43 9dbd 3405 aa3d 2caa 833d dc9c 323d
00000020: 4ce8 103d 4898 2abe 5c30 f73d 80a9 7d3d
00000030: d842 da3d 0f17 fdbd cc20 9c3d 20df 663c
00000040: 7098 a9bc 641f 843d 8ab1 1e3e 8c5c 1cbd
00000050: 4404 893d 08b0 05be 30e3 2fbe 7c23 67bd

lstm.params.0.ln_i2h.beta f4 [1, 24]
-0.05862759 -0.06780572 0.18230754 -0.057813197 0.025188178 -0.08564334 -0.15596001 -0.06639364
0.19848609 0.05417505 -0.018230096 0.14010265 0.042430222 0.06895974 -0.1211063 -0.13891764
-0.11281337 -0.11295139 0.10565305 -0.016140193 0.07728648 -0.1927215 0.19802016 -0.19263826
00000000: 7c23 70bd badd 8abd d4ae 3a3e 88cd 6cbd
00000010: 7057 ce3c c765 afbd fbb3 1fbe 64f9 87bd
00000020: f03f 4b3e a8e6 5d3d 4857 95bc 1277 0f3e
00000030: 50cb 2d3d c43a 8d3d 9406 f8bd 6d40 0ebe
00000040: b20a e7bd 0f53 e7bd a060 d83d 7038 84bc
00000050: 6048 9e3d c958 45be ccc5 4a3e f742 45be

lstm.params.0.ln_i2h.fc_alpha.weight f4 [24, 1024]
-0.14534038 0.027565613 -0.18989213 0.026990488 0.08135161 -0.14124098 -0.115236595 0.18442759
0.19921729 -0.08249106 -0.09323936 -0.0755457 -0.16688147 -0.1003616 -0.17540391 0.09230065
0.20010403 -0.03483814 -0.021439105 -0.11594049 0.15522897 0.022310719 0.17812419 -0.15973178
0.10239509 -0.11772535 0.14165801 -0.18488857 0.021151304 0.12895107 -0.17973617 0.105516374
-0.012982205 -0.20136075 -0.008882016 -0.06169671 0.09200883 0.16014344 -0.13382581 0.14880472
0.013229728 0.16720903 -0.035617188 0.13705623 -0.16422841 0.13649294 0.13271636 0.09895784
-0.071644336 -0.035846516 -0.02850981 -0.07122244 0.053387403 -0.069891766 0.04838106 -0.14462063
-0.019208089 -0.13032177 0.10441825 0.019774154 -0.1990771 0.08054364 0.031222135 0.18399435
-0.17129365 -0.10207546 0.12139806 -0.19372468 -0.035669744 0.045019254 -0.1339694 0.024150804
-0.062897176 0.07021117 0.07473859 0.18792984 0.16639024 0.119179845 -0.08348367 0.16177213
0.18664035 0.0027851164 -0.15225317 -0.13560936 0.07602844 -0.13894555 -0.15870853 -0.07644671
0.029319867 0.022353038 -0.10405421 0.0736658 -0.16286822 0.027895644 -0.07083511 -0.18177822
0.17964551 0.103390485 -0.18903904 -0.046702325 0.07970846 -0.07706444 0.029735625 0.18627426
0.11959404 -0.05563207 -0.1101883 0.14838076 -0.17047857 -0.08187121 0.017103016 0.04168476
0.16317436 0.028573528 0.18398961 -0.05355695 -0.12000278 -0.0860904 0.06891146 0.18087977
0.030857712 0.05211976 0.12075323 0.103974044 0.019640848 -0.069832295 0.16376257 0.088552386
-0.12446812 0.13194364 0.014175728 0.08501884 0.1400069 0.11602765 -0.106805354 0.1858266
0.0143805295 -0.04333265 -0.024678424 -0.03316644 0.06718001 -0.055297896 -0.09902701 0.023810863
-0.050171748 0.05944714 0.07759085 0.14851522 -0.017874211 0.13660088 0.06316963 -0.19349657
0.18453854 -0.0006739944 0.19530529 -0.002798453 -0.0021903068 -0.048364624 0.1525192 0.17384252
-0.12938786 0.17011592 0.16159087 -0.10261508 0.17288846 -0.1421061 0.04184811 0.12975311
-0.10399255 0.1639649 0.06357092 0.099158406 -0.10613631 -0.13685486 0.07793027 -0.19601378
0.11351141 -0.20216961 -0.034710824 0.07573986 -0.007062435 0.18765754 -0.05719997 0.17183375
-0.030042037 0.014498875 -0.0053524375 0.016935095 0.02727668 0.07509756 -0.19124979 -0.036337957
-0.098573506 0.037476942 -0.012169376 0.049131483 0.04431276 0.07935226 -0.1788975 0.1192911
-0.12140947 0.14103106 -0.06758137 0.08593291 -0.1164401 0.021696672 0.14231348 0.066982895
-0.13403344 -0.16000086 -0.18631515 0.037212685 0.029730886 0.16536629 -0.18726271 -0.117745645
0.09534845 -0.05415833 -0.18149799 -0.043951258 0.1779539 0.1931009 -0.09910845 -0.024455339
-0.106743746 -0.1204471 0.108900666 -0.080797814 -0.11283593 0.081239134 0.19888711 0.006706074
-0.17794107 0.12719536 -0.16191085 -0.12916335 -0.099629164 0.13127181 -0.08924422 0.18630704
-0.11409494 0.14696258 -0.068583325 -0.1786291 -0.043730766 -0.14875107 -0.09323977 -0.19296472
0.068831444 -0.050664067 -0.08454064 0.039173514 0.18215165 0.09626511 -0.17776528 0.10310942
00000000: 1cd4 14be 48d1 e13c 1573 42be 281b dd3c
00000010: ac9b a63d 7aa1 10be 2a01 ecbd 96da 3c3e
00000020: 9eff 4b3e 13f1 a8bd 47f4 bebd b4b7 9abd
00000030: fae2 2abe 628a cdbd 159d 33be 2008 bd3d
00000040: 12e8 4c3e 70b2 0ebd 10a1 afbc 3572 edbd
00000050: 58f4 1e3e f8c4 b63c 3066 363e ba90 23be
00000060: 84b4 d13d fd19 f1bd cc0e 113e 6e53 3dbe
00000070: 8045 ad3c c00b 043e c20c 38be f818 d83d
00000080: 50b3 54bc 8331 4ebe e085 11bc b0b5 7cbd
00000090: 206f bc3d a4fc 233e a209 09be 4460 183e
000000a0: 80c1 583c d838 2b3e 54e3 11bd 7858 0c3e
000000b0: 7e2b 28be cec4 0b3e cce6 073e 68aa ca3d
000000c0: 44ba 92bd ccd3 12bd 688d e9bc 12dd 91bd
000000d0: c0ac 5a3d 6a23 8fbd 382b 463d 6e17 14be
000000e0: 485a 9dbc 1273 05be 3cd9 d53d 68fd a13c
000000f0: deda 4bbe 10f4 a43d 90c5 ff3c 0469 3c3e
00000100: 9a67 2fbe f00c d1bd 8c9f f83d c35f 46be
00000110: 701a 12bd 1c66 383d 462f 09be e8d7 c53c
00000120: 3cd0 80bd e0ca 8f3d 8c10 993d ae70 403e
00000130: 3462 2a3e 9014 f43d 7df9 aabd 98a7 253e
00000140: a61e 3f3e 8086 363b 41e8 1bbe 2edd 0abe
00000150: ccb4 9b3d be47 0ebe 7d84 22be 1890 9cbd
00000160: 3830 f03c b81d b73c 601a d5bd 18de 963d
00000170: edc6 26be 6885 e43c 0012 91bd 1224 3abe
00000180: fef4 373e 64be d33d 7393 41be f04a 3fbd
00000190: 303e a33d f6d3 9dbd 2098 f33c aebe 3e3e
000001a0: b8ed f43d 74de 63bd 67aa e1bd 20f1 173e
000001b0: ef91 2ebe 18ac a7bd a01b 8c3c a4bd 2a3d
000001c0: 2e17 273e 0813 ea3c c667 3c3e 885e 5bbd
000001d0: 04c4 f5bd 2a50 b0bd 7421 8d3d 8c38 393e
000001e0: 50c9 fc3c 887b 553d 784d f73d 58f0 d43d
000001f0: d8e5 a03c 3c04 8fbd 60b1 273e f45a b53d
00000200: 24e9 febd 3c1c 073e 5041 683c 5c1e ae3d
00000210: f85d 0f3e e89f ed3d c4bc dabd 5449 3e3e
00000220: 509c 6b3c 947d 31bd 682a cabc 88d9 07bd
00000230: ac95 893d 0c80 62bd acce cabd 000f c33c
00000240: e480 4dbd d87e 733d f4e7 9e3d 6014 183e
00000250: f06c 92bc 1ae1 0b3e 145f 813d f723 46be
00000260: acf7 3c3e 00af 30ba 1cfe 473e 4066 37bb
00000270: 408b 0fbb fc19 46bd fe2d 1c3e c603 323e
00000280: 407e 04be de32 2e3e 1478 253e db27 d2bd
00000290: ac09 313e 4384 11be ec68 2b3d 00de 043e
000002a0: 0cfa d4bd 6ae6 273e 7831 823d 9013 cb3d
000002b0: fe5d d9bd ae23 0cbe e899 9f3d d6b7 48be
000002c0: ac78 e83d 8d05 4fbe f02c 0ebd 801d 9b3d
000002d0: 006c e7bb 4c29 403e 844a 6abd 30f5 2f3e
000002e0: b81a f6bc b08c 6d3c 8063 afbb 78bb 8a3c
000002f0: 5873 df3c c0cc 993d fcd6 43be 1cd7 14bd
00000300: e8e0 c9bd 6c81 193d 1062 47bc 183e 493d
00000310: 4c81 353d 7083 a23d e830 37be e44e f43d
00000320: 87a5 f8bd 726a 103e 1a68 8abd 98fd af3d
00000330: 2678 eebd 38bd b13c a0ba 113e 542e 893d
00000340: 1040 09be 44d7 23be 66c9 3ebe 546c 183d
00000350: 308e f33c c855 293e ccc1 3fbe a124 f1bd
00000360: 0c46 c33d 20d5 5dbd 9cda 39be 3c06 34bd
00000370: 8c39 363e 3ebc 453e 5ff9 cabd 9056 c8bc
00000380: 779c dabd f8ac f6bd 5007 df3d 5379 a5bd
00000390: 8616 e7bd b460 a63d 10a9 4b3e a0be db3b
000003a0: 2f36 36be 803f 023e f5cb 25be 6643 04be
000003b0: 600a ccbd 1e6c 063e acc5 b6bd 46c7 3e3e
000003c0: 9caa e9bd 5c7d 163e 6a75 8cbd 8cea 36be
000003d0: 081f 33bd 3352 18be 7ef4 bebd 8b98 45be
000003e0: 80f7 8c3d 2085 4fbd a523 adbd 6874 203d
000003f0: f685 3a3e a426 c53d 1a08 36be 082b d33d

lstm.params.0.ln_i2h.fc_alpha.bias f4 [24]
-0.19002673 0.20251611 -0.011600658 -0.077626646 -0.038369298 -0.1533589 -0.17443512 0.1336497
0.114332765 -0.079712756 -0.01443246 0.007544607 0.18927756 -0.07230897 0.19800332 -0.12462918
-0.09752259 0.12974867 0.19027185 -0.09794967 -0.07636973 0.028001726 0.08212423 -0.0076097697
00000000: 5e96 42be 6260 4f3e b010 3ebc b8fa 9ebd
00000010: 2029 1dbd 1e0a 1dbe 1f9f 32be 78db 083e
00000020: 4c27 ea3d 7140 a3bd 2076 6cbc c038 f73b
00000030: fad1 413e ba16 94bd 62c1 4a3e 953d ffbd
00000040: ecb9 c7bd d6dc 043e a0d6 423e d699 c8bd
00000050: bc67 9cbd e063 e53c c030 a83d 605b f9bb

lstm.params.0.ln_i2h.fc_beta.weight f4 [24, 1024]
0.08314228 -0.100652486 0.037476867 -0.0886779 -0.018931657 -0.10119817 -0.07942273 0.071903795
0.15038088 0.049995124 -0.15722361 -0.09288587 0.037571892 -0.15574914 0.0012930781 -0.10857622
-0.17466474 -0.10622544 0.005702585 -0.19979744 0.12343755 -0.14772305 -0.1652036 0.15978652
-0.19843744 0.051573247 0.016377807 -0.18351962 -0.18791084 0.06938413 0.14605895 -0.07089481
-0.15964724 -0.17080808 -0.047170848 0.0017979294 -0.17952746 0.14301243 0.09277195 0.08690745
0.118281215 0.07194087 0.0824531 -0.04643318 -0.106822096 0.06303206 -0.16367865 0.09586477
0.038566977 -0.07687941 0.10874912 -0.04854904 -0.076132014 0.04691556 0.17663717 -0.14302087
-0.04379411 -0.03936717 0.1547654 -0.14931673 -0.023478776 -0.13208686 -0.111453466 -0.024995416
0.12677523 0.113659054 -0.11119225 -0.108365424 0.039214894 -0.14949937 -0.05433625 0.06138152
0.10017359 0.14544982 0.07630569 -0.102547795 0.08076337 0.12657282 -0.20275939 0.1598258
-0.07114829 -0.14476621 -0.03166555 -0.12023657 0.016991988 -0.18174843 0.16782987 -0.07501474
-0.0010579526 0.15827632 0.14402443 0.12128684 -0.14319405 0.033824682 -0.10727159 -0.053683832
0.029368192 0.035540923 0.08226147 0.09698522 0.07562801 -0.0069048256 -0.11925783 -0.03884816
-0.01693803 0.16002178 0.023322001 -0.09610132 0.05656424 -0.1659303 0.14148751 0.18416047
0.086826354 0.052996248 -0.18165618 0.14043885 0.05578029 -0.2028681 -0.13915628 0.17441428
-0.099121906 -0.18194592 0.17983907 0.20202333 0.1470609 -0.10481882 0.046500325 -0.0217475
0.19441244 -0.110605955 -0.028652161 0.15435964 0.18392465 -0.11895855 -0.023235783 -0.027987167
0.20047998 0.045517117 -0.10541786 0.10293323 -0.09003466 0.1826927 -0.092740156 -0.08741054
0.1363504 -0.14156267 0.053728223 -0.010283381 0.10418093 -0.012954891 -0.028118089 -0.1378999
0.16498604 -0.0070279986 0.15286306 -0.09468411 0.1396074 -0.047196463 0.0027975738 -0.15653913
-0.026822984 -0.17810914 0.13330895 0.14279896 -0.20345934 -0.13994755 0.08551049 -0.18990368
0.197709 -0.119698845 0.17612869 -0.055674285 0.026961803 -0.04842034 -0.059719414 0.1645141
0.0862588 -0.15668294 0.097325474 0.08488789 -0.19372742 -0.10084435 0.14261606 -0.14065145
-0.022931382 -0.16757998 0.048255146 -0.17218466 0.18495175 0.12524524 -0.08907398 -0.049902722
0.032031447 0.083860904 -0.104280315 -0.046765402 -0.060012743 0.079782784 -0.17758492 0.06320757
-0.07845783 -0.07314941 -0.16485071 -0.004963234 0.20035058 0.1640448 -0.1922852 -0.06360702
-0.18060282 0.04179755 0.19196635 0.13467482 -0.01579079 0.1560278 -0.030944422 0.1865007
0.11321679 -0.08336291 0.1912755 0.012000069 0.03396496 -0.032209665 -0.08568731 0.07572439
0.16780233 -0.022040203 -0.11535505 0.12067163 -0.13053219 0.09294528 0.12508026 -0.123458564
0.14932567 0.06983024 0.10062027 -0.029193744 0.08318788 0.08412662 -0.14824793 0.030434906
0.18998632 -0.040696114 0.12886965 0.19182509 0.106170714 -0.08136743 -0.06905836 0.07273573
0.14483821 0.13093334 -0.08009292 0.06410101 0.08994216 -0.15112585 0.04684496 -0.038198575
00000000: 8046 aa3d e422 cebd 5881 193d c29c b5bd
00000010: 9016 9bbc fc40 cfbd 62a8 a2bd 4c42 933d
00000020: 72fd 193e b0c7 4c3d 3aff 20be f23a bebd
00000030: fce4 193d b47c 1fbe 807c a93a 365d debd
00000040: 50db 32be b98c d9bd c0dc ba3b b397 4cbe
00000050: d4cc fc3d b644 17be 222b 29be 149f 233e
00000060: 2f33 4bbe 783e 533d c02a 863c 91ec 3bbe
00000070: b36b 40be 4419 8e3d 7a90 153e 4c31 91bd
00000080: 917a 23be 50e8 2ebe 3836 41bd 80a8 eb3a
00000090: 0cd6 37be da71 123e 38ff bd3d 88fc b13d
000000a0: 6c3d f23d bc55 933d 2cdd a83d b830 3ebd
000000b0: 8bc5 dabd f416 813d 609b 27be c054 c43d
000000c0: 68f8 1d3d f472 9dbd dcb7 de3d 5cdb 46bd
000000d0: 1aeb 9bbd 882a 403d 60e0 343e 1074 12be
000000e0: 7461 33bd 783f 21bd d27a 1e3e 7ce6 18be
000000f0: 9056 c0bc c741 07be b741 e4bd 30c3 ccbc
00000100: 5ed1 013e 14c6 e83d c3b8 e3bd b1ee ddbd
00000110: cc9f 203d 5d16 19be b08f 5ebd 306b 7b3d
00000120: d027 cd3d ccf0 143e 2846 9c3d 9404 d2bd
00000130: 4467 a53d 4e9c 013e 28a0 4fbe 60a9 233e
00000140: 32b6 91bd 983d 14be bcb3 01bd 973e f6bd
00000150: c832 8b3c 431c 3abe 98db 2b3e 54a1 99bd
00000160: 00ab 8aba 3013 223e 247b 133e 3c65 f83d
00000170: 76a1 12be c08b 0a3d 35b1 dbbd 94e3 5bbd
00000180: 9095 f03c 5c93 113d b478 a83d 30a0 c63d
00000190: dce2 9a3d e041 e2bb 733d f4bd 401f 1fbd
000001a0: a0c1 8abc c0dc 233e c80d bf3c c5d0 c4bd
000001b0: e8af 673d a2e9 29be 1ae2 103e 9094 3c3e
000001c0: 04d2 b13d 9812 593d 1404 3abe 34cf 0f3e
000001d0: e079 643d a8bc 4fbe fc7e 0ebe a899 323e
000001e0: 6d00 cbbd 0850 3abe bc27 383e 34df 4e3e
000001f0: 2297 163e 40ab d6bd 2077 3e3d d027 b2bc
00000200: 0e14 473e 6085 e2bd f0b7 eabc 7410 1e3e
00000210: be56 3c3e 8aa0 f3bd f858 bebc 5845 e5bc
00000220: a04a 4d3e 2870 3a3d 52e5 d7bd a8ce d23d
00000230: 1864 b8bd cc13 3b3e 8dee bdbd 4c04 b3bd
00000240: 709f 0b3e cef5 10be 2012 5c3d a07b 28bc
00000250: d05c d53d c040 54bc e857 e6bc a235 0dbe
00000260: 1af2 283e 204b e6bb 2288 1c3e bee9 c1bd
00000270: 3ef5 0e3e 1451 41bd 8057 373b cb4b 20be
00000280: e0bb dbbc 3e62 36be 2482 083e e439 123e
00000290: a557 50be 694e 0fbe 2020 af3d 1c76 42be
000002a0: 3a74 4a3e ab24 f5bd 145b 343e b80a 64bd
000002b0: 00df dc3c 6854 46bd 589c 74bd 6276 283e
000002c0: 74a8 b03d 7e71 20be 9452 c73d b4d9 ad3d
000002d0: 7b60 46be 7c87 cebd f209 123e ef06 10be
000002e0: 98da bbbc 169a 2bbe 30a7 453d 2d51 30be
000002f0: fe63 3d3e 4a40 003e 6b6c b6bd cc66 4cbd
00000300: 6833 033d 44bf ab3d eb90 d5bd 148d 3fbd
00000310: eccf 75bd 2865 a33d d2d8 35be f872 813d
00000320: 80ae a0bd 5ccf 95bd a0ce 28be a0a2 a2bb
00000330: b428 4d3e 5cfb 273e 69e6 44be 6644 82bd
00000340: f2ef 38be e833 2b3d d492 443e 32e8 093e
00000350: b05b 81bc c0c5 1f3e 287f fdbc 0afa 3e3e
00000360: 34de e73d 2cba aabd badd 433e f09b 443c
00000370: d81e 0b3d 48ee 03bd d47c afbd 6415 9b3d
00000380: 60d4 2b3e a88d b4bc 453f ecbd b022 f73d
00000390: 3baa 05be 185a be3d 0a15 003e d8d7 fcbd
000003a0: d4e8 183e 2803 8f3d 0012 ce3d b827 efbc
000003b0: 685e aa3d 944a ac3d 4ece 17be a052 f93c
000003c0: c68b 423e f8b0 26bd 68f6 033e cc6d 443e
000003d0: 0870 d93d f8a3 a6bd 786e 8dbd 78f6 943d
000003e0: 7850 143e 6413 063e c207 a4bd 6447 833d
000003f0: 9833 b83d bcc0 1abe 80e0 3f3d 1c76 1cbd

lstm.params.0.ln_i2h.fc_beta.bias f4 [24]
-0.16033632 -0.07331069 0.0053353608 -0.049069464 0.0801267 -0.1792188 0.044108793 -0.110571526
0.03329812 0.059453458 -0.036209702 0.13677102 0.07766995 -0.20359807 0.13542786 0.1214872
-0.008670315 -0.17617297 -0.1676091 0.039329663 0.12084538 -0.13874593 0.060927123 0.16506088
00000000: 342f 24be ea23 96bd 40d4 ae3b 10fd 48bd
00000010: 7819 a43d 2285 37be 6cab 343d 5373 e2bd
00000020: 9c63 083d 7885 733d a050 14bd b40d 0c3e
00000030: 6c11 9f3d 037c 50be 9aad 0a3e 48ce f83d
00000040: f00d 0ebc b066 34be b8a1 2bbe 2418 213d
00000050: c87d f73d 6a13 0ebe b88e 793d b805 293e

lstm.params.0.ln_h2h.alpha f4 [1, 24]
0.08161709 -0.10635648 -0.04057817 -0.19222234 0.13315642 0.18461525 0.1296049 0.119998544
0.051929444 0.037982836 0.07399467 0.06970149 0.150953 0.13969839 0.12903562 0.06277034
0.0035843998 -0.086464845 0.1456359 0.033142537 -0.08764738 -0.121362306 -0.03829965 0.15052947
00000000: dc26 a73d 6dd1 d9bd 4c35 26bd efd5 44be
00000010: 285a 083e c80b 3d3e 26b7 043e ccc1 f53d
00000020: f8b3 543d e493 1b3d 848a 973d a8bf 8e3d
00000030: 6c93 1a3e 180d 0f3e ea21 043e bc8d 803d
00000040: 40e8 6a3b 7b14 b1bd 9421 153e 78c0 073d
00000050: 7880 b3bd cd8c f8bd 18e0 1cbd 6624 1a3e

lstm.params.0.ln_h2h.beta f4 [1, 24]
0.18074879 -0.16651922 -0.13946006 0.0077240616 -0.025254056 -0.08944737 0.18024772 -0.17508945
-0.12989184 0.11783221 0.041290954 -0.056280106 -0.09195688 0.08057299 -0.0045276433 0.093362
0.038477823 0.046863675 -0.09268499 0.011437401 0.14081874 -0.19199777 0.064017504 0.16991025
00000000: 3616 393e 0484 2abe 9ece 0ebe 201a fd3b
00000010: 98e1 cebc 2f30 b7bd dc92 383e a64a 33be
00000020: 5e02 05be 0452 f13d b420 293d f885 66bd
00000030: e453 bcbd 7403 a53d a05c 94bb 9434 bf3d
00000040: ec9a 1d3d 20f4 3f3d a1d1 bdbd f063 3b3c
00000050: ca32 103e 109b 44be 9c1b 833d f4fc 2d3e

lstm.params.0.ln_h2h.fc_alpha.weight f4 [24, 1024]
0.039891973 0.03479892 0.04427187 0.024786055 0.08120307 -0.08121968 0.14922848 -0.1568372
-0.0007317364 0.15988675 -0.059157908 0.01808913 -0.097088285 0.19622555 0.20084018 -0.14843468
0.02257131 0.08803472 -0.06069526 -0.0795462 -0.07010271 -0.18919614 -0.04084587 -0.027781874
-0.058344707 -0.1998178 -0.090004146 -0.0269157 0.019603252 -0.1882329 -0.12880743 -0.17667419
-0.10940634 -0.03098856 0.0025629997 0.01282616 0.1455226 0.023988664 0.0023187846 0.04809773
-0.013664767 -0.038673148 0.10630298 0.17037424 0.0747197 0.043072984 0.07533729 0.13440302
-0.05444956 0.027957559 -0.12307495 -0.13746016 -0.04458767 0.075855315 -0.14822344 -0.046828523
0.09937343 0.035630703 -0.18258093 -0.054381564 -0.19229063 -0.10951876 -0.10637054 0.056209207
-0.07825543 0.18239376 -0.0284715 0.031215519 -0.04191892 0.060860127 0.17545044 -0.046083063
-0.056796417 0.17293966 0.036653087 0.11922115 0.04287912 0.10103884 0.021999642 -0.091049835
-0.16121843 0.19107613 0.081507444 0.15308085 0.1093041 0.023908705 -0.18086332 0.08283317
0.08399907 0.015715644 -0.0031267256 0.08148587 0.011266574 -0.11008566 -0.187587 0.105713606
-0.106957465 -0.09126314 0.16700333 -0.17266487 0.022357732 0.05566284 0.12403628 -0.08561692
-0.030066952 0.1968751 -0.0938522 -0.043496728 -0.19928747 0.14046445 -0.035194486 0.028687239
-0.17113192 0.08195093 -0.058150336 0.15925327 0.12966815 0.06264523 0.039795414 0.020128444
-0.14302671 -0.12630829 0.19020286 0.035185546 -0.20071842 -0.17118312 0.018030494 -0.114294864
0.080599725 0.115668565 -0.15176275 0.17680779 0.06152588 0.15377823 -0.15748921 -0.09483101
-0.12854144 0.024825811 0.17642024 -0.15946107 -0.119893245 0.13631654 -0.13163224 -0.08632794
-0.07074012 -0.038406894 0.040491134 -0.02059421 -0.11600841 0.08999312 0.13197827 0.02868934
0.04153104 0.17421708 -0.109642275 0.13317406 -0.19338174 0.107043654 -0.044334292 0.19970152
0.12905023 -0.104874685 -0.20025332 0.065493464 -0.116982624 -0.06967354 -0.039240316 -0.03216289
-0.083494455 0.034224033 0.12510365 -0.09148277 -0.17566657 0.018821523 -0.17834717 -0.19781771
0.16455445 -0.054043427 -0.009034425 -0.13862133 0.17666435 -0.031888828 -0.16490132 -0.13619155
-0.035296217 -0.14576209 -0.019582435 -0.0622527 -0.10044351 -0.12368406 -0.1311529 0.1198377
-0.13020128 0.06520605 -0.15594612 0.0010617971 0.02815497 -0.01409851 0.09431493 0.18410072
0.14725998 0.18165419 -0.14233598 -0.0022212863 0.06332612 0.056434393 -0.19571508 0.032378048
0.1961062 0.058558077 -0.006034687 0.19104964 0.11905873 0.061697394 0.0093872845 -0.015577823
-0.0077681094 -0.15143235 0.12085289 -0.00646843 0.082440406 -0.19071098 -0.110521205 0.025335625
-0.071180075 0.0904209 -0.006797433 -0.049616918 0.17915156 0.19390762 0.06085342 0.17759186
0.17576757 -0.11372896 -0.009349883 -0.16098633 -0.17383298 0.20181441 -0.026762933 -0.14686322
-0.18882513 0.17513263 0.06860149 0.17319131 0.15959567 0.07575971 0.1764082 0.14050639
-0.0021572858 0.004968345 -0.0070827007 -0.09148754 -0.08860553 -0.042732045 -0.10061762 -0.083979905
00000000: c465 233d 5089 0e3d 6c56 353d 200c cb3c
00000010: cc4d a63d 8156 a6bd 5acf 183e ee99 20be
00000020: 00d2 3fba 5ab9 233e 904f 72bd a82f 943c
00000030: 39d6 c6bd 5aef 483e 0ca9 4d3e 43ff 17be
00000040: 78e7 b83c 8c4b b43d 989b 78bd 1ee9 a2bd
00000050: 0292 8fbd a2bc 41be 004e 27bd d096 e3bc
00000060: dcfa 6ebd 0a9d 4cbe 1854 b8bd 507e dcbc
00000070: 0097 a03c 20c0 40be 18e6 03be 14ea 34be
00000080: 6e10 e0bd b8db fdbc 00f8 273b d024 523c
00000090: e003 153e e083 c43c c0f6 173b 2002 453d
000000a0: 30e2 5fbc bc67 1ebd 60b5 d93d 9676 2e3e
000000b0: a406 993d 4c6d 303d 704a 9a3d f2a0 093e
000000c0: 8006 5fbd 4007 e53c b80e fcbd 5bc2 0cbe
000000d0: 90a1 36bd 085a 9b3d e3c7 17be 44cf 3fbd
000000e0: 4c84 cb3d 80f1 113d 7ff6 3abe 34bf 5ebd
000000f0: d6e7 44be 5f4b e0bd ccd8 d9bd a03b 663d
00000100: 6244 a0bd 6ec5 3a3e 103d e9bc b0b7 ff3c
00000110: 2cb3 2bbd 7848 793d 48a9 333e 98c1 3cbd
00000120: 5ca3 68bd 1817 313e 8c21 163d 382a f43d
00000130: 04a2 2f3d 74ed ce3d 9838 b43c 5678 babd
00000140: 7216 25be 76a9 433e 60ed a63d 3ac1 1c3e
00000150: d4da df3d 30dc c33c 3c34 39be 70a4 a93d
00000160: b407 ac3d 18be 803c c0e9 4cbb 10e2 a63d
00000170: 7097 383c 9774 e1bd ce16 40be 6080 d83d
00000180: 840c dbbd 2be8 babd ec02 2b3e 0fcf 30be
00000190: 9027 b73c b8fe 633d bc06 fe3d ec57 afbd
000001a0: f84e f6bc a099 493e 9535 c0bd a029 32bd
000001b0: 0412 4cbe ead5 0f3e 1828 10bd 8001 eb3c
000001c0: 353d 2fbe e4d5 a73d 0c2f 6ebd 4a13 233e
000001d0: bac7 043e 244c 803d 8400 233d 68e4 a43c
000001e0: 9875 12be f656 01be 8ac4 423e b81e 103d
000001f0: 2189 4dbe a14a 2fbe b0b4 933c 6d13 eabd
00000200: 7811 a53d a4e3 ec3d b267 1bbe 1a0d 353e
00000210: 9002 7c3d 0a78 1d3e da44 21be c336 c2bd
00000220: 5ea0 03be 805f cb3c 82a7 343e c349 23be
00000230: 978a f5bd 9096 0b3e 9aca 06be b4cc b0bd
00000240: 32e0 90bd 8c50 1dbd 08da 253d 30b5 a8bc
00000250: d195 edbd 504e b83d 5025 073e e805 eb3c
00000260: 741c 2a3d f665 323e 218c e0bd c85e 083e
00000270: dd05 46be b439 db3d e097 35bd 8e7e 4c3e
00000280: be25 043e 8ac8 d6bd 350f 4dbe 7021 863d
00000290: 9694 efbd 00b1 8ebd 74ba 20bd 3cbd 03bd
000002a0: 24ff aabd 802e 0c3d 2c1b 003e 525b bbbd
000002b0: f0e1 33be 982f 9a3c a4a0 36be ba90 4abe
000002c0: f680 283e a45c 5dbd 2005 14bc c0f2 0dbe
000002d0: 80e7 343e dc9d 02bd e4db 28be cc75 0bbe
000002e0: c492 10bd a842 15be 586b a0bc b0fc 7ebd
000002f0: 54b5 cdbd 124e fdbd f24c 06be 786d f53d
00000300: 7c53 05be c08a 853d 57b0 1fbe 002c 8b3a
00000310: 40a5 e63c 70fd 66bc 3028 c13d e684 3c3e
00000320: 52cb 163e 8e03 3a3e 86c0 11be 0093 11bb
00000330: 20b1 813d c027 673d 8969 48be d89e 043d
00000340: 10d0 483e 98da 6f3d a0be c5bb 84a2 433e
00000350: 10d5 f33d 68b6 7c3d 20cd 193c 203a 7fbc
00000360: a08b febb 1511 1bbe b881 f73d 20f5 d3bb
00000370: 84d6 a83d bd49 43be f158 e2bd a88c cf3c
00000380: dcc6 91bd 982e b93d 00bd debb 1c3b 4bbd
00000390: 8273 373e b88f 463e 7041 793d a4da 353e
000003a0: 6afc 333e bbea e8bd 4030 19bc 9ad9 24be
000003b0: 4601 32be 70a8 4e3e f03d dbbc 5063 16be
000003c0: 605b 41be f855 333e f07e 8c3d 1059 313e
000003d0: 0c6d 233e e827 9b3d 5aa4 343e e8e0 0f3e
000003e0: 4061 0dbb 80cd a23b 0016 e8bb d25d bbbd
000003f0: d176 b5bd cc07 2fbd 9c10 cebd a8fd abbd

lstm.params.0.ln_h2h.fc_alpha.bias f4 [24]
-0.009913862 -0.09839548 0.04521461 0.051974446 -0.016409293 -0.15510793 0.057789147 -0.033485785
0.13515836 -0.19626234 0.095086336 0.13552141 -0.025430113 0.12454495 0.09153542 -0.17914721
0.09797281 -0.19047222 -0.19750772 -0.032475844 0.13208824 -0.05525984 0.11396146 0.123340815
00000000: c06d 22bc 9283 c9bd f432 393d 28e3 543d
00000010: c86c 86bc 9dd4 1ebe 50b4 6c3d 6428 09bd
00000020: f466 0a3e fff8 48be a0bc c23d 20c6 0a3e
00000030: d052 d0bc 6c11 ff3d ec76 bb3d 5e72 37be
00000040: f8a5 c83d 260b 43be 773f 4abe 6405 05bd
00000050: 2442 073e 2458 62bd a064 e93d 1c9a fc3d

lstm.params.0.ln_h2h.fc_beta.weight f4 [24, 1024]
-0.05755429 0.09001055 0.0021578223 -0.18306734 -0.0020964295 0.038300633 0.07222018 0.17582878
0.19030762 0.019910902 0.032195717 0.19887704 0.13343382 -0.18737826 0.09839687 0.094937295
-0.035165623 0.15979037 0.14548236 -0.015144795 0.12406731 0.051014215 -0.11203304 -0.055882335
0.17684904 0.06786856 0.049373865 -0.17323466 -0.05204521 0.016315773 0.14952382 -0.18765323
-0.06498177 0.16336024 0.18136656 0.19369036 -0.012922227 0.15054655 0.010830134 -0.18590379
0.17305303 0.024026304 0.102558315 0.08287087 0.018103093 -0.08782433 -0.20188594 -0.06368329
-0.041053772 0.02633205 0.12169075 -0.17105007 -0.106243104 0.06623122 0.19796196 0.19618684
-0.005910948 0.19486234 0.06761092 -0.15383501 0.17105892 0.18610245 0.13897997 0.08086905
-0.16978976 -0.183289 0.038942844 0.06440899 0.14474502 0.08958548 -0.023651227 -0.076799184
-0.17766064 -0.11063684 0.06888059 -0.1193938 0.016556844 -0.09244115 -0.15822378 -0.17765613
0.135964 -0.1702218 0.14055967 0.0026902407 0.029504687 -0.070430204 0.040905938 0.053961635
0.07898101 0.17550278 0.15836361 0.09984648 -0.18099602 -0.14132568 0.1617485 0.034747675
0.05811292 0.026672035 0.1564706 0.10328594 -0.016940564 -0.19243987 0.12970883 -0.11364535
-0.14700082 -0.1737659 0.1650266 0.10025972 0.12736768 0.046221852 0.1649119 -0.17831683
0.09173721 0.15975997 0.048129886 -0.17361194 0.0581069 0.14546433 0.031003654 0.1250161
-0.15094303 -0.08163367 0.13179249 0.07288763 0.08980185 -0.04168783 -0.10430239 -0.108937554
0.16141918 0.18545914 0.06054759 -0.04903263 -0.10211807 0.1219399 0.08212012 0.16442344
0.066205055 -0.18543941 -0.13471748 -0.083210796 0.07708967 0.095305264 -0.1184272 0.06281841
-0.15572676 0.0903514 -0.0869126 -0.07954065 -0.050089285 -0.004782945 -0.12311403 -0.019513637
-0.18460253 -0.05930829 -0.109439045 0.08185658 -0.00674814 0.18499607 -0.14009127 0.12242466
-0.0016548187 0.10535514 0.033400357 0.04068704 0.03448546 -0.13490894 0.1926701 0.18713188
0.1164203 0.049687415 -0.114333995 -0.1531556 -0.18070439 0.10007793 0.013096064 0.12168661
0.110767275 -0.16246618 0.0530335 0.03221278 0.17914194 0.2020908 -0.1969686 -0.105419
-0.057040483 0.17439768 -0.16021425 -0.1790677 -0.029383749 -0.07219091 0.19489425 0.1662952
-0.15637037 0.09408867 0.057351023 0.116814315 0.06640813 -0.0835913 -0.07292527 0.16755012
-0.053798676 -0.014315888 -0.06988604 0.0064765513 -0.16332853 0.15517387 -0.0644971 -0.15709676
0.05349207 -0.044087917 0.11097452 0.06313309 0.026541755 -0.090682276 0.054601192 -0.111016996
0.017668232 -0.10879323 0.16420582 -0.18538417 0.08261198 -0.18582447 -0.11851697 -0.04970941
-0.039376706 0.118070036 0.04077579 0.19990301 0.06724268 -0.14205351 0.12392461 -0.09757695
-0.16002043 -0.072082534 0.17307132 0.09730029 -0.099590234 -0.08743212 0.008657277 -0.13014339
0.0042333454 -0.09400107 0.08142227 0.10460392 -0.05372016 -0.14940326 0.16316536 0.18524623
-0.047421426 0.20324078 -0.13354775 -0.1242305 0.1684067 0.1834881 -0.09531382 0.09728068
00000000: 0cbe 6bbd 7457 b83d 406a 0d3b 0176 3bbe
00000010: 4064 09bb 20e1 1c3d 2ce8 933d 760c 343e
00000020: 00e0 423e 301c a33c a8df 033d 6ca6 4b3e
00000030: e0a2 083e 16e0 3fbe 4c84 c93d 7c6e c23d
00000040: d409 10bd 16a0 233e 54f9 143e e021 78bc
00000050: 0017 fe3d 48f4 503d 9471 e5bd e0e4 64bd
00000060: ea17 353e acfe 8a3d 403c 4a3d 6d64 31be
00000070: 5c2d 55bd a8a8 853c c61c 193e 2b28 40be
00000080: 2a15 85bd e847 273e 28b8 393e c456 463e
00000090: c0b7 53bc e028 1a3e e070 313c 905d 3ebe
000000a0: d034 313e d0d2 c43c 180a d23d 34b8 a93d
000000b0: f04c 943c 3edd b3bd 30bb 4ebe 626c 82bd
000000c0: 0028 28bd 50b6 d73c 0039 f93d c027 2fbe
000000d0: fc95 d9bd 3ca4 873d 8ab6 4a3e 34e5 483e
000000e0: a0b0 c1bb fe89 473e 9877 8a3d ed86 1dbe
000000f0: 122a 2f3e a491 3e3e c450 0e3e ac9e a53d
00000100: 5edd 2dbe 1db0 3bbe 8882 1f3d dce8 833d
00000110: 0a38 143e 9878 b73d 38c0 c1bc e448 9dbd
00000120: acec 35be 9195 e2bd 4411 8d3d bd84 f4bd
00000130: 38a2 873c c951 bdbd 6a05 22be 7deb 35be
00000140: 263a 0b3e a04e 2ebe e0ee 0f3e c04e 303b
00000150: d0b3 f13c b63d 90bd fc8c 273d e006 5d3d
00000160: ccc0 a13d 00b7 333e 122a 223e 507c cc3d
00000170: 0557 39be aeb7 10be 66a1 253e 9453 0e3d
00000180: d007 6e3d 507f da3c d439 203e 9487 d33d
00000190: f0c6 8abc f50e 45be 64d2 043e e5be e8bd
000001a0: 6287 16be b0ef 31be bcfc 283e f854 cd3d
000001b0: ac6c 023e 2053 3d3d aade 283e b098 36be
000001c0: b8e0 bb3d 1e98 233e d823 453d 54c7 31be
000001d0: 8001 6e3d 9af4 143e 60fb fd3c 3804 003e
000001e0: cf90 1abe 8e2f a7bd 9cf4 063e 1c46 953d
000001f0: 08ea b73d dcc0 2abd 7e9c d5bd a71a dfbd
00000200: 124b 253e 00e9 3d3e c000 783d 70d6 48bd
00000210: 4723 d1bd a0bb f93d 982e a83d 9e5e 283e
00000220: 8496 873d d4e3 3dbe 61f3 09be 6c6a aabd
00000230: 30e1 9d3d 682f c33d f689 f2bd f0a6 803d
00000240: d676 1fbe 280a b93d 3cff b1bd 35e6 a2bd
00000250: 6c2a 4dbd 40ba 9cbb 3523 fcbd 10db 9fbc
00000260: 7208 3dbe 40ed 72bd 9421 e0bd 6ca4 a73d
00000270: 801f ddbb 9c6f 3d3e 1674 0fbe c8b9 fa3d
00000280: 80e6 d8ba 70c4 d73d d0ce 083d 74a7 263d
00000290: a040 0d3d 9225 0abe 504b 453e 809f 3f3e
000002a0: c46d ee3d 0885 4b3d f127 eabd d2d4 1cbe
000002b0: 920a 39be a8f5 cc3d e090 563c d436 f93d
000002c0: f4d9 e23d 895d 26be a839 593d 8cf1 033d
000002d0: fc70 373e e4f0 4e3e 23b2 49be ebe5 d7bd
000002e0: 48a3 69bd 4e95 323e 340f 24be 865d 37be
000002f0: 30b6 f0bc d4d8 93bd 5c92 473e 4a49 2a3e
00000300: 8e1f 20be 90b1 c03d e8e8 6a3d 583c ef3d
00000310: fc00 883d ea31 abbd d859 95bd 4292 2b3e
00000320: 005c 5cbd 308d 6abc 6a20 8fbd 4039 d43b
00000330: 983f 27be e6e5 1e3e 0e17 84bd f9dd 20be
00000340: 801a 5b3d 8895 34bd 9c46 e33d ec4b 813d
00000350: 186e d93c a1b7 b9bd 80a5 5f3d e15c e3bd
00000360: f8bc 903c fcce debd 9225 283e 59d5 3dbe
00000370: 7830 a93d c548 3ebe 06b9 f2bd 189c 4bbd
00000380: 7849 21bd b4ce f13d 8404 273d 60b3 4c3e
00000390: 88b6 893d 7a76 11be 30cc fd3d 6dd6 c7bd
000003a0: 65dc 23be 02a0 93bd 9c39 313e 6045 c73d
000003b0: f7f5 cbbd 9d0f b3bd 40d7 0d3c 4f44 05be
000003c0: e0b7 8a3b a283 c0bd b8c0 a63d 943a d63d
000003d0: ac09 5cbd 2bfd 18be d214 273e 30b1 3d3e
000003e0: f83c 42bd 5a1e 503e bec0 08be 8f6c febd
000003f0: ce72 2c3e 4ee4 3b3e e433 c3bd 183b c73d

lstm.params.0.ln_h2h.fc_beta.bias f4 [24]
-0.10076897 0.1064125 0.09091151 -0.0657932 -0.02495645 -0.0059703887 -0.09890113 -0.14979322
-0.012506515 0.18819195 -0.08797668 -0.10627043 0.20067173 0.013414472 0.14912081 -0.19350095
-0.15691987 0.1238932 0.1453639 0.102742404 -0.20011146 -0.20129655 -0.06412032 -0.14138243
00000000: f65f cebd ccee d93d d02f ba3d 96be 86bd
00000010: 7871 ccbc 40a3 c3bb ad8c cabd 6563 19be
00000020: 20e8 4cbc 64b5 403e 1e2d b4bd 50a4 d9bd
00000030: e47c 4d3e 60c8 5b3c 20b3 183e 1d25 46be
00000040: 9aaf 20be b8bb fd3d 46da 143e 9c6a d23d
00000050: 05ea 4cbe af20 4ebe 8451 83bd 8ec6 10be

lstm.params.0.ln_cell.alpha f4 [1, 6]
0.27294832 -0.3418972 0.39579338 0.3655179 -0.110996544 -0.010597736
00000000: e2bf 8b3e 260d afbe 6ea5 ca3e 2a25 bb3e
00000010: 2852 e3bd 20a2 2dbc

lstm.params.0.ln_cell.beta f4 [1, 6]
-0.3163107 -0.36335158 0.25513983 -0.27708924 -0.29299802 -0.23740532
00000000: 7af3 a1be 3809 babe b0a1 823e a4de 8dbe
00000010: d603 96be 611a 73be

lstm.params.0.ln_cell.fc_alpha.weight f4 [6, 1024]
-0.13380498 0.029023677 -0.09481132 -0.0028082728 0.27926415 0.1447261 0.01890108 0.24513853
-0.12885481 -0.3942694 0.34424955 0.3386618 0.2400493 0.014790535 0.23417312 0.2222948
-0.05561167 -0.39157358 -0.25247782 -0.26907384 -0.34473613 -0.30223647 -0.01663524 0.058469802
0.38424557 -0.052832693 -0.17911366 -0.19141024 0.28529453 0.18958622 0.27510542 0.39192742
-0.07083163 0.4052465 -0.01771611 0.044212848 -0.34843656 -0.097498566 0.0065473616 0.2647282
-0.10919437 0.20908129 -0.3442336 -0.0056086183 0.17213851 -0.03255865 0.19495273 0.25528157
0.16605407 0.06408703 0.089954466 -0.2872003 -0.29427 -0.290473 -0.12845793 -0.21521959
-0.05673939 0.2449742 0.111664414 -0.32474992 0.30959827 0.15179199 -0.32289255 0.08504835
0.16528654 -0.31117374 0.307325 0.1934914 0.261868 0.36896843 0.38617766 0.10940057
-0.0032653213 -0.079444885 -0.2921619 0.19320637 -0.09447402 0.24980605 -0.333722 0.20891291
0.26136363 0.40641505 -0.37874433 0.2973581 -0.121502995 0.23907977 0.38954633 0.32987338
0.31748563 0.089411825 0.2912146 -0.3992218 -0.33893993 0.2984119 0.31611335 0.118020296
-0.21900135 0.23293352 -0.043940842 -0.21013828 -0.053895712 -0.08691004 -0.20841488 0.22792202
0.1944989 0.039422125 -0.24782142 -0.19835517 -0.38603157 -0.025545508 0.40607804 -0.2196479
0.041956484 -0.40058485 -0.3453604 0.19036704 -0.31467423 0.28450477 0.0513044 -0.2299926
-0.29796612 0.35951293 -0.17964835 0.4014355 -0.24118508 -0.19978257 -0.32684118 -0.017095268
0.2915278 -0.0033515394 -0.08975783 -0.33426332 -0.3997309 -0.4058706 0.15479267 -0.03634563
-0.22065638 0.017166406 0.23832637 0.10450429 0.34577805 0.32622254 0.07844409 -0.32288975
-0.088348836 0.28119165 -0.33907557 -0.16477169 -0.21002561 0.2765392 -0.21784104 -0.38646695
-0.32299396 -0.29300055 0.37942886 -0.30683792 0.19074988 -0.27626592 -0.0021304488 0.3112715
0.38258207 0.36737162 -0.031467736 -0.29526556 0.28688705 0.2512138 0.12682724 0.11861658
-0.009943336 0.2862348 -0.005028963 -0.17977645 0.025975078 -0.17624083 -0.058602154 -0.1862498
-0.32621318 -0.3134048 0.04860139 -0.17116337 -0.011780292 0.06828329 -0.35408837 -0.24896197
0.17654681 -0.07736358 0.25381893 0.143399 -0.2429643 -0.10228789 0.24480814 0.19231743
0.24338657 0.09028202 0.13572234 -0.07136825 -0.32788748 -0.079779565 0.111819565 -0.24232331
-0.1972768 -0.40191877 -0.030265898 0.30861557 0.07704896 -0.24280073 -0.121077776 0.12664932
-0.2511156 0.12971711 0.23981965 -0.17991963 0.3452118 -0.29407835 0.27482778 0.25076723
0.044664264 -0.22661892 -0.23737028 0.16565078 0.33810556 0.09335065 0.09846252 -0.37156433
-0.08981234 0.123101294 -0.1917405 -0.10539338 -0.24248095 -0.39839315 0.39519215 -0.36781436
0.09315312 -0.04937136 0.14206064 0.05249858 -0.31570563 -0.3025436 0.15045422 -0.26354444
-0.30355364 -0.35891438 -0.13554177 -0.11225557 -0.024557114 0.23897046 -0.07404512 -0.09570062
-0.06687218 0.3116055 -0.27514812 0.16512251 -0.1062839 0.22525615 -0.20470183 -0.017893583
00000000: 2c04 09be 10c3 ed3c 702c c2bd 000b 38bb
00000010: b6fb 8e3e 1433 143e 70d6 9a3c 9805 7b3e
00000020: 84f2 03be aedd c9be 7a41 b03e 1465 ad3e
00000030: 7ccf 753e 0054 723c 14cb 6f3e 40a1 633e
00000040: 10c9 63bd 557c c8be c644 81be 0cc4 89be
00000050: 4181 b0be bdbe 9abe a046 88bc 087e 6f3d
00000060: d6bb c43e 1867 58bd 9269 37be 0c01 44be
00000070: 2012 923e e422 423e 9eda 8c3e b6aa c83e
00000080: 2c10 91bd 787c cf3e 6021 91bc 8818 353d
00000090: 4766 b2be 54ad c7bd 408b d63b 748a 873e
000000a0: 4ca1 dfbd 6819 563e 633f b0be 80c8 b7bb
000000b0: 1445 303e 385c 05bd b0a1 473e 44b4 823e
000000c0: 140a 2a3e 1040 833d 0c3a b83d eb0b 93be
000000d0: 8faa 96be e1b8 94be 7a8a 03be 8662 5cbe
000000e0: 9067 68bd 84da 7a3e 50b0 e43d 9f45 a6be
000000f0: aa83 9e3e 5c6f 1b3e 2c52 a5be d42d ae3d
00000100: e040 293e 2a52 9fbe b459 9d3e 9c22 463e
00000110: 9013 863e 6ee9 bc3e 14b9 c53e 680d e03d
00000120: 00ff 55bb 00b4 a2bd 3f96 95be e4d7 453e
00000130: 987b c1bd 28cd 7f3e 9cdd aabe 44ed 553e
00000140: 74d1 853e a215 d03e c7ea c1be 523f 983e
00000150: 90d6 f8bd 54d1 743e 9e72 c73e 2ae5 a83e
00000160: 7a8d a23e 8c1d b73d 141a 953e cd66 ccbe
00000170: 8989 adbe 72c9 983e 9cd9 a13e a0b4 f13d
00000180: e441 60be 2086 6e3e 50fb 33bd 7d2e 57be
00000190: c0c1 5cbd e4fd b1bd b66a 55be 6464 693e
000001a0: b82a 473e 1879 213d e6c4 7dbe 9e1d 4bbe
000001b0: eea5 c5be d044 d1bc 76e9 cf3e 61eb 60be
000001c0: 90da 2b3d 7519 cdbe 14d3 b0be 94ef 423e
000001d0: fb1c a1be 9caa 913e 9024 523d 2e83 6bbe
000001e0: 048f 98be 1412 b83e bdf5 37be f488 cd3e
000001f0: 39f9 76be cd93 4cbe ba57 a7be 600b 8cbc
00000200: 2243 953e 80a5 5bbb f4d2 b7bd 9024 abbe
00000210: 87a9 ccbe 45ce cfbe f881 1e3e 28df 14bd
00000220: bff3 61be 90a0 8c3c d40b 743e 5806 d63d
00000230: d209 b13e a406 a73e 4ca7 a03d ce51 a5be
00000240: 3cf0 b4bd 5af8 8f3e 509b adbe e9b9 28be
00000250: f410 57be 8c96 8d3e b911 5fbe ffde c5be
00000260: 775f a5be 2b04 96be 8044 c23e dc19 9dbe
00000270: f053 433e ba72 8dbe 009f 0bbb fa5e 9f3e
00000280: cce1 c33e 2218 bc3e 50e4 00bd 0c2d 97be
00000290: dce2 923e 189f 803e 00df 013e 40ed f23d
000002a0: 60e9 22bc 5e8d 923e 00ca a4bb 5117 38be
000002b0: b0c9 d43c 7a78 34be d008 70bd 44b8 3ebe
000002c0: 6a05 a7be 9876 a0be 4012 473d 7345 2fbe
000002d0: 2002 41bc 1cd8 8b3d 124b b5be e3ef 7ebe
000002e0: b0c8 343e cc70 9ebd 8ef4 813e 30d7 123e
000002f0: a2cb 78be 507c d1bd fcae 7a3e dcee 443e
00000300: 543a 793e c8e5 b83d ccfa 0a3e 8429 92bd
00000310: dee0 a7be 7863 a3bd a801 e53d 9a23 78be
00000320: ee02 4abe 4cc8 cdbe 30f0 f7bc dc02 9e3e
00000330: d8cb 9d3d c1a0 78be a0f7 f7bd 5cb0 013e
00000340: 3992 80be 90d4 043e 4893 753e da3c 38be
00000350: 9abf b03e 7091 96be 3ab6 8c3e 9064 803e
00000360: e0f1 363d ca0e 68be 3211 73be 5ca0 293e
00000370: 2c1c ad3e a02e bf3d b8a6 c93d ae3d bebe
00000380: 88ef b7bd 881c fc3d 9f57 44be 7cd8 d7bd
00000390: ed4c 78be 30fa cbbe a056 ca3e 2a52 bcbe
000003a0: 10c7 be3d a039 4abd 5878 113e c008 573d
000003b0: 2ba4 a1be ffe6 9abe ac10 1a3e 4cef 86be
000003c0: 626b 9bbe a0c3 b7be 76cb 0abe 40e6 e5bd
000003d0: 002c c9bc acb4 743e f8a4 97bd b0fe c3bd
000003e0: 48f4 88bd c28a 9f3e 37e0 8cbe e015 293e
000003f0: 60ab d9bd 8ca9 663e 5b9d 51be 9095 92bc

lstm.params.0.ln_cell.fc_alpha.bias f4 [6]
0.30258042 -0.35193136 0.031719238 -0.34652913 0.31538117 -0.06676075
00000000: d2eb 9a3e 5930 b4be 08ec 013d 446c b1be
00000010: a479 a13e dcb9 88bd
