results/02-22-2019/epochs20/model/decoder.pth (torch_old, 1472 bytes, 6 tensors)

lstm.weight_ih_l0 f4 [12, 3]
0	0xbf86509d	-1.0493351
1	0xbfc4c618	-1.5372953
2	0x40acd90d	5.4014955
3	0x40625433	3.536389
4	0xc00d2520	-2.205391
5	0x3fd20bc8	1.6409845
6	0x3fd87bbf	1.6912764
7	0x3f103ea6	0.56345594
8	0x402deb06	2.7174697
9	0x403447b6	2.816877
10	0x3feaaf79	1.83348
11	0xbfb9e472	-1.4522841
12	0x4004d1f9	2.0753157
13	0x3d70602b	0.058685463
14	0x3cfc5738	0.030803308
15	0xbf320b79	-0.69548756
16	0x3ea3dc47	0.32003996
17	0x4094fa82	4.6555796
18	0x40499114	3.1494799
19	0x3c8475d6	0.01616947
20	0xbe77fddb	-0.24217932
21	0x3f3c5dd0	0.73580647
22	0x3f3ff91a	0.74989474
23	0x3facf8ce	1.3513429
24	0x3f5d334b	0.8640639
25	0xbed7cf8d	-0.42150536
26	0x3f8e4cd8	1.1117201
27	0xbf26493a	-0.64955485
28	0x407cc2d6	3.9493918
29	0x405c00b3	3.4375427
30	0x4018c229	2.3868506
31	0xc062f933	-3.54646
32	0x3f97bf33	1.1855224
33	0x40843568	4.1315193
34	0x3f4606be	0.7735404
35	0x3fe39379	1.777938

lstm.weight_hh_l0 f4 [12, 3]
0	0xbe916c3e	-0.28402895
1	0x3ce2d950	0.027691513
2	0x3e79d889	0.24399008
3	0x3e85c8ed	0.26129857
4	0xbe3fd050	-0.18731809
5	0xbe56bacc	-0.20969695
6	0xbf1fdd85	-0.62447387
7	0x4073e260	3.8106918
8	0xbda90b38	-0.08254093
9	0xbfcc4492	-1.5958426
10	0xbfe6d48d	-1.8033615
11	0x4059e5dc	3.4046545
12	0x3e4934ef	0.19649099
13	0xc03bf359	-2.9367278
14	0x403d15be	2.954452
15	0xc0830e2b	-4.0954795
16	0x3f19ba1d	0.6004961
17	0xbf7a5c8f	-0.97797483
18	0xba8d00df	-0.0010757706
19	0xbdbb03a0	-0.09131551
20	0x3d7a0101	0.061036114
21	0x3e9984d2	0.29984146
22	0x3ea2a019	0.3176277
23	0xbe4816c4	-0.19539934
24	0xbdd792a2	-0.10526015
25	0x3bcd7511	0.006270059
26	0x3d2bb2e5	0.041918654
27	0x3f59cd77	0.8507914
28	0x403d9e39	2.9627821
29	0x3fbcb9e4	1.4744229
30	0x4083d342	4.1195383
31	0x40918888	4.5479164
32	0xbf8fb991	-1.1228505
33	0xc004d5ab	-2.0755413
34	0x40829a17	4.08131
35	0x3f89db01	1.076996

lstm.bias_ih_l0 f4 [12]
0	0x3f75a153	0.95949286
1	0xbe313a95	-0.17307504
2	0x40403738	3.0033703
3	0x4083f91a	4.124158
4	0x4040908a	3.008822
5	0x400438b0	2.06596
6	0xbf66b74a	-0.90123427
7	0xbf0649ae	-0.52456176
8	0x3f2ae81b	0.66760415
9	0x401b0297	2.422033
10	0x404e4d70	3.2234764
11	0x4100ac06	8.041998

lstm.bias_hh_l0 f4 [12]
0	0x3f6a2ff1	0.914794
1	0x3f0431a4	0.51638246
2	0x405628aa	3.346232
3	0x409970a7	4.7950015
4	0x40683e2c	3.6287947
5	0x4007c3eb	2.121333
6	0xbf8ae7e6	-1.085202
7	0xbf357e39	-0.70895725
8	0xbe70fa7f	-0.23533057
9	0x3fe9becf	1.8261355
10	0x406f3f09	3.7382224
11	0x41111d0a	9.06959

out.weight f4 [8, 3]
0	0xbf6d0d85	-0.92598754
1	0x3fe61c87	1.7977456
2	0x3fae494b	1.3616117
3	0x4113bb7d	9.2332735
4	0x40c7147f	6.221252
5	0x40b5efa2	5.685502
6	0x414c6125	12.773717
7	0x4112172f	9.13066
8	0x40ed163a	7.408963
9	0x3f4146b3	0.75498503
10	0xbfdb8c44	-1.7152181
11	0x3f988eb4	1.191855
12	0xc056a360	-3.3537216
13	0x3fd0a628	1.6300707
14	0x400e2ff7	2.2216775
15	0xc0b577a9	-5.670857
16	0x40096bc6	2.147203
17	0x40ab88ca	5.360448
18	0xbdaf6e96	-0.085660145
19	0x3f76e934	0.9644959
20	0x3f3d38bd	0.739147
21	0x403439ec	2.8160353
22	0xc12c1504	-10.755131
23	0x40b96cce	5.794532

out.bias f4 [8]
0	0x3f7776e8	0.9666581
1	0x40905af6	4.5111036
2	0x40bdea32	5.9348383
3	0x3f99cf82	1.2016451
4	0x3f29f6f0	0.6639242
5	0x3f84ce8a	1.0375531
6	0x3f934d0b	1.1507887
7	0x40240693	2.5629013
