results/03-04-2019_n/downstream/h3/model/decoder.pth (torch_old, 1728 bytes, 6 tensors)

lstm.weight_ih_l0 f4 [12, 3]
00000000: a6d6 08bf 2cf5 c0be 95f0 253e 6242 77c0
00000010: 409a 4440 da8f dc3f fa76 4a42 4782 3f40
00000020: 3fd8 c540 bc47 30c0 e2dc dbbe 47b4 ac3f
00000030: f9b6 3640 a380 30c0 d0de b1c0 9e9e 6742
00000040: 3287 88be 75e6 0dc1 fc7e 63c2 cf15 6fbe
00000050: dd54 ddbf b3ac d4bf 0c6d b23d 4c98 673e
00000060: fe35 bc40 f17b 5f40 f83c 22c2 60a0 09be
00000070: 6f65 be40 0b8f 0340 2c64 9dbe 68b4 d8bf
00000080: a9f7 2c41 26fb 09bf e497 5240 7a4e e1be
-0.5345253 -0.3768705 0.16205056 -3.8634267 3.0719147 1.72314 50.616188 2.9923265
6.182647 -2.7543783 -0.42941958 1.3492516 2.8549178 -2.7578514 -5.558449 57.9049
-0.26665646 -8.868764 -56.87401 -0.23348163 -1.7291523 -1.6615204 0.08712205 0.2261669
5.881591 3.4919398 -40.55954 -0.13440084 5.949882 2.0556056 -0.30740488 -1.6930056
10.810464 -0.5389885 3.2905207 -0.44005185

lstm.weight_hh_l0 f4 [12, 3]
00000000: edb1 b0bf d687 b23e ff05 fdbf 09c7 913d
00000010: 0807 3840 fa29 03c0 32d2 e3bf 963f 70be
00000020: 8d7e 95c0 779e 9ebf 4855 da3e 7eb2 9cbf
00000030: 0e75 01be 06d9 2fc0 31ae a73f f50b d7be
00000040: 3686 443f 0743 ef40 fcb9 4941 f460 18c0
00000050: 00b0 b640 c834 a73e 6e63 c43e 3e89 1d3e
00000060: 68d9 9a3e bb87 33be b83a c23f 3797 b340
00000070: a3c0 a93f bdf9 ee3f 46f3 053d 6b14 02c0
00000080: 2166 1640 1145 82bd 75b7 823f d6b8 87be
-1.3804299 0.3486926 -1.9767455 0.07118041 2.8754292 -2.049437 -1.7798522 -0.23461756
-4.671698 -1.239211 0.4264319 -1.2241971 -0.12642309 -2.747621 1.3100034 -0.4200131
0.7676729 7.476932 12.607906 -2.3809175 5.7089844 0.32657456 0.3835711 0.15384385
0.30243993 -0.17532246 1.517417 5.612209 1.3261913 1.8669964 0.032702707 -2.0324962
2.3499835 -0.063608296 1.0212237 -0.26508206

lstm.bias_ih_l0 f4 [12]
00000000: 7055 adbf aea2 33be e563 1440 9dfb 57bf
00000010: 725d 08c0 9cc0 5540 f4a8 edbf 4bbc ac40
00000020: 5b55 f43e b9bd 4e40 4261 653e 9a1c 163f
-1.3541698 -0.17542526 2.318597 -0.84368306 -2.1307034 3.339881 -1.8567185 5.397985
0.4772137 3.2303298 0.22400382 0.5863739

lstm.bias_hh_l0 f4 [12]
00000000: fa68 abbf b5f4 fa3e 988c 0740 e3ca 85bf
00000010: 9a2e 0ec0 a94f 3a40 5a9b ebbf 5310 ab40
00000020: 8c7e aa3f f1d2 5640 1142 74be 8d28 683f
-1.3391411 0.49014822 2.1179562 -1.0452541 -2.2215943 2.911112 -1.8406785 5.3457427
1.3319869 3.3566248 -0.23853327 0.90686876

out.weight f4 [24, 3]
00000000: 9e13 8041 4622 5f40 7194 2fc1 da70 93bf
00000010: cda2 64c0 31f2 8abf 6186 19c0 83e1 1bc0
00000020: c48b 40c0 c7c1 4ebf e2eb 19c0 07ca 81bf
00000030: 4dbc 96bf b382 85c0 695a c2bf 5d11 89bf
00000040: 3328 59c0 9b83 83bf f003 24bf 4a07 49c0
00000050: 93e1 6dbf 03ef bcbf 9482 79c0 7070 06c0
00000060: 15ca aabf e32c 36c0 bb9e a1bf af87 c2be
00000070: 2262 92c0 2475 24c0 5a98 01c1 b9ce f63f
00000080: 7516 3fc1 bf48 9bc1 a1fa 1e41 513d 8fc1
00000090: 706e 7dc0 6852 443e cb76 8bc0 7be2 b0be
000000a0: c11c dbbf eac1 3bbe 5448 b941 8aa0 bd40
000000b0: 07a4 6bc1 fd80 4abf bc0f bdbf 250e 62bf
000000c0: d866 c4bf b5a0 dbbf e108 04c0 87b7 57bf
000000d0: f701 a6bf c7ab 8dbf 37ed 3ebf f497 b1bf
000000e0: 66c3 acbf dc48 52c0 d258 21c0 f469 6fc0
000000f0: db9d 983e af3f bdbf 053f 86bf cd26 f8bf
00000100: d1cf 70bb 3ed1 27c0 00ee 9dc0 05d0 b93f
00000110: 5166 8fc0 520f b2c0 f71e ac3f 1a1b bac0
16.009579 3.486467 -10.973741 -1.1518815 -3.5724366 -1.0855161 -2.3988268 -2.4356391
-3.0085306 -0.8076443 -2.4050221 -1.0139779 -1.1776215 -4.1722045 -1.5183841 -1.0708424
-3.3930786 -1.0274538 -0.6406851 -3.14107 -0.92922324 -1.476044 -3.8985949 -2.1006126
-1.334292 -2.8464897 -1.2626566 -0.37994143 -4.574479 -2.5696497 -8.099695 1.9281837
-11.942983 -19.41052 9.936189 -17.90494 -3.9598656 0.1917206 -4.358251 -0.3454779
-1.711815 -0.18335691 23.160316 5.925847 -14.727546 -0.7910307 -1.4770427 -0.8830283
-1.5343885 -1.7158419 -2.063042 -0.84264416 -1.296935 -1.1068047 -0.7458071 -1.3874497
-1.3497131 -3.285697 -2.5210462 -3.7408419 0.29807934 -1.478506 -1.0487982 -1.9386841
-0.0036744962 -2.6221461 -4.9353027 1.4516608 -4.48124 -5.56437 1.344695 -5.8158083

out.bias f4 [24]
00000000: 720d 0741 5c0b 1040 ec6d 6440 4a53 f43f
00000010: 8086 3440 561c 0940 3a4c 0240 f1c0 4840
00000020: 84d6 0b40 ef76 6440 fa93 1741 6d58 4741
00000030: 65ff 8040 cd0b a83f ce82 2a41 c286 be3f
00000040: 0f31 2340 bdfb d23f e044 f03f 7a42 7d40
00000050: 7d05 d13f e174 2840 c303 7040 2d29 9a40
8.440783 2.2506933 3.569209 1.9087918 2.8207092 2.1423545 2.0359025 3.1367762
2.184968 3.5697591 9.473627 12.459088 4.031176 1.3128601 10.656935 1.4884875
2.5498693 1.6483074 1.8771019 3.9571824 1.63298 2.6321337 3.7502296 4.8175263
