results/02-15-2019_n/model/decoder.pth (torch_old, 244576 bytes, 5 tensors)

lstm.weight_ih_l0 f4 [400, 50]
00000000: 8c36 813f 81d8 5b3f 7a1d a63f 40da 22bf
00000010: 99f5 bb3f f482 c4bf bac4 8a3f 9b15 a13e
00000020: 368d 993f d246 ea3f 13a5 c7bf df27 1f3d
00000030: e35d c13f f1da f13e b9af e93f 0000 e3be
00000040: e6b6 dcbf 4fcc a83e acba 33bf 5c5d 063f
00000050: 9ca1 cf3f 8147 643f fb4d 7f3f f5fc c53f
00000060: 16be 8d3e 8249 ba3f 50f0 bd3f fc73 adbf
00000070: 4191 b63f 969a c8bf 7535 93bf bb83 98bf
00000080: 5466 8ebf 9f66 e63f 7bd7 ccbf 0ff8 c5bf
00000090: 0463 91bc f957 81bf 4a08 f03e a2f6 c83f
000000a0: f250 febf 2a47 71bf 7d61 d9bf 630f 82bf
000000b0: e768 eabf 6203 ed3e 82e2 843f 3255 4b3f
000000c0: 97d6 f6bf 9681 8f3f d2c9 523f 7338 f43e
000000d0: 442a 243f a8b8 1bbe a3e7 953f bc6f 84bf
000000e0: 0fb0 153f af32 893d d8bb 443f f9d1 a43f
000000f0: be14 9cbf e32a cabe 954f a73f 7b59 fb3a
00000100: bc1d b73f 27d8 463e 5a4b a8bf d3e3 6e3f
00000110: bf15 00bf 04ce 963e b47a a13f 5a13 cd3e
00000120: c8c4 9b3f 2764 913f 253b b2bd 0cbf 9e3f
00000130: c2a2 593f f322 8fbf 8eac a63f b1f8 a2bf
00000140: 7667 76bf e40b 8abf b69f 47bf c40b 8e3f
00000150: 9799 b3bf f1e8 b2bf d8d8 823e 8cc5 67bf
00000160: ad92 79bd edd6 bd3f 697d a9bf e26f 53bf
00000170: ed64 88bf 6f9c 3fbf 8ddb 97bf 6611 b53e
00000180: 4c6f 663f 62c7 e43d 9da8 b7bf e162 853f
00000190: ec0c 25be 7362 7c3f 1f96 eb3e d92f 173e
000001a0: 12ac 5b3f 0063 88bf 6842 71be c481 173f
000001b0: 29c6 413d 2677 653e 33a9 e33e c8ff b6bd
000001c0: 1f44 9f3f 4e5f a8be 1368 7a3f ed61 8c3e
000001d0: 6ae6 9fbe 6c54 b23e 43ac 5bbe 01bf 29bf
000001e0: f381 123f 698f d03e 4f06 973e 1d11 763e
000001f0: 3bd3 16bf 147e 403f a330 e63e 3764 9bbf
00000200: 1100 143e e1a0 29bf a722 913e 9797 e53f
00000210: 147b cebe 2f79 f13e 585b 0abf 6d7a 95bf
00000220: c8d2 81be 24b4 273f 045e 8e3f 8a8a 183f
00000230: 5979 66bf b0c2 133d 4ae6 83bf 4339 08bf
00000240: 919d 4abf 42b0 11bf 42da 993e aeee aa3d
00000250: 3ffc 82bf ef3c ce3e 5c3e 023f 16d9 ed3e
00000260: eb96 893f 22bd 07be 82c5 a43f 9eb1 aebf
00000270: 9a2a 853f d4a3 303e 0561 933f 39df c73f
00000280: 1630 a6bf 1170 14bf 533e b83f 3ab2 13bc
00000290: baf7 c03f 1bfb 8d3e 46d7 cdbf 75f8 1c3f
000002a0: 37ea 77be 3616 5b3e be67 c13f 36e6 febb
000002b0: f1d6 ae3f a2e6 d33f 50e0 083e b324 b13f
000002c0: bc5b ae3f 5019 b0bf b53b af3f 2f4a b4bf
000002d0: 3132 6cbf a10f 9abf fd71 62bf bbb9 d23f
000002e0: 6c27 c8bf 22b4 bebf 1c94 b03e adec 10bf
000002f0: 7f1d 883e a007 a83f a903 dbbf 05cb d0be
00000300: dca2 c0bf 10a8 36bf 54f0 e9bf 2011 4f3e
00000310: b6e2 323f 0aad 8bbe 1a7f e5bf 973f 453f
00000320: 89e7 443f 1593 9c3f d542 933f 3fe3 5abe
00000330: a407 1940 d8d9 40c0 7422 c33f 28cd b03e
00000340: d610 c23f 0215 b33f 693d 3fbf 1529 643d
00000350: e1c2 1c40 e85b 3f3e b6e2 3d40 c5d6 d9bd
00000360: c545 fdbf 6631 c9be 76f1 4cbf a51a e93d
00000370: 04be f83f 8771 28bf 6366 4c3e 8e7a 1240
00000380: 727c 203f 9c27 0940 8a5f ce3f 9c05 20c0
00000390: 329b f93f 8c2a f0bf d327 a2bf b923 75bf
000003a0: 8b71 dbbf a158 0940 00c5 0bc0 5450 42c0
000003b0: abf9 2fbf 6be7 10bf b265 983f 0a51 1440
000003c0: e39b 0ac0 0791 1fbf 7e8f 28c0 ef17 a6bf
000003d0: 5df0 1dc0 497f 0e3e 7994 7a3f 5d91 ac3d
000003e0: 700d 28c0 d52c 823f 390b 443f a55c 5b3f
000003f0: 6828 ca3f 3a0a bbbe 15cc dc3f d32c eabf
1.0094771 0.85877234 1.2977746 -0.63614273 1.4684325 -1.5352464 1.0841286 0.31461796
1.1996219 1.8302863 -1.5597252 0.038856383 1.5106777 0.47237352 1.8256751 -0.44335938
-1.7243316 0.32968375 -0.70206714 0.52486205 1.6221194 0.89171606 0.99728364 1.5467821
0.27684087 1.4553683 1.4838963 -1.3551021 1.4263078 -1.5672176 -1.1500689 -1.1915201
-1.1124978 1.8000067 -1.600326 -1.5466326 -0.01774741 -1.0104972 0.46881324 1.5700266
-1.9868453 -0.9424921 -1.6982876 -1.0160946 -1.8313264 0.46291643 1.0381625 0.7942687
-1.9284238 1.1211421 0.82339203 0.47699317 0.6412699 -0.1520716 1.1711315 -1.0346599
0.5847177 0.0669912 0.76849127 1.2876579 -1.219383 -0.39485845 1.3071162 0.0019176448
1.4305949 0.19418393 -1.3147995 0.9331638 -0.5003318 0.29454052 1.2615571 0.40053827
1.2169428 1.1358689 -0.08702687 1.2402053 0.85013974 -1.1182541 1.302141 -1.2732145
-0.9625162 -1.0784879 -0.77978075 1.109734 -1.4031247 -1.3977338 0.25556064 -0.9053581
-0.060930897 1.4831215 -1.3241397 -0.82592595 -1.06558 -0.74848074 -1.1863877 0.35364836
0.90013576 0.11170842 -1.4348332 1.04208 -0.1611821 0.9858772 0.4601297 0.14764346
0.85809433 -1.0655212 -0.23560488 0.5918238 0.04730812 0.22408733 0.44465026 -0.08935505
1.2442664 -0.32885212 0.97815055 0.2741846 -0.3123048 0.34830034 -0.21452431 -0.66307074
0.57229537 0.40734413 0.29497 0.24029966 -0.5891606 0.7519238 0.44958982 -1.2139958
0.1445315 -0.66261107 0.2834675 1.7936887 -0.40328276 0.47162768 -0.5404563 -1.1677986
-0.25356126 0.6550925 1.1122441 0.59586394 -0.9002891 0.03607434 -1.0304654 -0.53212374
-0.7914668 -0.56909573 0.3004933 0.08346306 -1.0233229 0.40280864 0.508764 0.46454686
1.0749182 -0.13255742 1.2872775 -1.3647954 1.0403626 0.17249995 1.1513983 1.5614997
-1.2983425 -0.579835 1.439402 -0.0090146605 1.50756 0.2773064 -1.6081321 0.61316615
-0.2421044 0.21395192 1.5109785 -0.007778908 1.3659345 1.6554759 0.13366818 1.3839325
1.3621745 -1.3757725 1.3690096 -1.4085139 -0.92264086 -1.203602 -0.8845518 1.646293
-1.5637031 -1.4898722 0.34487998 -0.5661114 0.26585004 1.3127327 -1.7110492 -0.40779892
-1.5049701 -0.71350193 -1.8276467 0.20221376 0.69877183 -0.27280456 -1.7929413 0.77050155
0.76915795 1.2232386 1.150477 -0.2137575 2.3910913 -3.0132961 1.5244889 0.34531522
1.5161388 1.3990786 -0.7470308 0.05570324 2.4493945 0.18687403 2.9669623 -0.10636667
-1.9786917 -0.392955 -0.8005594 0.11382035 1.9432988 -0.6579823 0.19960932 2.2887301
0.6268989 2.1430426 1.6122906 -2.5003424 1.9500487 -1.8762984 -1.2668403 -0.95757633
-1.7144026 2.1460345 -2.183899 -3.0361528 -0.6874034 -0.56603116 1.1906035 2.3174462
-2.1657646 -0.6233067 -2.633758 -1.2976054 -2.4677956 0.13915743 0.978828 0.08426163
-2.6258202 1.0169932 0.76579624 0.8568824 1.5793581 -0.3653124 1.7249781 -1.8294929

lstm.weight_hh_l0 f4 [400, 100]
00000000: 9052 033f d8c8 5d3f 3d5c 313f 7036 efbe
00000010: 5432 b23e cf90 14bf 4ed6 043e 95de c9bd
00000020: fd19 ba3e aeae 01bd 9ac0 06be 7e2b c0bd
00000030: 5b6e 07bf 08db b03c b9bd 23be b251 91be
00000040: c708 a33e 3480 933e 79ad 33bf 67c2 903e
00000050: 6e2d 2e3f c726 393e acbb 703f a4bc a73e
00000060: 68c2 483e ecd3 8b3e cd46 18be 547f 33bf
00000070: b8f9 f03e 50d7 2ebf ef4f 0bbf 8ec2 a33d
00000080: 4e60 4f3e dcb6 db3b 5642 9bbe 7164 6b3e
00000090: 8972 b5be 6700 26bf b375 993e 26b9 7d3f
000000a0: 2e1d 31bf 02b9 2abf b516 403e 5dce 00bf
000000b0: 97ea 3f39 5257 c93d 319b 123f fcc2 643e
000000c0: b735 79bf cce6 2e3f f8e6 563f 0ad6 ef3d
000000d0: 5ddc f4be 49d5 2fbf ff51 12be 64b4 80bf
000000e0: 08bb 363f 5394 643f 55cc acbe 7d5f babd
000000f0: 4c23 823f c674 6fbe e94c 31be 37a5 b9bd
00000100: 90e9 a1bc bfd7 393f 5d2a 4d3f b41f 5d3f
00000110: 7629 9bbe b727 70bb de67 06bf a34a 1dbf
00000120: 7ea8 32bf 56df 153f 3224 943e e760 07bf
00000130: b342 873e be40 5bbf f268 4abe b906 583f
00000140: 96a3 943e b9ab 22bf 0ed8 b43d 4711 fcbd
00000150: 5939 e9be 381f 093f df96 e5be 1585 8e3f
00000160: 2886 ecbe b350 0fbe 1420 33be 2baa 0e3f
00000170: 4908 573f b3a4 033b cdc7 26bf 67aa 2ebf
00000180: c531 05ba e221 a13e f3da 0e3e 6596 3e3f
00000190: d09a e93e a3d2 1d3f 2522 483f 706f 15bd
000001a0: bf28 9d3d aaab e1be 4f64 bbbc 2f2b 033e
000001b0: 71c1 553f 5e70 393f 5193 32bf 63fd 27bf
000001c0: 1152 843e aa62 e8bd 59a8 c13e 6637 abbd
000001d0: 8e83 adba ae53 c6bd c513 1cbf a7f4 873e
000001e0: 4511 2e3f 480a 56be 9ae8 4f3f 4184 593f
000001f0: 60e4 81bd ab8e 9d3f ee18 353f 3568 60bf
00000200: ab65 863f dd83 7cbf 0143 e1be 50e8 53bf
00000210: c369 f53e 1560 87bd 56df 38bf 1fe2 79bd
00000220: 98a5 bebc 197b fdbe e61e 553f 2103 c73f
00000230: eea2 9dbf c926 9bbf 3ee2 69be 0292 04bf
00000240: d61e 403d 045b 9f3d 34a4 573f a35c ea3e
00000250: 0a39 30bf 8c3a 323f 9358 453f 97fe b83e
00000260: 315f eabe df3b bbbe 9226 c6be 4a60 22bf
00000270: f286 ea3d 1284 173f 2045 40be 32a3 8dbd
00000280: 4e89 2f3f 6952 bb3d 6f11 4fbe f480 5fbe
00000290: 9545 043e 4191 323f 15bd 1d3f 3397 a33e
000002a0: ad35 e4be 90bd 8b3e 98de 54bf b7bf fabc
000002b0: e318 b2be b649 1a3f 3db2 acbe bb87 c0be
000002c0: 8c6a 9a3e f9a5 e5be 5a7f 873e efb3 803f
000002d0: 9234 fb3e f2a8 c4be 077b d93e 97fc 123f
000002e0: dae8 0abf 544b b73e bf2b fbbe 3edd 093f
000002f0: 603f f8be 2a74 6cbf b78e 32be b4fe b93e
00000300: 67ea 593f c396 98be 3bdd 3cbf 3b84 3bbf
00000310: dc33 40be e013 993d 324b ba3e 6d70 ed3e
00000320: 90d2 ee3e 6bb1 473f 6fd0 323f 0637 35bf
00000330: 9388 aabe 7f0b 47bf 1ae5 943e 457f 29be
00000340: b12f 893f c9ee 343e 9e82 7bbf 3036 933f
00000350: 7da0 c1bd ac51 cd3f e298 013f 8272 c0be
00000360: 4622 183f 0b3f b3bc 6f41 37be c967 1d3f
00000370: fb02 803f c65b 74be b1aa 5abe fd3f 883f
00000380: 1858 7c3e f643 033f 30ba 483f 5054 bdbf
00000390: 0201 583f f2ca 97bf fb7e 1cbf df2e 82be
000003a0: da33 17bf 47f1 d7be 38d3 ecbe 1b59 f13e
000003b0: 3593 adbe 6ca8 adbf ec47 843f 9410 503e
000003c0: f319 e0bf 763d afbf abe6 27bf 1d2b dcbe
000003d0: 94eb 2cbe b078 f53e 33c8 523f e23c 143f
000003e0: cc55 4bbf ad50 113f ba06 803f 29fb 2ebe
000003f0: 5338 36bf 9dd5 e9be 752e 8fbb 5404 09bf
0.51297855 0.8663459 0.6928137 -0.4672122 0.34804022 -0.5803346 0.12972376 -0.09856907
0.36347952 -0.03166073 -0.13159409 -0.093832955 -0.52902764 0.021588817 -0.15990342 -0.2838264
0.31842634 0.2880875 -0.70186573 0.28273317 0.6803807 0.18081199 0.94036365 0.3276111
0.1960541 0.2731012 -0.14870758 -0.7011616 0.4706552 -0.6829729 -0.54418844 0.07996093
0.20251581 0.006705148 -0.30324048 0.22987534 -0.35438946 -0.64844364 0.2997261 0.9911064
-0.6918515 -0.6668855 0.18758662 -0.50314885 0.00018302571 0.09831108 0.57268053 0.22340006
-0.9734759 0.6832092 0.8394618 0.117107466 -0.47824374 -0.6868482 -0.14289092 -1.0055051
0.7137914 0.89288825 -0.33749643 -0.09100244 1.0167022 -0.2338439 -0.17314495 -0.09064715
-0.019764692 0.7259483 0.80142766 0.863765 -0.3030507 -0.0036644766 -0.5250224 -0.6144201
-0.6978835 0.5854391 0.28933865 -0.52882236 0.26418075 -0.85645664 -0.19766596 0.8438526
0.29031056 -0.6354328 0.08830272 -0.12307983 -0.45551565 0.5356326 -0.44841668 1.1134363
-0.46196103 -0.13995628 -0.17492706 0.55728406 0.8399702 0.0020087182 -0.6514862 -0.68228763
-0.00050809636 0.31471163 0.1395071 0.74448234 0.45625925 0.6164953 0.781771 -0.03648323
0.07673787 -0.44076282 -0.02287498 0.12809442 0.83498293 0.72437084 -0.69756037 -0.6562101
0.25843862 -0.11346944 0.37823752 -0.08360176 -0.0013238059 -0.096839294 -0.60967666 0.26553842
0.679951 -0.2090236 0.81214297 0.8496743 -0.06342387 1.2309164 0.70741165 -0.8765901
1.0499777 -0.9863871 -0.43996432 -0.82776356 0.47932252 -0.06610123 -0.72215784 -0.06100666
-0.02327232 -0.4950798 0.8325027 1.554783 -1.2315347 -1.2121211 -0.22840211 -0.5178529
0.046904407 0.07781032 0.8423493 0.457738 -0.68837035 0.69620585 0.7708828 0.36131737
-0.4577575 -0.36569116 -0.38701302 -0.63428175 0.1145152 0.591859 -0.18776369 -0.06915893
0.68568885 0.09146578 -0.20221494 -0.21826535 0.12917168 0.6975289 0.6161664 0.31951293
-0.445722 0.27293062 -0.8315215 -0.030608995 -0.34784612 0.60268724 -0.33729735 -0.37603554
0.30159414 -0.4485319 0.2646435 1.0054911 0.49063545 -0.38410145 0.42476675 0.5741667
-0.54261553 0.35799658 -0.49056813 0.53853214 -0.4848585 -0.9236475 -0.17437254 0.36327136
0.85123295 -0.29802522 -0.7377507 -0.7324864 -0.18769783 0.07474494 0.36385494 0.46374837
0.4664502 0.78005093 0.69849294 -0.70787084 -0.33307323 -0.77751917 0.2908104 -0.16552456
1.0717679 0.17669214 -0.9824618 1.1500912 -0.09454439 1.6040549 0.50623906 -0.37587363
0.594273 -0.021880647 -0.17896055 0.6148649 1.000091 -0.23863134 -0.21354176 1.0644528
0.2464298 0.51275575 0.784091 -1.4791355 0.8437654 -1.1858809 -0.61131257 -0.25426385
-0.59063494 -0.42176268 -0.46254897 0.47138295 -0.33901373 -1.3567023 1.0334449 0.20318824
-1.7507919 -1.3690631 -0.65586346 -0.43001643 -0.16886741 0.4794364 0.8233673 0.579054
-0.7942779 0.56763726 1.0002053 -0.17087997 -0.71179694 -0.45670786 -0.004369552 -0.5352223

lstm.bias_ih_l0 f4 [400]
00000000: 92c9 b1bf 85d2 a5bf 477a 95bf 79d2 e8bf
00000010: 51de 8cbf e816 f9bf 4b26 57bf 63ba 99bf
00000020: 9c3f 89bf 3352 03bf e84b 92bf 4d0a 2abf
00000030: 1fdc 443f bd67 c6bf d1f8 5bbf 06b9 afbf
00000040: 0b50 48bf 5465 54bf f1a5 01c0 1a5b d9bf
00000050: c4d3 16bf 2db0 b2bf e462 afbf e3fe 7dbe
00000060: 5d94 88bf 4e91 1fbf 5113 c5bf 5cf2 d7be
00000070: 98a4 d3bf 3bb6 1abf 848d 99bf c067 b7bf
00000080: 1d3e 7fbf cd83 10bf c5b1 5bbf 8c05 dabe
00000090: 80e3 92bf e686 a0bf 4651 3cbf 989b f2be
000000a0: a1c2 88bf 1a6d 8ebf 3707 f9be 7bc0 c1bf
000000b0: 4f95 15bf 196a c4bf 02cd e6bf a0b6 46bf
000000c0: f458 03be 15d8 cebf f4e5 063f 21f2 4bbf
000000d0: 6a73 8f3f 6b01 2a3f 9b2a e73f f4f8 3f3f
000000e0: c606 b1bd 45b5 e43e 6f05 383e d32b 2abe
000000f0: a996 f3be 84ec 92bd 872e af3e ff0d 52be
00000100: 4cca e03d 3b54 743e 2837 783e 108a 53bd
00000110: 6202 aabe 9ea1 48bf dc5e 6d3d 1221 82bf
00000120: b712 373f 549b 44bd 97cc a0bf 8eaf 673e
00000130: 8ae4 023f 7a5b a63f 7d63 0dbf 3a8e 3b3d
00000140: c24f cabe 160c 293f 210f 75be 8d5f cbbe
00000150: ca1a 113e 8c5e fc3e 5e9b 55bf e512 e33e
00000160: b6ac 6f3f b0f6 88bf 8c93 4fbf f209 72bd
00000170: 5717 db3e e4ba 5dbf 55f3 b6be c707 da3e
00000180: f994 21be 6524 abbe bf7e 01be ea34 183f
00000190: 742b 20be 67af 6f3f 7f37 c0be f251 89bb
000001a0: d3dd 7ebd e5df 24be 018c f53d b1ac d6bc
000001b0: 50b6 68bf e345 89be 85de 41bf 7758 b73e
000001c0: a27f 59bf 5be2 a9bd 7376 b7bd fa0a fc3c
000001d0: debe 59be d1c3 dcbe 3662 ab3d bb82 5abe
000001e0: f589 9e3e 5873 d83f bf03 c73f 5a55 0cbf
000001f0: 4967 033e cbaa afbf 5452 f2be af6f f3be
00000200: 28cf 26bf 071f d9be c1f0 98be 7bee 82bf
00000210: a948 953e e345 19be 49dc 203e 0fd9 15be
00000220: 50a2 e03e 06e1 71bc 0c3f 9fbf 4e24 703f
00000230: 18aa 14bf bad9 ce3e ac00 b7be 2ee0 f5bd
00000240: 49a5 863d dae3 d7be 6daf 2b3d b98c 563f
00000250: b509 de3e f77d b6bd c0bc 22bf 31c7 94bf
00000260: ea45 d2be 4f0e aabf 11fb 82be 61ea c6bf
00000270: 1937 89bf 66a9 00c0 ee57 adbf 71d2 b9bf
00000280: 0c55 d53e b5c5 9ebe 369d 99bf 1e93 ba3e
00000290: 00b5 8abf 7030 c5bf 7292 84bf e4e7 87bf
000002a0: be94 80be 34f1 d4bf f5e7 67bf 868a 99bf
000002b0: d613 113e 3ffb 723e 19fd 61bf 077e 58bc
000002c0: f7da 773e 3433 98bf cc21 abbe cefa 96bf
000002d0: 276f 36bf b71b 35bf 6b11 cbbe 30b1 a5bf
000002e0: 4932 39be 5f3d dcbf 5baf 253f 4b14 6b3e
000002f0: 768e 07be 29eb 84bf 1972 03bf 271c 82bf
00000300: c258 983f 279c a6bf a014 b53e 3a93 adbf
00000310: 0e55 97bf 3cab 57bf 1817 b0bf f82f 79bf
00000320: af8d 063e 0bfe 693d 2e79 1d3f cc80 babe
00000330: 64af 0b3f 004d 35be 63d3 203f f1c9 ccbe
00000340: e684 263f 321e ef3e 6aea febe c620 483f
00000350: b523 8e3e 8f49 be3e 8880 0b3f d604 82bd
00000360: bc6d 4dbf f88f 7cbf ccfa b1be 2b54 763e
00000370: 9333 d5be e86d a9be cf45 32be 91c2 25bf
00000380: c887 063f 30d4 6a3f 14f3 1b3f 558f 1b3f
00000390: 2de7 2a3e f2b2 8abd 3483 fc3d 1dc0 17bf
000003a0: ea9e 4a3f 3389 733f 0ba0 92be befa 46bf
000003b0: 68e8 82bd a3b7 10bf 799b 59bf f255 fabd
000003c0: c6d4 183f f760 0b3e e235 b6be 7007 90be
000003d0: fc5b 71bf ce05 663e 54c1 233f 349d 1cbf
000003e0: 3897 8c3f 2c83 9e3c a5c4 c1bf d8be 35bf
000003f0: 9a7a dc3f 8873 b83f 0922 f33f 7452 c23f
-1.3889639 -1.295487 -1.1677941 -1.8189231 -1.1005346 -1.9460115 -0.84042805 -1.2010006
-1.0722537 -0.512973 -1.1429415 -0.6642197 0.7689838 -1.5500408 -0.8592654 -1.372834
-0.78247136 -0.82967114 -2.0257533 -1.6980927 -0.5891688 -1.3960015 -1.3702054 -0.24804263
-1.0670277 -0.6233109 -1.539652 -0.42177093 -1.6534605 -0.6043431 -1.1996312 -1.4328537
-0.9970415 -0.5645111 -0.8581813 -0.42582357 -1.1475677 -1.2541168 -0.73561513 -0.47384334
-1.0684396 -1.1127045 -0.48638317 -1.5136865 -0.5843095 -1.5344878 -1.8031313 -0.77622414
-0.12826902 -1.6159693 0.5269463 -0.79666334 1.1207097 0.66408414 1.8059877 0.7498925
-0.0864387 0.44669548 0.17970823 -0.1661828 -0.47575882 -0.07174018 0.34215185 -0.20513152
0.10976085 0.23860256 0.2423979 -0.05164534 -0.33204943 -0.7837161 0.057951793 -1.0166342
0.7151293 -0.047999695 -1.2562436 0.22625563 0.5112997 1.2996666 -0.5522993 0.045789935
-0.39513975 0.66034067 -0.23931552 -0.39721337 0.14170375 0.49290884 -0.83440197 0.44350353
0.9362291 -1.0700283 -0.81084514 -0.059091516 0.42791244 -0.866133 -0.35732523 0.4258406
-0.15779485 -0.33426204 -0.12646006 0.5945574 -0.15641576 0.9362702 -0.3754234 -0.004190677
-0.062223267 -0.16101034 0.11989594 -0.026205393 -0.90903187 -0.26811132 -0.7573016 0.3580968
-0.8496038 -0.08295127 -0.08958139 0.030766953 -0.21264216 -0.43118146 0.083683416 -0.21338932
0.30964628 1.69102 1.5548018 -0.54817736 0.12832369 -1.3723997 -0.47328436 -0.47546145
-0.65159845 -0.42406484 -0.2987118 -1.0229028 0.29156998 -0.14968066 0.15709032 -0.14633583
0.43873835 -0.014763122 -1.2441115 0.93805397 -0.5807204 0.40400487 -0.357427 -0.120056495
0.065744944 -0.42166024 0.041915346 0.83808476 0.4336678 -0.08910745 -0.6356926 -1.1623288
-0.41068965 -1.3285617 -0.25582173 -1.5540277 -1.071994 -2.0103393 -1.3542459 -1.4517347
0.41666448 -0.31010213 -1.2001102 0.36440367 -1.0836487 -1.5405407 -1.0357192 -1.0617642
-0.2511348 -1.6636109 -0.90588313 -1.1995399 0.14167723 0.23728655 -0.8827682 -0.013213641
0.24204622 -1.1890626 -0.33424222 -1.179529 -0.71263355 -0.70745414 -0.39661726 -1.2944698
-0.18085589 -1.7206229 0.64720696 0.2295696 -0.13237938 -1.0384265 -0.51345974 -1.0164841
1.1902087 -1.3016404 0.35367298 -1.3560555 -1.1822832 -0.8424566 -1.3757048 -0.9733882
0.13139986 0.05712704 0.6151303 -0.3642639 0.545645 -0.17705154 0.6282255 -0.3999782
0.65046537 0.46702725 -0.4978822 0.7817501 0.27761617 0.37165496 0.54493 -0.06348579
-0.80245566 -0.9865718 -0.34761655 0.24055545 -0.4164091 -0.33091664 -0.17409442 -0.6475001
0.52550936 0.9173002 0.6091778 0.6076558 0.16689749 -0.06772412 0.123297125 -0.59277517
0.79148734 0.95131224 -0.28637728 -0.7772635 -0.06391984 -0.5653021 -0.8500286 -0.12223424
0.59699667 0.13611208 -0.35587984 -0.28130674 -0.9428098 0.22463152 0.6396687 -0.6117737
1.0983648 0.019349657 -1.5138136 -0.7099433 1.7224915 1.4410257 1.8994762 1.5181413

lstm.bias_hh_l0 f4 [400]
00000000: 9b53 aebf da66 a9bf 8a63 88bf 7377 e4bf
00000010: 9e72 77bf 89e9 f3bf f26f 70bf b7c6 b1bf
00000020: 55d3 98bf 1b58 00bf 61e8 93bf ad0b 20bf
00000030: 11e5 533f b5ea cbbf 193d 55bf c9b1 afbf
00000040: 6053 66bf d3c8 43bf 2833 09c0 672d dabf
00000050: fa11 1abf 9835 adbf f342 9dbf 5f55 fbbd
00000060: 1f90 7abf 9a4a 15bf 43a1 c1bf 6346 8cbe
00000070: 75ab cabf 1b07 20bf d1e4 8dbf bdbb b2bf
00000080: 2e33 60bf 6510 1abf afa7 3dbf 0918 ecbe
00000090: db17 99bf 315b 9fbf ad7d 53bf bde0 0dbf
000000a0: b992 8bbf 494a 94bf 07a0 08bf f3ae c9bf
000000b0: dc13 1fbf fb13 c4bf 29c3 d8bf 5983 31bf
000000c0: e009 cbbd 4cc7 dbbf d3f2 1c3f 4945 4fbf
000000d0: f378 803f b543 3d3f 24a8 e73f 00cc 3d3f
000000e0: a274 b5bd 358f cb3e 6585 3b3d b417 2fbe
000000f0: db6e dcbe 6272 20be 710c be3e 6919 67be
00000100: 012f 313e 0d99 ba3e 1831 ae3e 0670 a9bc
00000110: 1523 b6be 814d 48bf f696 613e cde4 6ebf
00000120: 9660 2f3f ab66 a13c bf8d acbf 3ec5 553e
00000130: df09 f63e 8f52 9b3f 83cf e4be e1d9 303e
00000140: 7e72 c4be a3c7 0a3f 2224 76be 6304 e0be
00000150: d914 9c3d 3949 d83e 4051 3fbf 68f8 ed3e
00000160: d663 6a3f 8fc1 86bf 7a2f 47bf 9a31 06be
00000170: c9c2 be3e 2976 6abf 3855 b9be b464 db3e
00000180: b4ad 37bc c8a9 63be 4999 93be 1179 2d3f
00000190: 2af2 96bd 05e3 653f e7b2 d1be eff5 b03c
000001a0: fd80 6fbd d5b7 85be ba62 833d e3b8 cf3d
000001b0: 091c 67bf eca7 2dbe 5f28 1dbf 7f99 ae3e
000001c0: b206 5ebf 362f b7bd 10bf 1cbe dbc9 14bd
000001d0: 4175 3abe 2bbf a0be ffa4 433e 8eb4 34be
000001e0: c778 9c3e e6de d83f 9232 d43f 9700 25bf
000001f0: f3db 1dbd 9548 a8bf c7c6 a7be 5e95 9bbe
00000200: 1705 4bbf 5ce0 0abf 0f8d a6be dec1 80bf
00000210: 8c84 b73e e9a5 4cbe e6b6 403e dd1b 77be
00000220: 4f78 ea3e 0934 78bd 67e2 a3bf f660 423f
00000230: 7f96 2dbf 2b16 c13e 959c a1be 6387 63be
00000240: 0db0 063e 1d09 d2be c6a5 ac3d b2c5 4d3f
00000250: 4dfd f53e e1a2 d9bd a7dd 2cbf f0e0 87bf
00000260: a238 e0be 187f a5bf 811a babd eafd d2bf
00000270: 61be 7abf e2c0 03c0 f746 b8bf 9751 bdbf
00000280: 1a9b 193f 68de bebe f0e9 89bf 4dd0 993e
00000290: 6f35 86bf 79e2 bfbf b9f2 8bbf 9b95 77bf
000002a0: 09fb 74be 477f e1bf 47f5 45bf 3f0e a3bf
000002b0: f719 4b3e 52c4 4f3e 3864 4ebf 7a5b 753d
000002c0: 357a 9f3e 9526 98bf db9f abbe 2905 9ebf
000002d0: 38e0 2dbf 4f22 28bf 2ca8 aabe feef abbf
000002e0: 4cae 1cbe 53e7 e5bf b721 203f f244 b53e
000002f0: 5706 3bbe c90a 88bf 5e8c 11bf a4a0 76bf
00000300: a98b 803f da9f 9dbf 8fcc 873e e8bb aabf
00000310: e5fd 93bf e7e9 4dbf 1030 adbf 8bd9 75bf
00000320: 9e2d 8c3e 5aa0 92bb 9cfb 123f 023d 8cbe
00000330: 64c9 023f 7d9b 6cbd 0aaa 203f 5c9a aabe
00000340: 81ba 023f 9d7f 003f 6bca 18bf 71e6 413f
00000350: 379e a93e fdaa af3e 2105 3c3f 681c 5cbe
00000360: c097 5fbf 43ae 8bbf 06f2 80be a89c a53d
00000370: f1f6 00bf d1e1 91be 295c 06bd fdff 1cbf
00000380: 979d 1a3f b131 823f cc0a 253f 285f 2b3f
00000390: deca 483e 9a99 aebd ec80 2e3e ec1a 06bf
000003a0: a22c 293f a291 773f 774f 9dbe 0cc7 4dbf
000003b0: 572d 59be cd02 15bf 7b26 60bf f3f0 e53c
000003c0: 550e d13e e833 1b3e 1b12 98be 07ca c1be
000003d0: efbf 6ebf 5649 793e 034e 223f d5b0 49bf
000003e0: f2b9 913f f1f1 043e ccb9 c7bf 53e2 58bf
000003f0: 3783 c93f f056 c53f 7b64 f63f 1038 c83f
-1.3619264 -1.3234513 -1.0655377 -1.7848953 -0.96659267 -1.9055644 -0.93920815 -1.3888768
-1.1939493 -0.5013444 -1.1555291 -0.62517816 0.827714 -1.5931002 -0.8329635 -1.3726131
-0.8997097 -0.7647831 -2.1437473 -1.7045106 -0.6018368 -1.353198 -1.2286056 -0.122721426
-0.9787616 -0.5831696 -1.5127338 -0.2739745 -1.5833575 -0.6251084 -1.1085454 -1.3963543
-0.87578094 -0.60181266 -0.7408399 -0.46112087 -1.1960405 -1.2449704 -0.8261364 -0.5542105
-1.0904151 -1.158517 -0.5336918 -1.5756515 -0.6213968 -1.5318598 -1.6934558 -0.69341046
-0.09913993 -1.7170196 0.6130802 -0.80965096 1.0036911 0.7393144 1.8098187 0.74139404
-0.088601366 0.39757696 0.04578151 -0.17098886 -0.43053326 -0.15668634 0.37118867 -0.22568287
0.17303087 0.36444893 0.3402183 -0.0206833 -0.3557364 -0.7824326 0.22030243 -0.9331787
0.68506753 0.019702276 -1.3480757 0.20876023 0.48054406 1.213457 -0.4468957 0.17270614
-0.383686 0.5421087 -0.24037221 -0.43753347 0.07621164 0.42243364 -0.7473335 0.4647858
0.9155859 -1.0527819 -0.7780682 -0.13104859 0.37257984 -0.9158655 -0.3619783 0.42850268
-0.011210848 -0.22232735 -0.28827885 0.6776286 -0.07370408 0.8979953 -0.40956804 0.021601645
-0.058472622 -0.26116815 0.06415315 0.10142686 -0.90277153 -0.16958588 -0.61389726 0.34101483
-0.86728966 -0.08944552 -0.1530726 -0.036325317 -0.18208791 -0.3139585 0.1910591 -0.17647001
0.30560896 1.6943023 1.6577933 -0.64454025 -0.038539838 -1.314715 -0.32768843 -0.30387396
-0.7930464 -0.54248595 -0.32529494 -1.0059164 0.35843313 -0.19985165 0.1881977 -0.24131723
0.45794913 -0.0605965 -1.2803468 0.759292 -0.67807764 0.37712225 -0.31564775 -0.22219615
0.13153096 -0.41022578 0.08430056 0.80379784 0.48044816 -0.1062677 -0.67525715 -1.061552
-0.43793207 -1.2929411 -0.090870865 -1.6483738 -0.97946745 -2.0586476 -1.4396657 -1.4790524
0.6000229 -0.37279058 -1.0774517 0.30041733 -1.0485057 -1.4990989 -1.0933448 -0.96712655
-0.23923887 -1.7616967 -0.7732739 -1.2738723 0.19834124 0.20289734 -0.8062167 0.059901692
0.31147924 -1.1886774 -0.33520398 -1.2345325 -0.67920256 -0.6567735 -0.3333143 -1.3432615
-0.15300864 -1.796122 0.62551445 0.35404164 -0.18264137 -1.0628291 -0.5685481 -0.9633887
1.0042621 -1.2314408 0.26523253 -1.3338594 -1.1561857 -0.8043503 -1.3530293 -0.9603507
0.27378553 -0.004474682 0.57415175 -0.27390295 0.5108855 -0.057765473 0.6275946 -0.33320892
0.5106583 0.5019472 -0.59683865 0.7574225 0.3312852 0.3431014 0.73445326 -0.21495211
-0.8734093 -1.0912555 -0.2518465 0.080865204 -0.503768 -0.28492597 -0.032802735 -0.6132811
0.60396713 1.0171415 0.644696 0.6694207 0.19608638 -0.08525391 0.17041367 -0.5238483
0.6608373 0.96706593 -0.3072469 -0.80381846 -0.21208702 -0.582074 -0.87558717 0.028068995
0.40831247 0.1515652 -0.29701313 -0.37849447 -0.9326162 0.24344382 0.63400286 -0.7878545
1.1384871 0.12982918 -1.5603576 -0.84720343 1.5743169 1.5417156 1.9249414 1.5642109

out.weight f4 [1, 100]
00000000: 0545 463f c693 af3f f4fa dd3f ec92 2fbf
00000010: a80b c73f a1ff c9bf 7eae 463f 1e44 2dbf
00000020: a0d1 493f c411 a53f c839 a2bf 474e 9b3f
00000030: 9a6c 833f 00fa b43f 29e5 773f 6401 94bf
00000040: 1703 67bf a153 9abf 9432 a4bf 5741 4d3f
00000050: c93d 4cbf 85ed c3bf 2c98 21c0 2ba3 7bbf
00000060: 2729 693f f033 9c3f 5f01 773f 29da 933f
00000070: 30b6 c83e 9747 9ebe b317 6dbe 354f 0ebf
00000080: 3c15 513e c100 893f 30a2 52be aa32 77bf
00000090: adf7 c8bf 8ea2 60bf d7c6 63bf 5a1c 83bf
000000a0: 672e ecbe 8050 01bf 232e 7dbf af47 7dbf
000000b0: f223 39bf 2b49 193f 2b3e 7e3f 809b 6abf
000000c0: c747 9e3f f04b 793f 2e9e 38bf b483 03bf
000000d0: e497 443f d8b7 933f 90d4 533f ca8a b33f
000000e0: c555 9fbf 75db 92bf f5f4 a53f 0b9f 17bf
000000f0: 6b30 adbf 1265 88be dc22 cf3e ef37 173f
00000100: 1f63 85bf f65a a7bf 508c a7bf ff53 8ebf
00000110: b232 213f fe0b 4a3f 6670 4e3f b166 ffbd
00000120: 12d1 4f3f 5681 4cbf f647 f8bc 9d37 103f
00000130: 9162 3ebf dcfa 783f 5caa e2be 1231 48bf
00000140: b01f 57bf 4794 343f 4198 3bbf 18c6 f43e
00000150: 9f2f e83e a982 95bf e4a6 493f 052f 7abf
00000160: 9e27 233f 59db 8fbd 5583 f83e c4a4 45bf
00000170: 69c1 95bf 041e 19bf 9612 853f 2022 943f
00000180: d13c 653f b26a 78bf a213 72bf 08f3 91bf
0.77449065 1.3716972 1.734221 -0.6858356 1.5550432 -1.5781137 0.77610004 -0.67682064
0.7883549 1.2896047 -1.2673883 1.2133263 1.0267518 1.4138794 0.96834046 -1.1562924
-0.9023909 -1.2056772 -1.2827935 0.80177826 -0.79781777 -1.530686 -2.5249128 -0.9829585
0.9107842 1.220335 0.9648647 1.1550952 0.39201498 -0.30913994 -0.23153572 -0.5558961
0.20418257 1.0703355 -0.20569682 -0.9656168 -1.5700585 -0.8774804 -0.8897528 -1.0243027
-0.46129152 -0.5051346 -0.98898524 -0.98937505 -0.72320473 0.5987727 0.9931361 -0.91643524
1.2365655 0.97381496 -0.72116363 -0.5137284 0.76794267 1.154048 0.8274622 1.402673
-1.244805 -1.1473223 1.296538 -0.59227055 -1.3530401 -0.2663961 0.40456283 0.5906972
-1.0420874 -1.3074634 -1.3089695 -1.1119384 0.6296798 0.7892455 0.80640256 -0.12470759
0.8117839 -0.7988485 -0.030307751 0.5633486 -0.7436915 0.9725778 -0.442706 -0.78199875
-0.84032726 0.70538753 -0.73279196 0.47807384 0.45348832 -1.1680499 0.7877028 -0.97727996
0.63732326 -0.07024259 0.48537698 -0.7720454 -1.1699649 -0.59811425 1.0396297 1.1572914
0.89545923 -0.97037804 -0.9456121 -1.1402292
