results/02-27-2019/model7/model/encoder.pth (torch_old, 1349 bytes, 4 tensors)

lstm.weight_ih_l0 f4 [12, 8]
0	0x3e7503e0	0.2392726
1	0x403b3eb5	2.9257023
2	0x404107a5	3.0160916
3	0x3f092f70	0.5358801
4	0x40242b8e	2.5651584
5	0x40a3fb82	5.1244516
6	0xbea3b4a1	-0.31973746
7	0xbd017a54	-0.0316108
8	0x3e000baa	0.1250445
9	0xbdb1be31	-0.08678854
10	0xbd4c7811	-0.04991919
11	0xbe4885b5	-0.19582255
12	0x3e8b7715	0.2723929
13	0x3dee1f15	0.11627022
14	0x3d7df1e6	0.06199827
15	0xbf0d4484	-0.5518267
16	0x3e39cb1f	0.18143891
17	0xbeb185ed	-0.3467249
18	0xbf11b59f	-0.56917757
19	0x3e166dbf	0.14690302
20	0x3ea7c608	0.32768273
21	0x3e5fc31a	0.21851769
22	0xbd8b0ec1	-0.067899235
23	0x3f0e9944	0.55702615
24	0xbf835b65	-1.0262266
25	0x3f2cefba	0.67553294
26	0x3f254a95	0.6456693
27	0xbf1755de	-0.591154
28	0x3fcec597	1.615405
29	0x401283b9	2.2892897
30	0xbe8394c2	-0.2569943
31	0xbeb59866	-0.35467833
32	0x3eaf43cf	0.3423142
33	0xbe959d31	-0.2922149
34	0xbed06a2a	-0.40705997
35	0xbf032103	-0.51222247
36	0x3efdd95f	0.49579903
37	0x3dee327f	0.11630725
38	0x3e0ceae1	0.13761474
39	0xc00715ec	-2.110713
40	0x3da1bc22	0.078972116
41	0xbd5c6cd3	-0.05381472
42	0xbe8da60a	-0.2766574
43	0xbbd55460	-0.0065103024
44	0x3ec763a1	0.38943198
45	0x3ecfcb58	0.40584826
46	0x3dbf02ff	0.09326743
47	0x3e6620b9	0.2247342
48	0x3f48a7d4	0.78381085
49	0x3f49b1c7	0.7878689
50	0x3f9cf093	1.2260917
51	0xbd2a64c6	-0.04160001
52	0x3fc92022	1.5712931
53	0x3fdf84a9	1.746236
54	0x3ec2a849	0.38019016
55	0x3ec92871	0.39288667
56	0xbf65f41e	-0.8982562
57	0x3e869202	0.2628327
58	0xbdf8dbc4	-0.12151292
59	0xbeb15b78	-0.34640098
60	0xbf8428d9	-1.0324966
61	0xbf5e27b8	-0.86779356
62	0xbf207218	-0.62674093
63	0xbde5451f	-0.111948244
64	0xbf1daecb	-0.6159484
65	0xbda69001	-0.08132935
66	0xbd162f31	-0.0366661
67	0xbf924d2f	-1.1429805
68	0xbf8eea48	-1.1165247
69	0xbfa7371a	-1.3063691
70	0xbf809e2d	-1.0048271
71	0xc04023dd	-3.002189
72	0x3e4e4ff9	0.20147695
73	0x3e97335a	0.29531366
74	0x3ea407f3	0.32037315
75	0x3cfdb51a	0.030970145
76	0x3f036d93	0.5133907
77	0x3f0cac62	0.54950535
78	0x3de28a9a	0.110615924
79	0x3e1957ed	0.14974947
80	0x3f6b79e1	0.9198285
81	0xbec4c5e8	-0.3843224
82	0xbf2f2783	-0.68419665
83	0xbd588f7a	-0.052871205
84	0x3fba087a	1.4533837
85	0x3f918747	1.1369408
86	0x3f15a8e5	0.5846084
87	0x402bfcbb	2.6873004
88	0x40623ac4	3.5348368
89	0x3ee391ec	0.44447267
90	0x3efa0421	0.48831275
91	0x3feb959a	1.840503
92	0x4031f182	2.7803655
93	0x3fa9901d	1.3247105
94	0x3ff3bb23	1.9041485
95	0x40426d7b	3.0379322

lstm.weight_hh_l0 f4 [12, 3]
0	0xc0bdefd3	-5.9355254
1	0xbe930f0c	-0.28722417
2	0xc0376ff0	-2.8662071
3	0x3ff86478	1.9405661
4	0x401ba887	2.432161
5	0x40efcb41	7.4935613
6	0xbf3e7a3b	-0.7440526
7	0xbf1c7ba0	-0.61126137
8	0x402f7e53	2.7420852
9	0xc11bd76f	-9.740096
10	0x4033f51e	2.8118358
11	0xc0a9c14d	-5.3048463
12	0x409453a9	4.6352124
13	0x41081b84	8.506718
14	0x40c39324	6.1117115
15	0xbfe266ad	-1.7687584
16	0xbfb5409a	-1.416034
17	0x40e5ccd2	7.1812525
18	0xc07a7bd2	-3.9138074
19	0x3e7aa12b	0.24475543
20	0xbf0da597	-0.55330795
21	0xbfdd042d	-1.7266899
22	0xc09568ae	-4.6690283
23	0x4026773e	2.601028
24	0xbe5831ca	-0.21112743
25	0x4073673a	3.8031754
26	0x3ec918a7	0.3927662
27	0xc07fda3b	-3.9976947
28	0x3e293ffa	0.16528311
29	0xc094633f	-4.637115
30	0x4097d733	4.7450194
31	0x402edc0b	2.7321804
32	0xc0a959aa	-5.2921953
33	0x3f2c51fa	0.67312586
34	0xc127d245	-10.488835
35	0xbfb088dc	-1.3791766

lstm.bias_ih_l0 f4 [12]
0	0x3fe544d5	1.7911631
1	0x4085d45c	4.182173
2	0x4015cede	2.3407512
3	0xc1448979	-12.283563
4	0x40b81e78	5.7537193
5	0x3f0db179	0.55348927
6	0xbee1696f	-0.44025752
7	0xc0e137d7	-7.0380664
8	0xc0869915	-4.206187
9	0xc0867098	-4.2012444
10	0x4126fc5b	10.43661
11	0x40eef078	7.466854

lstm.bias_hh_l0 f4 [12]
0	0x400f18d8	2.2358913
1	0x40a0ed24	5.028948
2	0x3fccff29	1.6015369
3	0xc14017f2	-12.005846
4	0x40a39aa9	5.1126294
5	0x3f946196	1.1592281
6	0xbfaa847d	-1.3321682
7	0xc0f33182	-7.5997934
8	0xc087dae3	-4.2454696
9	0xc08168bc	-4.044035
10	0x4125417b	10.328486
11	0x410363e0	8.211884
