results/02-21-2019_n/model/encoder.pth (torch_old, 1349 bytes, 4 tensors)

lstm.weight_ih_l0 f4 [12, 8]
000000 b7 42 bb 3c 77 b0 30 3b 68 81 bb 3c 63 79 4e 3b
       0.02285896 0.002696065 0.022888854 0.0031505458
000010 3f bb 0d 3c 62 c7 c5 ba f2 03 50 3c 03 d5 6e 3d
       0.0086506 -0.0015089328 0.012696253 0.058308613
000020 3a e9 20 bd 32 91 ce 3c db 2b 16 3d 5e 8c ed bc
       -0.039284922 0.025215719 0.036662918 -0.028997596
000030 c3 34 f8 3c 99 65 fa bc 19 f1 f9 3c da b3 39 bd
       0.030298596 -0.030566024 0.030510472 -0.045337535
000040 a5 46 42 bd 7a a9 14 bc ab 21 e3 3c 01 88 1b bc
       -0.047430653 -0.0090736095 0.027726015 -0.009492875
000050 ce e7 d6 bc 03 9e 2a 3e 18 5a 37 3c ad 25 da bc
       -0.02623358 0.16661839 0.011190914 -0.026629293
000060 e0 07 fe bd fc af 16 3e d0 95 27 3e 7b 11 18 bd
       -0.12403846 0.1471557 0.16365743 -0.037126046
000070 1a 41 1a be 51 3d fe bc e9 5f 0a bd 0b 3c e9 3e
       -0.15063897 -0.031035097 -0.033782873 0.45553622
000080 a5 ad 92 bc 80 f1 80 3e 35 c4 61 3e 9d 0c 01 3e
       -0.017905066 0.2518425 0.22047503 0.12602468
000090 a9 63 ae bd 47 01 0a 3f c1 5f 87 bc f0 a3 d1 3e
       -0.085151024 0.539082 -0.016525151 0.40945387
0000a0 08 20 f0 3b 9b b5 02 3e 32 a7 c4 3d a6 c7 80 bc
       0.007328037 0.1276459 0.096022025 -0.0157202
0000b0 94 3b 7c bd 9d ae 76 3e c0 5e 0a be 82 74 0e be
       -0.061580256 0.24090047 -0.13512707 -0.13911632
0000c0 10 77 66 bc e9 49 10 bd a0 b1 2f bd bf e5 86 3c
       -0.014066473 -0.035226736 -0.042894006 0.016466973
0000d0 21 51 42 bc 3b a6 0e bd 5f 7d ee bb 07 82 d2 3d
       -0.011860163 -0.0348265 -0.007278129 0.10278707
0000e0 d2 6d 19 bc c0 c3 0a 3d c9 83 16 3d d7 c5 5f 3c
       -0.009364562 0.033878088 0.036746774 0.013658009
0000f0 11 07 2c bc fa 97 a2 3d c7 35 aa b9 ed a3 8a 3d
       -0.010499732 0.079391435 -0.00032464994 0.067695476
000100 12 c2 fe bc 5c db 8a bd b0 27 96 bd 4a ab af ba
       -0.0310984 -0.06780121 -0.073317885 -0.0013402489
000110 26 f8 56 bd 72 cd ca 3d 17 7d 18 bc e4 7a 1b bd
       -0.052482747 0.09902467 -0.0093071675 -0.037958995
000120 8d dd 98 3d 8c 6a 8e 3f cd 08 be 3f cc 0f b9 bd
       0.074641325 1.1126266 1.4846436 -0.09036216
000130 9a e6 c6 3d 02 13 1e 40 ce 92 95 bd 78 aa 1b 3f
       0.097119525 2.4699101 -0.073033914 0.6080699
000140 c4 ff c0 3e 85 c6 31 3e 50 dd ca 3d 5a 67 e0 3d
       0.37695134 0.17360885 0.09905493 0.10957213
000150 30 ed 40 3f ea f1 2b bd 01 7b a2 3f 07 5f bb 3d
       0.7536192 -0.041978754 1.2693788 0.091489844
000160 42 06 27 bd 46 6f 2d 3e cb 00 9a 3d 0c d8 83 3f
       -0.040777452 0.16936979 0.075196825 1.0300307
000170 08 5e a4 bb 4c e4 63 3e a2 0e 2f 3f 83 6a f2 3c
       -0.005016092 0.22255057 0.683817 0.029591804

lstm.weight_hh_l0 f4 [12, 3]
000000 7a 10 9f bf 55 3d 91 bd cb ba 8a be bd cb e7 be
       -1.2426903 -0.07091776 -0.27095637 -0.45272627
000010 55 9a 99 bf 00 8c a5 be 8d 84 8f be ad 94 86 3e
       -1.2000223 -0.32333374 -0.28030816 0.26285306
000020 24 b8 ce bd 75 ad 0d bf 70 23 46 bd a4 45 04 be
       -0.10093716 -0.553428 -0.04837364 -0.12917191
000030 ca 47 95 3e ab 15 be bf 4a 9e 91 3e 29 9c de 3e
       0.29156333 -1.4850363 0.28441077 0.43478516
000040 62 7b b9 3e e6 32 74 be 41 87 a6 be f9 05 d4 3d
       0.36226946 -0.23847541 -0.32525066 0.10352702
000050 96 cd 45 bd 8f 6a 10 3d 1e 36 b6 be 8f e0 12 bd
       -0.048291765 0.035257872 -0.35588163 -0.035858687
000060 5e 53 22 be af 1c 4e bd 5a c0 34 bf 08 68 4e bf
       -0.15852115 -0.050320324 -0.70606005 -0.8062749
000070 1b 22 58 3e 42 55 d5 3e 4b 46 c4 bf af 21 14 c0
       0.2110676 0.4166661 -1.5333952 -2.314556
000080 bd 4f fb 3f f8 ae ac bf 63 5d e2 bf f8 21 b9 3f
       1.9633709 -1.3490896 -1.7684749 1.4463491

lstm.bias_ih_l0 f4 [12]
000000 0d 6b 08 bf 4b 98 a2 3e 55 27 12 3f fc 14 e8 bf
       -0.53288347 0.31756815 0.57091266 -1.8131404
000010 6b 20 10 c0 50 df 82 bf ba e9 a1 3d 6d 78 70 be
       -2.2519786 -1.02244 0.07905908 -0.23483439
000020 0f d1 50 3e 44 da 8f 3f 2d da 77 40 41 a9 61 40
       0.2039225 1.1238484 3.8726914 3.5259554

lstm.bias_hh_l0 f4 [12]
000000 71 68 c7 3e 54 9e 6c 3f 4b 21 8a 3d 86 bf 23 c0
       0.3894687 0.9242909 0.067446314 -2.5585647
000010 b9 d7 4b c0 52 a0 b7 bf 2b 90 3d be 1e fa f8 be
       -3.1850417 -1.4345801 -0.18512027 -0.48628324
000020 5b 53 36 3f f6 22 bb 3f 8d 92 73 40 06 1d 84 40
       0.7122094 1.4620044 3.8058197 4.128543
