results/03-04-2019_n/downstream/h6/model/decoder.pth (torch_old, 2992 bytes, 6 tensors)

lstm.weight_ih_l0 f4 [24, 6]
000000 56 37 36 c0 cf 67 ce be 28 c2 6f c0 42 ce 00 bf
       -2.8471274 -0.40313575 -3.7462254 -0.50314724
000010 f9 07 de be 09 7a c9 be 7c be 04 bf 30 28 ac c0
       -0.43365458 -0.39350918 -0.51853156 -5.3799057
000020 20 41 48 3f 8e d7 2b 3d 60 0f 25 bf cf b7 37 3e
       0.7822437 0.041953616 -0.64476585 0.17941211
000030 a5 96 76 3e b3 b0 1b bf d4 4f 68 c0 e4 59 77 42
       0.24080904 -0.60816497 -3.6298723 61.837784
000040 66 f3 ce bf 0b 80 a2 be 4d 82 fc be 48 6f e2 3f
       -1.6168029 -0.31738314 -0.49318162 1.769021
000050 45 0b 1a 40 ec 98 57 bd 42 87 a2 3f 3f 2e 8b 3d
       2.4069378 -0.052636072 1.2697527 0.0679593
000060 3c 22 b8 3e 9a ba 83 bf 5d c3 d9 bf e4 be a3 bf
       0.3596362 -1.0291321 -1.7012745 -1.279263
000070 05 98 95 bf 2a 16 ad bf 84 d6 dc 3f cb 29 73 3f
       -1.1687018 -1.3522389 1.7252965 0.94985646
000080 03 3e 44 3e 15 67 32 40 ef 91 f6 be 5d 3e 42 41
       0.1916428 2.7875416 -0.48158213 12.140225
000090 2e 6c b7 40 15 81 9c c0 70 0e b7 c0 0a d2 0b 41
       5.7319555 -4.890757 -5.7205124 8.738779
0000a0 58 46 36 c0 83 64 b0 c0 cb 95 a5 3c f5 8e a6 40
       -2.8480434 -5.5122695 0.020213028 5.204951
0000b0 ab 9b c3 bf 3d 8c 3e 3f 78 ac 60 3f 30 f9 4f 3e
       -1.5281881 0.74432737 0.87763166 0.20309901
0000c0 c1 f6 83 3c 95 3f cc be 10 0d 6e bf 61 b7 57 c0
       0.016108872 -0.3989226 -0.9298868 -3.3705676
0000d0 c0 2a c6 3f 90 27 42 be b3 ad b1 bf f1 56 7e bf
       1.5481796 -0.18960404 -1.3881134 -0.9935141
0000e0 45 04 9d bc d5 ec b4 3e 87 41 94 3c a7 6d 02 3e
       -0.019167075 0.35336939 0.018097652 0.12737142
0000f0 cf 8d 4b bd 09 bc 71 bf ce 66 02 c0 04 8e a8 be
       -0.049695786 -0.94427544 -2.0375247 -0.3292085
000100 1a 5a a7 bf 76 44 37 3e 25 2c 32 3f d0 23 ae be
       -1.3074372 0.1789721 0.6959861 -0.34011698
000110 58 df 71 bf cd 11 64 3f 9b 24 7d be c5 6f 50 c1
       -0.9448142 0.8908966 -0.24720995 -13.0272875
000120 4d 5a ab c1 45 33 29 3f 66 45 a9 3f 22 4c c1 be
       -21.419092 0.66093856 1.3224304 -0.37753397
000130 10 86 78 be e2 41 26 be 73 c4 88 3f 06 79 30 c0
       -0.24269891 -0.1623607 1.0684952 -2.7573867
000140 91 0a 27 c0 47 e5 a8 40 1f 39 8d bf 46 5b 29 c0
       -2.61002 5.277988 -1.1033057 -2.646196
000150 9f 20 e8 bf c6 af 5d be fb 0e e9 be 20 9b 71 c1
       -1.8134955 -0.21649083 -0.45519242 -15.100372
000160 48 a5 e3 be 48 55 77 be b3 35 b7 bf 4d a2 c2 40
       -0.44462037 -0.24153626 -1.4313263 6.082312
000170 99 27 8a 40 7a dc 23 c0 7b d2 5d bf 34 f6 a6 bf
       4.3173337 -2.5603318 -0.8664929 -1.3043885
000180 77 08 92 bf 71 ff ce 40 88 35 8e bf d6 74 72 3e
       -1.1408833 6.468682 -1.1110086 0.23677382
000190 82 5f 6e c0 f7 aa 45 bd 8a 8f c8 3e d7 c6 b0 3b
       -3.7245793 -0.048258748 0.39172012 0.0053947973
0001a0 be fb 6a bf bb a7 91 3e 18 c5 b3 3f 42 df 19 c1
       -0.9179038 0.2844828 1.4044523 -9.617006
0001b0 91 16 4e c0 59 43 8e 40 4a 52 f8 3f 82 4e 19 c0
       -3.2201273 4.445721 1.9400113 -2.3954167
0001c0 44 c8 91 bf cd b1 68 c0 bb 7e 4f bd a8 94 aa 3f
       -1.1389241 -3.635852 -0.05065797 1.3326616
0001d0 d6 4d 42 c0 be ea 27 3d 85 54 53 3f d2 b6 8b be
       -3.0360007 0.040995352 0.8255084 -0.27287918
0001e0 f0 44 98 c0 33 5b ce 3f 01 9e 05 c0 80 df a9 c0
       -4.758415 1.6121582 -2.0877688 -5.3085327
0001f0 ab 3f 6d 40 49 c1 ec 3d 7b 90 13 3f 85 e8 cf c0
       3.707011 0.11560304 0.57642335 -6.4971337
000200 69 b7 0b 3f 48 06 1c 3e c1 0f c4 3f be f8 83 3e
       0.54576737 0.15236771 1.5317308 0.25775713
000210 d6 4b cd 3e 10 e3 0f c0 ba e7 52 c0 78 24 8e bf
       0.4009692 -2.2482338 -3.2953935 -1.1104879
000220 5f 92 fb bf 4c fe 21 c0 e7 e0 54 bf 80 8b 30 bf
       -1.9654044 -2.531146 -0.83155674 -0.6896286
000230 7c ba 3f bf 45 98 8b bf 49 8c 2e 3f 2f d6 6b c0
       -0.7489393 -1.0905844 0.6818281 -3.6849477

lstm.weight_hh_l0 f4 [24, 6]
000000 fa b7 87 3f a6 26 bb 3d f7 d8 99 3e 3a 7e c7 bd
       1.060302 0.09138231 0.30048344 -0.09740873
000010 52 1d a5 3d 9d af c5 3d 35 ab 86 bf 1c 76 9e c0
       0.08062233 0.09652636 -1.0520998 -4.9519176
000020 f4 50 18 bd f5 37 0c c0 ba 45 f2 3f b4 8c 92 3e
       -0.037186578 -2.1909153 1.8927529 0.28622973
000030 9f d6 23 bf d0 44 b0 be 62 05 16 bf 2c 4d 02 bf
       -0.6399936 -0.344275 -0.58601964 -0.50899005
000040 51 fe 93 3e e1 7c 43 3f 21 44 38 3f d3 01 03 40
       0.28904966 0.76362425 0.71978956 2.0469863
000050 ab 2b ae bf 76 09 9f bf 90 71 c5 bf 6a dc 42 bf
       -1.3607076 -1.2424762 -1.5425282 -0.76117575
000060 ef 7a 69 bf 2c e5 98 be 29 6d 38 3f ce 66 b8 3e
       -0.91203207 -0.29862344 0.72041565 0.36015934
000070 67 d0 e6 3e 6f 39 8c 3f f2 a1 b8 3f 32 7e bb 3f
       0.45080873 1.0955027 1.4424422 1.4647887
000080 c2 f2 85 bf 5e 23 3d 3f 62 5e 64 3f af 64 fa bf
       -1.0464709 0.7388209 0.89206517 -1.9561976
000090 0d 44 c6 3e b1 5f f1 3e 45 c9 b2 3e 77 5f 4c 3f
       0.38723794 0.4714332 0.3491918 0.7983317
0000a0 81 f4 1a c0 ff 9d 97 c0 76 a5 40 3e 96 bf 81 be
       -2.4211733 -4.7380366 0.18813118 -0.2534148
0000b0 e0 ce 76 3e 5f 76 82 bf 24 70 0d bf 00 55 97 be
       0.24102354 -1.0192374 -0.5524924 -0.29557037
0000c0 0d 9d 8d 3d 52 fc 46 be d2 63 ad 3f 7b 5d 71 3f
       0.06914721 -0.1943219 1.3546088 0.94283265
0000d0 92 70 94 be 1c 4b 59 bd c5 a7 14 3e f9 5e cf bf
       -0.28992134 -0.053050146 0.14517124 -1.6200858
0000e0 61 53 74 3e ca f4 b7 be fb de e3 3f 59 fb 11 40
       0.23859932 -0.35928947 1.7802423 2.280966
0000f0 fe 63 12 bf 32 a0 a0 be fb af 3c 3f 2c 46 25 3e
       -0.57183826 -0.3137222 0.73706025 0.1614005
000100 96 53 29 3f a3 02 70 3e 3d eb 19 be b0 da 50 3f
       0.66143167 0.23438506 -0.15031143 0.8158369
000110 95 9b dd bd b6 20 8c 3d 3c b6 41 bf 6f 88 56 3e
       -0.108206905 0.068421766 -0.7566869 0.20950483
000120 88 09 98 3f e8 28 5b bd 42 41 88 3e f8 60 91 be
       1.1877909 -0.053505808 0.26612288 -0.28394294
000130 6f be aa 3e d4 0c 22 bf 28 de 51 3f 96 14 f0 3e
       0.33348414 -0.63300824 0.8197961 0.46890706
000140 ff db 8e 3e 62 10 b8 3f c2 0e bb bf 71 85 61 c0
       0.2790222 1.438 -1.4613879 -3.5237696
000150 fa 7a bd be ef 2b c1 bf 87 99 52 40 e9 7b 1e 3f
       -0.37007886 -1.5091532 3.2906206 0.6190782
000160 85 cc 36 c0 f8 2a 46 bd 00 09 f7 3f 02 9b c0 c0
       -2.856233 -0.048380822 1.9299622 -6.018922
000170 eb d1 30 c0 4a d7 b8 3f 24 26 66 3f d0 48 0c 3e
       -2.7628124 1.4440701 0.8990195 0.13699651
000180 0c 16 da 3f e8 06 21 40 5a 67 8e 40 d0 9b cf 40
       1.7037978 2.5160465 4.450116 6.48777
000190 c9 3c 3c 3f a2 d1 61 bf 61 54 9f 3e dc 95 1f 3e
       0.7353025 -0.882105 0.31119063 0.1558451
0001a0 a3 0c f5 be e8 e4 ec 3e 6f e6 86 be c0 26 bd 3f
       -0.47861204 0.46268392 -0.26347682 1.477745
0001b0 15 55 73 c0 18 6b 50 3f 15 1d 19 40 60 22 45 bf
       -3.802068 0.8141341 2.3924 -0.7700558
0001c0 8c c0 5b 40 ad 03 36 c0 70 66 12 bf da 5d c3 bf
       3.4336271 -2.8439744 -0.5718756 -1.5263016
0001d0 9b 1b ba 3e b9 8b a4 bf bf 58 53 3f 45 ef 26 3f
       0.36349186 -1.285514 0.8255729 0.65208846
0001e0 bd 52 2c bf a4 48 50 bf e2 8e 67 3f d0 6b c0 c0
       -0.6731375 -0.8136084 0.90452397 -6.0131607
0001f0 a6 8f 4b 3d 76 b0 d4 be 2d c9 20 c0 e0 f4 f4 be
       0.04969754 -0.4154088 -2.5122788 -0.47843075
000200 ce dd bc bf 89 85 74 bd 15 8f 14 3f 65 a7 a3 3f
       -1.475519 -0.05969766 0.58030826 1.278546
000210 6a 6e b6 be 65 4f 08 40 4c bb 29 40 f3 f4 44 c0
       -0.35631114 2.1298459 2.6520567 -3.0774505
000220 8a 5a 28 41 77 46 8f 3d 96 36 25 3e 3d ac 70 bf
       10.522104 0.06995862 0.16134104 -0.94012815
000230 37 ba 56 3f 15 a7 b0 bc 72 0e 64 3e 8a 85 ed 3d
       0.8387789 -0.021564046 0.22271135 0.11597736

lstm.bias_ih_l0 f4 [24]
000000 9b f4 a8 3e 1e 88 2b 40 9e 3b 93 3f c6 71 16 3f
       0.3299912 2.680183 1.1502569 0.58767354
000010 50 89 3b bf d2 55 03 c0 33 ba 03 c1 07 97 52 3e
       -0.732564 -2.052113 -8.232959 0.20565425
000020 b8 23 a9 bf 38 4a c4 3f 1f 00 d2 3f 47 ff 6a 3f
       -1.3214025 1.533515 1.6406287 0.9179577
000030 38 4b 95 bf c9 e3 8f c0 15 17 33 c0 27 c8 1b 40
       -1.166358 -4.496556 -2.7982838 2.4340913
000040 38 cb 90 c0 5c 27 5f 40 77 23 0b 40 b3 98 66 3f
       -4.524807 3.4867773 2.1740396 0.9007675
000050 4e 03 27 40 b5 49 79 40 2e 08 8f 40 08 3e 67 3e
       2.6095767 3.8951237 4.4697485 0.22582257

lstm.bias_hh_l0 f4 [24]
000000 24 cb 30 3e 5d 45 41 40 40 f1 3c 3f ea c9 df 3e
       0.17264992 3.0198586 0.7380562 0.43708736
000010 81 31 62 bf 32 ad af bf a5 3a 05 c1 6a ec d6 3e
       -0.88356787 -1.372473 -8.3268175 0.41977245
000020 d0 28 91 bf d1 5b f6 3f a6 9d 80 3f a3 e0 8b 3f
       -1.134058 1.924677 1.004811 1.0927929
000030 14 52 74 bf a4 99 90 c0 a9 99 31 c0 ae a6 1a 40
       -0.9543774 -4.518755 -2.7750037 2.4164233
000040 a3 2d 88 c0 88 70 45 40 22 bc 1a 40 8b 0f 69 3f
       -4.255571 3.0849934 2.4177327 0.9103934
000050 d4 7a 27 40 cf b9 7d 40 6e 31 90 40 b3 c9 3d 3e
       2.6168718 3.9644659 4.506034 0.18533973

out.weight f4 [24, 6]
000000 9a ee dd bf f1 ed 89 c0 b7 c5 24 41 49 0c 99 c0
       -1.733844 -4.3102956 10.29827 -4.7827497
000010 90 5f e1 c0 77 b1 b3 40 15 fa 3d 3f 73 c4 1b 40
       -7.0429153 5.615413 0.7420972 2.4338653
000020 7b ad 4b 3f b8 86 79 bf b6 ef 33 40 0e a7 bb 3f
       0.79561585 -0.9747119 2.8115058 1.4660356
000030 bd 71 fe 40 27 7a bf c0 17 11 5d c0 bc 97 84 40
       7.951384 -5.983661 -3.454168 4.1435223
000040 01 ea c9 3f 52 57 ef 40 f8 f5 ab 3f 49 9d bc 3f
       1.5774537 7.479409 1.3434439 1.47355
000050 56 ae 18 3e 0c 52 80 bf dc 58 ac 3f 98 f3 4b 3f
       0.14910254 -1.0025039 1.3464618 0.7966857
000060 2c f9 c9 3f 68 ae 29 40 e2 31 59 3f 20 4f ad bf
       1.5779166 2.65127 0.8484174 -1.3539772
000070 35 19 2b 40 82 78 ca 3f 45 64 95 3f 55 8f 02 40
       2.6734135 1.5818026 1.1671225 2.0399983
000080 9b 8d 16 3f 5c f5 61 bf 16 52 0f 40 d0 09 aa 3f
       0.5880982 -0.88265014 2.2393851 1.3284245
000090 94 3b 93 3f f1 e9 01 40 1f e2 17 3f a5 b3 5c bf
       1.1502557 2.0299037 0.5932941 -0.86211616
0000a0 84 e0 e0 3f 3c 64 a4 3f d4 d5 bc 3f 05 6b 0a 40
       1.7568517 1.2843089 1.4752755 2.162782
0000b0 6c a6 50 3f 7e 05 ef bf b7 01 39 40 a4 4a d7 3f
       0.8150394 -1.8673551 2.8907297 1.6819654
0000c0 f0 f9 ac 3f 5d 90 be 3f 32 21 a3 3e 5f 6c 92 bf
       1.3513775 1.4887806 0.31861264 -1.1439322
0000d0 aa 8c 05 40 be 7a 8a 3f b6 70 9e 40 66 36 98 3f
       2.0867105 1.0818708 4.9512587 1.1891601
0000e0 34 06 d7 3f a2 03 06 c0 64 91 3e 3f 35 f3 fc be
       1.6798768 -2.0939717 0.744406 -0.49404302
0000f0 ea b2 19 41 b5 a0 0a c1 f7 c5 b3 40 fe e8 94 c0
       9.60618 -8.664235 5.6179156 -4.6534414
000100 af f3 2a 41 fc e6 20 c1 6f a7 b1 c0 8a 99 4b c1
       10.684493 -10.056393 -5.5516887 -12.724985
000110 79 ef 09 c1 cd c9 13 c1 99 24 8f 41 5c e1 1a 40
       -8.620965 -9.236768 17.89287 2.4200048
000120 ed de fe be 75 27 87 bf c4 08 a3 bf 23 16 23 c0
       -0.49779454 -1.0558916 -1.273705 -2.548226
000130 a2 3f 9b 40 82 50 b9 3f b4 79 d9 bf 86 ed 90 3f
       4.8515177 1.4477694 -1.6990266 1.1322486
000140 49 2a d3 3f 52 4f a2 3f da 17 88 40 30 85 34 40
       1.649728 1.2680457 4.2529116 2.8206291
000150 97 9e 73 c0 f3 b0 a2 c0 e2 f6 68 41 4a a0 c9 c0
       -3.8065546 -5.0841002 14.560274 -6.3008165
000160 d7 4a 15 c1 68 6c f3 40 88 41 ab 3f cb 3f c9 3f
       -9.330771 7.606983 1.3379374 1.5722593
000170 73 ce 2c bf 95 bd e9 bf 5e d7 95 bd c1 fd b8 3c
       -0.67502517 -1.8260981 -0.07316469 0.022581937
000180 5e 84 25 40 d6 d7 c3 3f dc 1f 0a c0 39 f9 54 c0
       2.586204 1.5300243 -2.1581945 -3.3277113
000190 b5 d6 8e bf 43 bf d5 3e eb 67 ff 3f d2 38 a5 3f
       -1.1159273 0.41747484 1.9953588 1.2907965
0001a0 2e bd 92 bf cf cd 04 c0 8a 13 80 bf d6 3a eb bd
       -1.1463983 -2.0750616 -1.0005963 -0.114858314
0001b0 f7 76 bf 3f 42 48 c8 3f a9 ed 57 bf d7 b5 11 c0
       1.495818 1.5647051 -0.84347016 -2.2767236
0001c0 bc 5f bd be a0 88 01 3e aa 92 85 40 e4 2a f2 3f
       -0.36987102 0.12649775 4.1741533 1.8919339
0001d0 f7 d0 8d c0 8f 73 c0 c0 89 64 c2 bf 16 d9 68 3f
       -4.4317584 -6.0141063 -1.5186931 0.90956247
0001e0 e1 8d d6 3f 99 aa d2 3f 92 fd ac bd 79 eb f7 bf
       1.6762048 1.6458312 -0.08446802 -1.9368736
0001f0 b1 96 42 bf 1b 0d 1f bf 77 ac d0 3f 86 ab 0a bf
       -0.76011187 -0.6212937 1.6302632 -0.54167974
000200 6b ff 83 be 03 1d 0b c0 8a c2 c3 3f 95 e2 96 bf
       -0.25780806 -2.1736457 1.5293744 -1.1787897
000210 d1 c8 2d bf de 73 c3 bf 56 17 34 c0 2f 17 64 c0
       -0.67884547 -1.5269735 -2.8139243 -3.563915
000220 b6 7b 6c 40 7e e7 30 3f 35 42 90 3f 9c 47 f1 bf
       3.6950507 0.6910323 1.1270205 -1.8849978
000230 bd cd 3f c0 de 77 9e c0 79 a6 70 40 99 ae 8f bd
       -2.9969323 -4.952132 3.7601607 -0.07015724

out.bias f4 [24]
000000 4c 19 a3 40 7a 44 3e 3e 2e a4 84 bf bc 52 10 3f
       5.096838 0.18580809 -1.0362604 0.5637624
000010 ca 47 d5 3e 16 ab 82 3e cd 8e 9e 3e 88 71 36 3f
       0.41656333 0.25521153 0.30968323 0.71266985
000020 56 72 11 3f 39 5f a3 3f bc 22 b6 40 c8 c6 09 41
       0.5681509 1.2763435 5.69174 8.611031
000030 b8 34 04 40 d2 b3 41 bf 37 35 c7 40 31 78 85 3f
       2.0657177 -0.7566501 6.225246 1.0427305
000040 f0 d3 01 40 fe be ad 3f 81 4a af 3f 7e 95 55 40
       2.0285606 1.3573911 1.3694612 3.3372493
000050 d0 8d 99 3f 41 07 fb 3f 1f 30 36 40 3e 9e 6f 40
       1.1996403 1.9611589 2.846687 3.7440333
