results/03-04-2019_n/downstream/h6/model/encoder.pth (torch_old, 3804 bytes, 4 tensors)

lstm.weight_ih_l0 f4 [24, 24]
000000 63 18 8b 3d 64 eb 76 3f 96 e6 8d 40 4c 15 9f 3f
       0.06791761 0.9645293 4.4343977 1.2428374
000010 d8 62 ce 3f f2 88 0d 3f 24 e8 81 3f 86 8d b7 3f
       1.6123915 0.55287087 1.0148969 1.4340065
000020 a5 54 68 3f 08 98 3c 40 48 b2 4c 40 9b ee 36 c0
       0.9075416 2.9467793 3.1983814 -2.8583133
000030 c3 49 93 be f9 e1 e1 bf a1 24 47 bf eb b0 57 3f
       -0.28767213 -1.7647086 -0.77790266 0.8425433
000040 0d 21 9a 3f d1 7a 88 3f af df 8c 3f ae 8d 81 3f
       1.2041336 1.066248 1.1005763 1.0121362
000050 95 44 eb 3f 2c f2 55 3f 01 80 47 bf 84 2f 56 be
       1.8380305 0.8357265 -0.77929693 -0.20916563
000060 67 ee ac be 1c c5 25 3f 1a e1 2b bf cc 83 7b 3f
       -0.33775637 0.6475389 -0.6714035 0.9824798
000070 39 02 41 3f 43 0b 82 3f a8 48 ad 3f 51 f8 17 3f
       0.75394017 1.0159687 1.3537798 0.59363276
000080 cf 11 fd 3f c3 15 28 3f 56 ad f4 3e 19 79 d4 be
       1.977106 0.65658206 0.47788495 -0.4149864
000090 c0 04 86 3f 17 af ba 3f 13 8e d1 3e a3 2a 42 3f
       1.04702 1.4584683 0.40928707 0.7584631
0000a0 46 8e 90 3f 55 ce 89 3f b7 5d 7d 3f 5e 46 f0 3f
       1.1293418 1.0766093 0.9897112 1.8771474
0000b0 89 93 fa 3e e2 f2 de 3f bf cf 9b 3d e9 d2 49 3f
       0.48940685 1.7417872 0.07607984 0.7883745
0000c0 92 2f df 3f 0d aa 0d 3e 91 f4 62 3f 7f 23 04 40
       1.7436392 0.138344 0.8865443 2.0646665
0000d0 a9 cd 55 3f 8a 9f 94 3f 74 fe 8c 3e ca 80 96 bf
       0.8351694 1.1611187 0.27537882 -1.1758053
0000e0 a2 e6 9d 3f df 02 42 40 5a 1a d1 3f c8 4a 92 bf
       1.2336009 3.0314252 1.6336167 -1.1429071
0000f0 73 9b 59 bf 5a 7a 8a 3f 32 88 aa 3f 49 a2 4f 3f
       -0.8500282 1.0818589 1.3322814 0.81107
000100 0b 0c 44 3f 5c 8c ed 3f 06 5f 96 bc 59 5d e2 be
       0.76580876 1.8558459 -0.018355858 -0.44211844
000110 12 bb 17 40 2a 55 f6 3f 6a f7 67 bf f9 b1 5a be
       2.3707929 1.924474 -0.906119 -0.21356954
000120 ce 63 f0 3c 21 9f 49 3d 31 04 81 be 02 c7 92 3d
       0.029344466 0.049224023 -0.2519851 0.07166864
000130 42 a1 80 3d d8 38 6a 3d 7e 9e 9c 3d c1 85 31 3d
       0.062807575 0.057183117 0.076474175 0.04334045
000140 c0 87 42 3d d4 14 93 3d 25 1c 5b bb a0 09 d4 3d
       0.047492743 0.07181707 -0.0033433523 0.10353398
000150 ba ef 2d 3d 0e bd 63 bd 7c 0f a3 3d ca 27 cd 3d
       0.04246495 -0.05560022 0.07961938 0.10017355
000160 7c 6b 01 3e 39 cf 9c 3d 93 f5 d1 3d 31 fa 50 3e
       0.12638658 0.07656712 0.10251918 0.2040794
000170 06 49 b4 3d 82 94 27 3c d7 63 8e 3d 5b b5 d9 3d
       0.088029906 0.010228278 0.06952637 0.10630294
000180 9f d6 37 be e6 7f b9 3e 01 6e 06 be 1d 17 e6 3d
       -0.17952965 0.3623039 -0.131279 0.11234877
000190 ba ec a9 3e fe 61 88 3e e5 16 79 3e 8e 22 ae 3e
       0.3318842 0.26637262 0.2432514 0.34010738
0001a0 7e ff 58 3e 19 f3 bf 3d 27 b2 8d 3e 28 89 92 3e
       0.21191213 0.09372539 0.27674982 0.28620267
0001b0 5f 5c 8b 3e 62 18 01 3f b2 8b 97 bd 61 34 df 3b
       0.2721891 0.5042783 -0.07399692 0.006811664
0001c0 56 02 64 be 7a 99 84 be 4a 5f 8d bd d2 48 d5 be
       -0.22266516 -0.25898343 -0.069029406 -0.4165712
0001d0 f2 9e 20 be b9 3f 57 bd 24 6f 48 3e ab c6 96 bc
       -0.15685633 -0.052551005 0.19573647 -0.01840528
0001e0 55 15 05 3f 4d b4 99 3f d0 d6 04 40 95 e0 08 40
       0.51985675 1.2008148 2.075611 2.1387074
0001f0 80 c8 c3 3f 74 1a 1f 40 10 08 d6 3f 39 a2 f1 3f
       1.5295563 2.4859896 1.672121 1.8877631
000200 93 f3 44 40 cb b3 0b 40 f2 25 1a bf 8c 13 52 3f
       3.0773666 2.1828487 -0.6021415 0.82061076
000210 1a 18 c6 3f c4 81 94 3f b5 f6 40 3e e7 8c d0 3f
       1.5476105 1.1602101 0.18844111 1.6293
000220 db 6c 0a 40 42 fd b2 3f ee 69 4c 3f bf d2 b7 3f
       2.162894 1.3983538 0.79849136 1.436119
000230 0a 3d 5e 3f 09 69 df 3f 76 fd 3f 40 de 99 f6 3f
       0.8681189 1.7453929 2.999845 1.9265707
000240 89 00 0d bf f3 d9 b4 3e b3 29 2d 40 50 f1 53 3f
       -0.5507894 0.35322532 2.70567 0.8279009
000250 c3 74 f4 3e c4 d7 22 3f be 55 52 3d 1a f9 c3 3e
       0.47745332 0.6361048 0.0513513 0.38275987
000260 81 bc 16 3e c0 84 b9 3f a3 b7 1c 40 e4 21 10 c0
       0.14720346 1.4493637 2.4487083 -2.2520685
000270 5a 97 83 bf 80 3a f7 be 09 6c 3a bf 7a 3a a0 3f
       -1.0280564 -0.4828682 -0.728211 1.2517846
000280 87 c5 a1 3f 34 73 74 3f 5b 08 bf 3f b0 36 1e 3f
       1.2638406 0.95488286 1.4924425 0.61802197
000290 01 18 b2 3f 8b 7d 1c 3f a9 ff 35 bf 86 1c 9d 3e
       1.3913575 0.61129063 -0.7109323 0.30685824
0002a0 4d f2 4f be 73 1c 85 3e 8f 37 0c bf 3b 3a ff 3d
       -0.20307274 0.25998268 -0.54772276 0.124622785
0002b0 a7 55 73 3e ac 1d 58 3e df 28 2d 3e 85 b8 4a 3e
       0.23763143 0.21105069 0.16910122 0.19796951
0002c0 ab c5 19 3e aa 53 1c 3e cb 94 a1 be 92 bb 04 bf
       0.1501681 0.1526629 -0.31558833 -0.5184871
0002d0 9d 2a b3 3d fd 70 00 3e 9c dc 37 be cc ae 6a 3e
       0.08748362 0.12543102 -0.1795525 0.22918242
0002e0 2a 03 cf 3d 48 48 2a 3e 1d 44 a1 3d 8f be 20 3e
       0.10108025 0.16629136 0.0787432 0.15697692
0002f0 79 46 52 3e 53 29 ac 3c fb 3c c1 bc 7f 27 84 bd
       0.20534696 0.021015799 -0.023588648 -0.06452846
000300 df 2b 68 3f 69 77 01 3f cb 31 96 bf d8 51 f3 3e
       0.9069194 0.5057283 -1.1733946 0.4752338
000310 dc 9e 51 3f fc 32 fd be 2d b6 da bb 91 f2 94 3e
       0.81883025 -0.4945296 -0.006674549 0.29091313
000320 8d 8a bb be ba ce 29 3f 83 ea c3 3f 3b b0 09 c0
       -0.36629143 0.66331065 1.5305942 -2.1513813
000330 ea 3e 0e be dc ad ad 3e 8b cc c7 3f a3 15 73 bf
       -0.13891187 0.33921707 1.5609297 -0.9495489
000340 15 d6 e6 bf 80 cb e3 bf 43 f2 4e 3e 90 66 c9 3d
       -1.8034083 -1.7796478 0.20209603 0.09834015
000350 aa 2d 8a bf 49 89 b7 3e da 70 67 bf 3b 71 34 3d
       -1.0795186 0.35846928 -0.9040657 0.044053297
000360 d0 80 a8 3e 39 07 4c bf 3c 6e 54 bf f5 23 b7 3e
       0.32910776 -0.7969852 -0.82980704 0.3576962
000370 4e be 94 3e 38 ee 50 bf 2d e1 15 3f 11 c1 36 3e
       0.2905144 -0.8161349 0.58546716 0.17847086
000380 54 ef 35 bf 4c 9e e0 be 80 f5 63 3f 80 e7 c6 3e
       -0.7106831 -0.4387077 0.8904648 0.38848495
000390 65 1d 13 3f 1b 17 c6 be 5a dc 6b 3f c4 b0 11 3e
       0.5746673 -0.38689503 0.92133105 0.14227587
0003a0 c7 20 81 3f c1 b1 8f 3e 48 67 d2 3f 36 7d 87 3f
       1.0088128 0.28065303 1.6437769 1.0585086
0003b0 39 89 89 bf b3 a1 ad be 82 ce 06 3e b6 b0 9f 3f
       -1.0745002 -0.3391243 0.13164714 1.2475803
0003c0 76 79 c3 bf eb 48 bb 3c 2f 48 5a bf 88 2f 0c 3f
       -1.5271442 0.022861918 -0.85266393 0.54760027
0003d0 42 fa 92 3f 5b e2 0b 3f e1 4a 89 3e f3 dd d4 3f
       1.1482623 0.54642266 0.2681494 1.6630234
0003e0 46 ef 90 3f 42 16 17 bf ae 73 f1 3f 81 3d 86 3f
       1.132302 -0.5901834 1.8863428 1.048752
0003f0 a7 89 a5 3f 5a b1 22 40 5f aa f4 bf d3 55 a2 bf
       1.2932633 2.5420747 -1.9114493 -1.2682441

lstm.weight_hh_l0 f4 [24, 6]
000000 3f fa 93 40 a8 78 e7 c0 97 4d d9 3f f6 7b b7 bf
       4.6242976 -7.2334785 1.6976804 -1.4334705
000010 29 a1 7b bd ef b0 0a c0 df db 08 41 df 58 b5 c0
       -0.06143299 -2.1670492 8.553679 -5.6670985
000020 91 8a 2e 40 99 2c 6d bf 7a e1 10 40 29 c1 0c c1
       2.7272074 -0.92646176 2.263762 -8.797158
000030 8c 51 bd bf c3 2e 3c 40 b7 70 38 c0 51 ca 1d c0
       -1.4790511 2.940354 -2.8818796 -2.4654734
000040 4f 2c b2 40 fc 7d 86 3e 58 cc 19 3f e6 f2 37 3f
       5.567909 0.26267993 0.6007743 0.7185501
000050 d6 56 4f 3f 84 b6 3a 3f e8 ac 07 bf b1 5a 04 be
       0.80991876 0.72934747 -0.5299821 -0.12925221
000060 d9 cb a5 3d be d8 73 3f 07 f9 13 c0 22 40 ad 3d
       0.080955215 0.952526 -2.3120744 0.08459498
000070 cb 13 4d c0 c2 4e ab be d2 94 48 3f 65 2f 12 40
       -3.204333 -0.33458525 0.7835208 2.2841427
000080 e6 c0 ed 3f 5c ba 49 c0 60 31 d3 bf fe 58 21 41
       1.8574493 -3.1519995 -1.6499443 10.084227
000090 ca 28 1b 41 78 bd da c0 f4 3a 10 c1 70 15 e5 40
       9.697458 -6.8356285 -9.014393 7.158867
0000a0 eb 67 0a c1 b8 27 35 40 74 ad 0f bf c5 82 9c c0
       -8.650371 2.8305492 -0.56124043 -4.890963
0000b0 8d 86 48 3f 75 3b 2c 3e 1a 0e 68 be e4 45 4b 3f
       0.7833031 0.16819556 -0.2266163 0.7940352
0000c0 07 4d a6 bf 58 b3 d0 3f 56 e4 86 c1 89 12 68 41
       -1.2992257 1.6304731 -16.861492 14.504525
0000d0 58 74 8c 3f 57 8e ec bf 46 f0 8a be ee 44 d9 3f
       1.0973005 -1.8480939 -0.2713644 1.6974161
0000e0 eb 8f 19 c1 72 77 39 41 ed f5 76 c1 80 ae ef c0
       -9.597636 11.591661 -15.43504 -7.4900513
0000f0 51 a6 b6 40 1e be 9b 3e 5a ce 3c c1 8b c2 05 40
       5.7078023 0.30418485 -11.800379 2.089999
000100 b4 bc 8b c1 f7 be 38 c1 73 50 86 40 9f f4 15 41
       -17.46714 -11.546622 4.1973205 9.372222
000110 66 4b a8 c0 e8 bb 5e 41 f4 96 29 c0 ea bf 9a 3f
       -5.259204 13.920876 -2.6498384 1.2089818
000120 2e 6a 4b be a6 05 ad bf 3d a8 ac c0 ef 91 80 40
       -0.19864723 -1.3517349 -5.395537 4.017814
000130 94 38 0e c0 bd d7 ae bf 4e 7f 5e c0 39 e4 4d c0
       -2.2222033 -1.3659588 -3.47652 -3.2170546
000140 72 b7 64 41 16 2a 2c c1 5e 8d 19 41 be ed 72 40
       14.294786 -10.760275 9.597013 3.7957606
000150 d4 fc e8 3c 04 ab 9c 3f 4f 84 3e c0 f8 ba 13 c0
       0.02844087 1.223969 -2.9768255 -2.3082867
000160 ed 93 c5 40 de c3 9b 40 95 bf ec bf 22 f1 a5 3f
       6.1743073 4.8676596 -1.8495966 1.2964213
000170 9c 62 02 bf d7 5b f5 c0 80 39 eb be 05 5d 70 3f
       -0.50931716 -7.667461 -0.45942307 0.93891937
000180 22 d0 91 be 22 95 0f c0 80 e5 9d bf d9 47 8e bf
       -0.28479105 -2.2434773 -1.2335663 -1.1115676
000190 8b 5b 0c c0 d3 c8 f6 3e 33 3e 1f 41 4f c6 7c 40
       -2.1930873 0.48200092 9.952685 3.9496038
0001a0 44 f5 73 3f 75 92 00 40 1a ef ac 3f 5c 04 6a 3e
       0.9529612 2.008939 1.3510468 0.22853225
0001b0 0b 33 43 40 f5 12 26 bf a6 62 b1 bf 25 4c 6b 3f
       3.0499904 -0.64872676 -1.385823 0.9191306
0001c0 35 1c 38 bf 1a 85 c5 3c e6 be 30 c0 01 de b2 c0
       -0.7191804 0.02411132 -2.7616515 -5.5896
0001d0 5f 3f 19 41 e7 24 b0 c0 0d a6 f3 40 00 04 de 3f
       9.577971 -5.5045047 7.61402 1.7344971
0001e0 9d d2 14 c0 ab bc c2 bf b0 1d f2 3e a3 54 4a c1
       -2.3253548 -1.5213827 0.47288275 -12.645663
0001f0 cb 30 f4 40 f6 45 c6 40 a2 7b bd 3e 74 14 91 bf
       7.630956 6.19604 0.37008387 -1.1334367
000200 e5 6e 29 bf 15 e0 91 40 48 22 97 3f 7f 15 1d bf
       -0.66184837 4.558604 1.1807337 -0.61360925
000210 de 42 38 bf 4e 90 ed 40 36 0a 59 be 8c 96 d7 c0
       -0.7197703 7.4238653 -0.21195301 -6.7371273
000220 72 ad 83 bf a1 7d 9a 40 cb ce 98 bd 34 31 1e bf
       -1.0287306 4.8278356 -0.07461318 -0.6179383
000230 91 a9 03 3f c5 e3 ec bd 84 f4 84 3d 3f 91 9c bf
       0.5143061 -0.11566881 0.0649195 -1.2231826

lstm.bias_ih_l0 f4 [24]
000000 af 08 fe 3f 38 c8 e4 40 6a a3 22 41 f3 25 d6 bf
       1.98464 7.149441 10.164896 -1.6730331
000010 e8 9d 96 bf bf 9e 4f 40 8d 6f 51 c1 bd 61 97 3f
       -1.1766939 3.244064 -13.089734 1.1826702
000020 7e 9b 20 c1 a6 cc a2 c1 2e e9 82 c1 18 67 37 c1
       -10.037962 -20.349926 -16.363857 -11.462669
000030 15 6d 1f c0 36 d6 89 41 5d 72 08 41 26 70 2b bf
       -2.4910328 17.229595 8.527921 -0.66968
000040 1c c6 69 3f 7f 91 1f 40 44 33 b1 bf 9e 18 32 41
       0.91317916 2.4932554 -1.384377 11.13101
000050 e2 4a 85 41 40 0c 61 bf 24 ac 90 40 01 63 db 3f
       16.661564 -0.87909317 4.5210133 1.7139589

lstm.bias_hh_l0 f4 [24]
000000 34 17 b7 3f d3 da cb 40 c9 29 24 41 16 04 8b bf
       1.4303956 6.370462 10.260201 -1.0860622
000010 71 d1 92 bf d7 09 5d 40 17 42 49 c1 b7 21 68 3f
       -1.1470166 3.4537256 -12.578635 0.90676445
000020 84 bb 26 c1 67 b4 9e c1 f8 51 83 c1 d1 f7 36 c1
       -10.42078 -19.838087 -16.415024 -11.435502
000030 a6 c5 0f c0 0b a6 8a 41 95 5d 01 41 2c ea 87 bf
       -2.2464385 17.331076 8.085347 -1.0618339
000040 95 ac 8f 3f f4 79 3f 40 be 7c 9d bf 99 a7 2d 41
       1.1224543 2.9918184 -1.2303693 10.853417
000050 a4 24 87 41 d5 24 46 bf c1 da 8c 40 6f a6 d9 3f
       16.89289 -0.7739995 4.4017034 1.7003917
