results/03-04-2019_n/downstream/h2/model/encoder.pth (torch_old, 1621 bytes, 4 tensors)

lstm.weight_ih_l0 f4 [8, 24]
0	0x4035e740	2.8422394
1	0x4015a932	2.3384519
2	0x401baf5b	2.4325778
3	0x3f88b789	1.068101
4	0x3ff21f9e	1.8915899
5	0x3fb99944	1.4499898
6	0x3fcaabbe	1.5833662
7	0x3f56cb49	0.8390394
8	0x3fcbdbd5	1.5926462
9	0x400369ea	2.0533395
10	0x3f6b2b18	0.9186263
11	0x40909d56	4.519206
12	0x4082f4e7	4.0923953
13	0x3ff1f979	1.8904258
14	0x3fe719de	1.8054769
15	0x3fb0a9dc	1.3801837
16	0x3f5e7618	0.86898947
17	0x3f8f4728	1.119359
18	0x3f5e1a88	0.86759233
19	0x3f89c7fa	1.0764153
20	0x40070b32	2.1100583
21	0x3fd7b583	1.6852268
22	0x4052ad49	3.2918265
23	0x402bebb0	2.6862602
24	0x3dbc7a02	0.09202959
25	0x3e480cc1	0.19536115
26	0x3e19bcd8	0.15013444
27	0x3e20e3ea	0.15711942
28	0x3e56df04	0.20983511
29	0x3e29a486	0.16566667
30	0x3e2324b9	0.15931977
31	0x3e4aa5c2	0.19789794
32	0x3e130c52	0.14360169
33	0x3e760520	0.24025393
34	0xbd96df1f	-0.07366776
35	0xbd8a11d3	-0.06741681
36	0x3d8052fa	0.062658265
37	0x3dc23d44	0.09484342
38	0x3dbfeaaa	0.093709305
39	0x3dede079	0.116150804
40	0x3dee8677	0.11646741
41	0x3d3e67b9	0.046485636
42	0x3dccc111	0.09997762
43	0x3dcfa6b5	0.10139219
44	0x3d95a0c5	0.07306055
45	0xbc6614f6	-0.014043083
46	0xbd353c65	-0.04424705
47	0x3cad7964	0.021176048
48	0x401db4b2	2.4641538
49	0x4011b3e6	2.2766051
50	0x3fa1496c	1.2600532
51	0x4060657c	3.506194
52	0x3f5be855	0.85901386
53	0x40050e8c	2.0790129
54	0x401ea86b	2.4790294
55	0x3fe438b9	1.782981
56	0x40074f2a	2.1142068
57	0x402e8917	2.7271173
58	0x3fcd49e9	1.603818
59	0x3ea1c6c5	0.31596962
60	0x3ff6aee8	1.9272127
61	0x405f2d9b	3.4871585
62	0x3fafe701	1.3742372
63	0x3fcd5a17	1.6043118
64	0x3f429f38	0.760242
65	0x4064b775	3.5736973
66	0x3fb8cdb4	1.4437776
67	0x3f0fa344	0.561085
68	0x4036f524	2.8587122
69	0x3eea523e	0.4576587
70	0x3dc92512	0.09821524
71	0x3f2d35ac	0.6766002
72	0xbe27bf0f	-0.16381477
73	0xbfa34547	-1.2755517
74	0x3ea1e7cb	0.31622157
75	0xbf9b0ef2	-1.2113936
76	0xbf887ffe	-1.066406
77	0xbf9625f3	-1.1730331
78	0xbfdcda70	-1.7254162
79	0x3eb60d10	0.3555684
80	0xbf169231	-0.5881682
81	0xbfd79e14	-1.6845117
82	0xbf08dd2a	-0.5346247
83	0x3f94ff6a	1.1640446
84	0x3f8a7b4b	1.0818876
85	0x3f9c1120	1.2192726
86	0xbf27cd90	-0.6554804
87	0xbf603c39	-0.8759189
88	0xbf985589	-1.1901103
89	0xbfa55165	-1.2915465
90	0xbe6df28d	-0.23237057
91	0xbfda2a1d	-1.7044102
92	0xc0223f91	-2.5351298
93	0xbf063612	-0.52426255
94	0x3ed92c9c	0.42416847
95	0xbd91599c	-0.0709717
96	0xbe974ede	-0.29552358
97	0xbe2f99a6	-0.17148456
98	0xbe9f7eb3	-0.3115135
99	0xbe74e19e	-0.23914191
100	0xbdc2bcd2	-0.09508671
101	0xbe4dca9b	-0.20096819
102	0xbe4cd667	-0.20003663
103	0xbd71e6c8	-0.05905798
104	0xbe8a86c2	-0.27055937
105	0xbf04b3e2	-0.5183698
106	0xbe2d2917	-0.16910206
107	0xbed69e87	-0.41917822
108	0xbea76bdc	-0.32699478
109	0xbeb5831b	-0.35451588
110	0xbe835491	-0.25650457
111	0xbeb7b7b7	-0.3588235
112	0xbed43383	-0.4144555
113	0xbe821064	-0.2540313
114	0xbe88eb7d	-0.26742163
115	0xbec87a60	-0.39155865
116	0xbefe5061	-0.496707
117	0xbdc637b4	-0.09678593
118	0xbe2d9773	-0.16952305
119	0xbedc9727	-0.4308407
120	0x3cbccf3b	0.023048034
121	0xbf7d0c97	-0.98847336
122	0xbdc49da2	-0.096003786
123	0xbf2f438a	-0.6846243
124	0xbedd151e	-0.43180174
125	0xbfd7a0a5	-1.68459
126	0xbfa6f298	-1.3042784
127	0xbec65bae	-0.3874182
128	0xbfbe2c2a	-1.4857228
129	0xbff72bed	-1.931028
130	0x3ec83ece	0.39110416
131	0x40277550	2.6165352
132	0x3faac16b	1.3340276
133	0x3f3d6ab1	0.73990923
134	0x3f684a84	0.907387
135	0xbf1ab445	-0.6043132
136	0xbf87fdf1	-1.0624372
137	0x3aa6ef00	0.0012736022
138	0xbf284e3f	-0.65744394
139	0xbfbcfbae	-1.4764307
140	0xc0447d03	-3.07013
141	0x3f054b01	0.5206757
142	0x3eb8d864	0.36102593
143	0xbf455b29	-0.77092224
144	0xbe0ac78f	-0.13552688
145	0xbcffe0ea	-0.031235177
146	0xbcee2f14	-0.029075183
147	0x3ba507da	0.0050363364
148	0xbc8ca255	-0.01716725
149	0xbc902285	-0.017594585
150	0x3ccaaacc	0.024739645
151	0xbd6baf58	-0.057540268
152	0xbd963c7c	-0.07335755
153	0xbdc59957	-0.09648388
154	0xbe66f7d1	-0.22555472
155	0xbec19022	-0.37805277
156	0xbe50a4e8	-0.20375407
157	0x3baaa715	0.005207906
158	0xbe525370	-0.20539641
159	0xbdae843d	-0.08521316
160	0xbc8a7e51	-0.016905935
161	0xbc55e05f	-0.0130539825
162	0xbd87b407	-0.06626134
163	0xbdef2d79	-0.11678595
164	0xbd9769f7	-0.07393258
165	0x3c6921fc	0.014229294
166	0xbe0b1b42	-0.13584617
167	0xbe0d7dc7	-0.13817511
168	0x3e1bf329	0.15229477
169	0x3e004030	0.12524486
170	0xbece4f59	-0.40294912
171	0xbf1e3885	-0.6180499
172	0xbeb17275	-0.34657636
173	0xbf1ebe24	-0.6200888
174	0x3f8b231e	1.0870092
175	0xbf27abb4	-0.65496373
176	0xbee584a0	-0.44827747
177	0x3fe638a3	1.7986034
178	0xbfa78ac9	-1.3089229
179	0xbf80f35a	-1.0074265
180	0xbf41b753	-0.75670356
181	0x400a78bd	2.1636193
182	0xbe993c9f	-0.29929063
183	0x3f98ec13	1.1947044
184	0xbdcc9d45	-0.09990934
185	0x3fb3b134	1.4038453
186	0xbe7630be	-0.24042031
187	0xbf2b809d	-0.66993123
188	0x40420537	3.0315683
189	0x3eee784d	0.46576157
190	0xbe103557	-0.14082848
191	0xbebed8d4	-0.37274802

lstm.weight_hh_l0 f4 [8, 2]
0	0xbfe023ea	-1.751096
1	0xc0635480	-3.5520325
2	0xbdd65f4e	-0.10467397
3	0x3e264272	0.16236284
4	0xc0d5a6a7	-6.6765933
5	0xc0821e3a	-4.06619
6	0x412018dd	10.00607
7	0x40c68250	6.2034073
8	0xbf07cc62	-0.5304624
9	0x40350885	2.828645
10	0x415142fb	13.078853
11	0x412dd8b4	10.865406
12	0x40142c0f	2.3151891
13	0x3f8ebfc7	1.1152276
14	0xc160bf52	-14.046709
15	0xc082b668	-4.0847664

lstm.bias_ih_l0 f4 [8]
0	0x40fd4563	7.91472
1	0xbf96876e	-1.176008
2	0x40a3b692	5.1160364
3	0xc0b650e3	-5.697374
4	0xc0acb947	-5.397617
5	0xc17f6913	-15.963153
6	0x407c28f1	3.9399989
7	0x418edd1e	17.857967

lstm.bias_hh_l0 f4 [8]
0	0x40fe7dbe	7.9528494
1	0xbf7b83ed	-0.9824818
2	0x40a5c044	5.17972
3	0xc08fb15a	-4.4903994
4	0xc088538d	-4.260199
5	0xc170eb68	-15.057472
6	0x40502e54	3.2528276
7	0x41889640	17.073364
