src/saved_model/model_all_ca/decoder.pth (torch_old, 849027 bytes, 6 tensors)

lstm.weight_ih_l0 f4 [440, 110]
00000000: a6a9 47bf 0845 e83b a512 0fbf 3040 053f
00000010: c6ae 353f 2b6a 40bf 4ded 72be df5d 153f
00000020: 8c16 a13c a528 9ebe 4fa1 2abf 5de7 583c
00000030: 8fa9 07bf 65f3 babe a04b 7c3e 8765 f6bd
00000040: eadd 6c3d d658 fa3e ee46 283f 6fce 3a3f
00000050: 9a46 c2be 5e88 f7be 8901 5abf ce63 b1bd
00000060: 3a38 263f d7f0 62bf 3941 c7be 1154 9e3d
00000070: e4f4 ba3c 6e65 19bf cb93 bdbe d48d 8f3f
00000080: 25f1 b63e 7209 d23a b26e 2ebf ba3d 1fbd
00000090: 6bd4 183e c63f 1cbf 72cd f53c 3129 f43e
000000a0: 18c0 0fbe e93c 0e3f 42cb b7bd 5136 17bf
000000b0: c434 41bd 8fba 463f 0f53 733e 7210 ebbe
000000c0: c65e 13bd d7a8 29bf 72b8 aa3e a140 9f3d
000000d0: 8b0c 623e bde6 14bf 63fc a8bd fe86 afbe
000000e0: 2402 04bf fd1d 3b3f f4e7 16bf 233b 323e
000000f0: 11ab 2b3e 942e 70bf 425e c2bd 2d19 b33d
00000100: ff71 f7bd a991 053d 8838 143f ebb9 073f
00000110: ae0c 273f 972b d33e 3b90 193f 340f 3b3e
00000120: b144 11bd 2f5c 823f 002b 2c3f b59a 0f3f
00000130: bdbc 05bf 702c 3dbf 3778 513f c247 c03b
00000140: ae7c 19bd afdc 40bf 217b 4d3f 68ed d33e
00000150: 84c3 2bbf 5401 c13e f2fb 74bf 3d59 a93d
00000160: ed72 733e 12a1 86be e067 ebbe aa34 0b3f
00000170: 187f 3ebf 5a69 fa3e 67d8 5dbd bb49 06be
00000180: 5d9e 3abf 305c c63e 37f5 86ba d58d 2e3f
00000190: 98db 55bf 97d0 7b3e 8375 78bf 0581 ddbe
000001a0: 1cbb 29bf c0ac 1c3f eb56 263d 821d 053e
000001b0: e943 08bd 5eb7 a7be 1e7e a7bc c0f5 b83d
000001c0: 48a9 c0be c597 1c3f d9c3 cc3e bead e6bd
000001d0: 75de d33e ab0a e43d 94dc 8b3e 3c8f c3be
000001e0: 1f35 9ebe 36cb f6be 7319 2dbf aa86 6f3e
000001f0: 6748 1dbe 63ec 1d3f 3be7 06bf 8cd2 3f3f
00000200: c5cb 283d a6ed d33d b99d c1be 91f2 f83e
00000210: 10e7 3dbf bcf0 153f 3250 e53e 06e2 e3bd
00000220: 52a7 1fbf ebf8 19bf 9fc2 8e3c 6cb7 cf3d
00000230: be70 42bf 9d8b a33f 3463 fc3e a34a 13bf
00000240: 6e71 bebb f926 64bb 44c3 2bbf 7b08 453d
00000250: 98c3 1a3f 42aa 2d3d 8a65 bfbd 6403 c1bd
00000260: c9c9 b8bd a830 1ebf 386e 2cbf cd49 df3d
00000270: 0303 05bf ea4e a8be 3682 49bf d872 96bd
00000280: d00b f9be 8f18 253f be02 453f e897 153c
00000290: 7724 33bf 86e3 c6be 25af 02bf f1bb e73d
000002a0: 37ab b93c c26f 25bf 9f4e 9f3e ba37 0fbe
000002b0: e6a6 233f c1e9 4c3f a37a 203f 63a4 21bf
000002c0: 2af1 98be 93e8 b2bb 0a91 a03d bb95 313e
000002d0: 73aa 1b3d 1199 45be 312c 2fbf 341c 8a3f
000002e0: 7000 8b3d 9f95 f73e faaf 97be c547 03bd
000002f0: 382a cd3f dede 1ebf b27a 0dbf 51b4 7cbf
00000300: edb2 9e3e 77a8 debd 2f4e 663d 163e 9f3e
00000310: 53fb 8cbe 4261 a6bc edda 593f 8181 b2be
00000320: 075d c3be c866 843d 0395 95bd 8f70 0d3f
00000330: 8733 1abf a6f7 253f 589f efbb 8fda 3a3e
00000340: a72a 5d3d 9b0f 04bf d73b a1be 2a4a 673e
00000350: 137f 60be 78e9 cdbe cd3c f0bd 17ff 8c3d
00000360: 3b8a 03bf 5460 34bf c20d 2f3e 94ca 21bf
00000370: 1137 40bf 5b51 19bf 487f 57bf 9a57 dfbe
00000380: e4cc 2bbf a28b 32bf 9c53 58bf 5c48 193f
00000390: 8c42 463e 3f47 33be ab11 95bd a58a 0f3a
000003a0: 4195 2abf 6d5c 90bf cae1 c3be 50bb 9dbc
000003b0: bae8 073f 227f 02bf 2152 1f3f 0755 253f
000003c0: 103f 063f 68a0 923d 1d79 54be ae18 ae3d
000003d0: 703f 0d3f 8da5 1cbf dd79 2c3e c7c1 803d
000003e0: c8a1 2fbf 2b5c 8fbf e277 9cbe 7a20 98be
000003f0: fc49 e9be 5517 88bb f9db 59bf ae45 09bf
-0.7799324 0.0070883073 -0.55887824 0.5205107 0.7096981 -0.75162 -0.23723336 0.5834636
0.019664072 -0.30890384 -0.6665239 0.013238755 -0.529931 -0.3651382 0.24638224 -0.120310836
0.05782882 0.488959 0.6573323 0.7297124 -0.3794449 -0.48346227 -0.8515859 -0.08661614
0.64929545 -0.8864874 -0.38916948 0.07730878 0.022821851 -0.59920394 -0.3702682 1.1215158
0.35730854 0.0016024543 -0.6813766 -0.038877226 0.14924781 -0.6103481 0.03000519 0.47687677
-0.14038122 0.5556169 -0.08974315 -0.59067255 -0.04716946 0.77628416 0.23762153 -0.45910984
-0.035979055 -0.66273254 0.33343846 0.07775999 0.22075097 -0.5816458 -0.08251264 -0.34282678
-0.51565766 0.73092633 -0.5894768 0.17405371 0.16764475 -0.9382107 -0.094906345 0.08745036
-0.1208229 0.032609615 0.5789876 0.53018063 0.6525372 0.41244194 0.59985703 0.18267518
-0.0354659 1.0184382 0.6725311 0.5609544 -0.52241117 -0.7389593 0.8182406 0.005867929
-0.03747242 -0.75336736 0.80266005 0.41392064 -0.6709521 0.37696326 -0.9569694 0.08268974
0.2377431 -0.26294762 -0.45977688 0.54377234 -0.7441268 0.48908502 -0.054161455 -0.13114063
-0.72897893 0.38742208 -0.0010296468 0.6818517 -0.835382 0.2459129 -0.9705431 -0.43262497
-0.6630113 0.61201096 0.040610235 0.12999538 -0.03326789 -0.32757086 -0.02044588 0.09031248
-0.3762915 0.6116908 0.3999317 -0.112636074 0.4138066 0.11134847 0.27316725 -0.38195217
-0.30899903 -0.48201913 -0.6761696 0.23391214 -0.1535965 0.6168882 -0.5269658 0.74930644
0.041209955 0.10348062 -0.37815645 0.48622563 -0.741807 0.58570457 0.44787747 -0.11127095
-0.62364686 -0.60145444 0.017426787 0.10142407 -0.7595328 1.2776982 0.49294436 -0.5753576
-0.0058118617 -0.0034813269 -0.67094827 0.04810379 0.604547 0.0423987 -0.09345539 -0.09424475
-0.090228625 -0.61792994 -0.6735568 0.10902748 -0.5195772 -0.32872707 -0.7871431 -0.073461235
-0.48641825 0.644906 0.7695731 0.009130456 -0.69977516 -0.38845462 -0.510485 0.11315144
0.02266465 -0.64623654 0.3111467 -0.13986102 0.6392654 0.8004418 0.6268713 -0.6314146
-0.29871494 -0.005459854 0.07840164 0.17342274 0.03800435 -0.19296671 -0.68426806 1.0789857
0.06787193 0.4835634 -0.29626447 -0.032050867 1.6028509 -0.6205882 -0.55265343 -0.9871264
0.30995885 -0.10871976 0.056226905 0.31102055 -0.27535495 -0.020310048 0.8509968 -0.3486443
-0.38156912 0.064649165 -0.07303812 0.55249876 -0.60234874 0.64831007 -0.0073126964 0.18247436
0.053995755 -0.5158631 -0.31490967 0.22586885 -0.21923475 -0.40217185 -0.11730347 0.06884592
-0.513828 -0.70459485 0.17095092 -0.63199735 -0.75084025 -0.59889764 -0.8417859 -0.43621522
-0.67109513 -0.6974431 -0.8450258 0.59876037 0.19361323 -0.17507647 -0.072787605 0.0005475677
-0.66633993 -1.1278206 -0.382582 -0.019254357 0.5308949 -0.5097524 0.62234694 0.64582866
0.52439976 0.07159501 -0.20749326 0.08500801 0.5517492 -0.6119011 0.16843362 0.0628696
-0.68606234 -1.1200002 -0.30560213 -0.29712278 -0.45564258 -0.004153172 -0.85101277 -0.5362195

lstm.weight_hh_l0 f4 [440, 110]
00000000: eae2 8a3e d9db 40be e3ca 113f cc1b 133e
00000010: 5688 033e d757 c03e 3e60 c23e 630b 8d3d
00000020: 5f11 eabc 7446 ffbd e74d 063f 2e2e 863e
00000030: 0a6f 1d3e d6ab c53d e21e 413f 71e5 fbbe
00000040: b1da 0f3f e4af 3c3e 04dc 133f a899 433e
00000050: 9eaa c8be 40cd 10be 9e1a 0bbf 2ec3 ce3d
00000060: c9de 4e3f 1483 b83d 9a22 793e 3beb 93be
00000070: 5ba9 d83e ea8c 68bd 3a71 193d 18ea f53e
00000080: e4b8 583e 8b42 803e 9a59 6e3d 421b 2b3e
00000090: eb7d f13e 7559 503e 9ac2 40bd 196d 08bf
000000a0: 502d 6ebe 1188 da3d 1a5f 8dbe 23b9 1abf
000000b0: 32e6 143e 5972 443e f21d 363f 579a b5be
000000c0: 4479 333e 8ab2 5f3c b92b 1e3e 47f1 36bd
000000d0: 3a24 3b3e 7c56 36bf f18a 863e b8dd 0ebf
000000e0: 6832 f9be cbda 0a3f c42b 3dbf 3d0a b13d
000000f0: 11bc dbbb cdce 5abd cd8a 393d 95df 0cbe
00000100: 3194 dcbd 5ca1 2d3e 502a ba3c 5cfc 123e
00000110: 63d3 543e 9752 683e 35f5 263f 2a83 a93d
00000120: 999e c53e b156 d6bd 11e9 afbd 9465 033f
00000130: 881e c3be f8c1 8f3d 23c0 853e 3b08 163e
00000140: 511e 5bbe 5c22 edbe 1065 6a3f a79e 6e3e
00000150: c121 a9be 3d29 88bd ede1 4ebf bf6f 493f
00000160: 1a2f fd3d 8452 a7be cbe5 93be e980 343f
00000170: 010f ee3e 6e5a 123f f14f 8fbe 5dee a03d
00000180: da9c aabe 85e9 443e 2cbd e93d e12d 563f
00000190: 3d98 b6be 1316 6f3e 72e0 49bf 5975 a2bc
000001a0: 6b0d 5cbf d749 073f 7c09 01bf 2afd f2bb
000001b0: f567 393f e009 0abf cc3f 50be 9fe4 febe
000001c0: 3a54 a0be a177 fe3e 1870 983e 2e30 073f
000001d0: 9fb8 0b3e b243 053f fc5b 31be bbab 17bf
000001e0: 2de4 cd3e 1ec7 ba3c 524c cf3e ce3e d93d
000001f0: c9e3 2b3f e6d0 a23e c26e 7f3d 9d5d 463e
00000200: fad5 ff3e 15d0 0a3e 0822 0fbf 9ad9 1d3f
00000210: 2e33 1ebf 6498 ab3e ef9f 0d3f 1dde e1bd
00000220: 95c6 edbe a622 13bf 3eee 24bd 58d6 bd3e
00000230: 1c8c 08bf 73d3 0bbf 7a98 88bd 061f e23e
00000240: cc58 0d3f 3bbd f03e cbf9 8e3d fc3c 713f
00000250: 6e27 373f 8236 60bd 55ed 01bd 2e50 58be
00000260: e0e6 06bf 2cb1 a83d ec17 2dbd 4339 fb3d
00000270: a283 f6bc eb2f f03d 467d 34be 140f 0fbf
00000280: a7bc 36be a7fd 083e 6d04 3b3e 924d 9ebe
00000290: 75e7 c33c 627b 5cbe 19ad 0f3e e030 8e3d
000002a0: 9add 2b3d 3a7d 31bf 5006 ff3d e52b a3bd
000002b0: 6d3d 95be 262a d83d 99d2 203f 4fbc e8be
000002c0: 1ccd c8bd ebbc 613c c717 193f 8c92 cf3e
000002d0: 423e 163f 7b4e af3e a5aa 00bf 9cdb 8bbb
000002e0: 133a 17bf 8df7 093f 964f bd3c 7630 1bbf
000002f0: 6525 9f3e 0959 22bf d27a d9be af7c e3be
00000300: f630 fd3e 03a6 ae3e 7965 553f 2974 673e
00000310: 1779 0abf 2fd4 f13d 2947 f9bc 6d70 01bf
00000320: 2ac0 f8be 46ea f8bc f2e5 553e a07f 283f
00000330: 296d 1ebf 4723 0cbf 89d7 10bf 728f d3bd
00000340: 5f60 36bf 4804 c83e 7a16 37bf ced2 da3e
00000350: 1217 4e3d 6510 abbc 20b2 a23e 60e6 9fbe
00000360: f494 ae3c 4f24 dabe be6d c33d 44bb 85bd
00000370: 32f6 c2bd 02fb 1ebf f768 d2be 2722 713f
00000380: d0be 553f 4ebf a53e cf34 dd3e 9b5c 013f
00000390: cf69 60bc 97a9 bcbb 6279 f43e 80a0 7fbd
000003a0: f0bc 903f 055b 2c3f 83f0 453f f735 c4bd
000003b0: addd 1abe 7fbd 423f 0077 173f 826e 4d3f
000003c0: ce97 a2bf e0b9 e03c 063e 93bf 5e3a 27be
000003d0: 1cce 323f ec73 063e 6382 513d 8a12 8fbe
000003e0: 8317 f1bd 4f94 a93e 0740 59bf 5085 e63e
000003f0: d6e9 983e c23f 353e a5fb b23e 2811 7c3e
0.27126247 -0.18833865 0.56950206 0.14366072 0.12844977 0.37567016 0.37964052 0.068869375
-0.028572736 -0.1246461 0.5246262 0.26207107 0.1537439 0.09651916 0.7543775 -0.49198487
0.5619307 0.18426472 0.5775759 0.19101584 -0.3919267 -0.14140797 -0.5433749 0.10095821
0.80808693 0.09009376 0.24329606 -0.28890404 0.42316708 -0.05677501 0.037461497 0.48030162
0.2116428 0.25050768 0.05819092 0.16709617 0.4716638 0.20346625 -0.047060587 -0.5329147
-0.23259473 0.10670484 -0.2761162 -0.60438746 0.14540938 0.19184245 0.7113944 -0.35469314
0.17526728 0.013653407 0.15446366 -0.044663694 0.18275538 -0.71225715 0.2627788 -0.55807066
-0.4867127 0.542401 -0.73894906 0.08644531 -0.006705769 -0.053419877 0.045298386 -0.13757165
-0.10770453 0.16956085 0.022725254 0.1435408 0.20783763 0.22687756 0.65217906 0.08276971
0.38597563 -0.10465754 -0.08589376 0.5132687 -0.3810923 0.070194185 0.2612315 0.14651577
-0.21398284 -0.46315277 0.9156046 0.23302709 -0.33033565 -0.066484906 -0.80813485 0.78686136
0.123624995 -0.32680142 -0.28886256 0.705092 0.46495822 0.57169235 -0.27990678 0.07857964
-0.33322793 0.19229706 0.11413035 0.83663756 -0.35663024 0.23348264 -0.788581 -0.019831346
-0.85957974 0.52847046 -0.50405097 -0.0074154334 0.7242425 -0.5392132 -0.20336837 -0.497838
-0.3131426 0.49700645 0.2977302 0.5280789 0.13644646 0.5205642 -0.17320246 -0.59246415
0.40213147 0.022800025 0.40487915 0.10607682 0.6714445 0.31800002 0.062361486 0.19371648
0.4996794 0.1355594 -0.559113 0.6166016 -0.61796844 0.33514702 0.55322164 -0.11028693
-0.4644057 -0.57474744 -0.040266268 0.37077594 -0.5333879 -0.5461952 -0.066697076 0.44164294
0.5521362 0.4701937 0.06981238 0.9423368 0.7154454 -0.054739483 -0.031720478 -0.21124336
-0.5269604 0.08236918 -0.04225914 0.12266781 -0.030092064 0.117278896 -0.17625913 -0.5588238
-0.17845403 0.1337801 0.18263407 -0.30918556 0.023914078 -0.21531442 0.14030875 0.06942916
0.041959383 -0.69331706 0.12452376 -0.079673566 -0.29148427 0.10554914 0.62821347 -0.45456168
-0.098047465 0.013777952 0.59801906 0.40541494 0.5868875 0.34239563 -0.5026038 -0.004268123
-0.5907299 0.5389336 0.023109239 -0.6062082 0.31083217 -0.63417107 -0.42476517 -0.44431064
0.49451417 0.34111032 0.8335796 0.22602905 -0.5409102 0.11808049 -0.03042944 -0.50562173
-0.4858411 -0.030385148 0.20888498 0.6581974 -0.61885315 -0.5474133 -0.5657888 -0.103300944
-0.712408 0.39065766 -0.7151867 0.42738956 0.05031497 -0.020881841 0.31776524 -0.3123045
0.02131126 -0.42605826 0.09542416 -0.06529859 -0.09519614 -0.6210176 -0.41095707 0.9419274
0.8349428 0.32372516 0.43204352 0.5053193 -0.013697102 -0.0057575214 0.47748858 -0.062408924
1.1307659 0.67326385 0.77320117 -0.095806055 -0.15123625 0.760704 0.59165955 0.80246747
-1.2702577 0.027432382 -1.1503303 -0.16330859 0.6984575 0.13130158 0.051149737 -0.27943832
-0.11772063 0.33120963 -0.8486332 0.45023584 0.29865903 0.17700103 0.34957615 0.2461592

lstm.bias_ih_l0 f4 [440]
00000000: 2f83 acbf 5fbf 7fbf 9b93 36be 6db4 8ebf
00000010: 2214 01bf d438 75be 185c 053e d5df 52bf
00000020: 18ef 24bf 83a4 e03e b0e2 d8bd 1acc 12bf
00000030: 8f07 84be b9a4 06bf 1bee 83bf 1bc9 8bbf
00000040: 5d67 f8bd c139 a5be b168 52bf 16ce 97bf
00000050: 85e0 3bbe d657 56bf 5aa9 e13e b6cd 98bf
00000060: ec71 643f fd2d 18bd dcd4 87bf 1321 3c3e
00000070: 62f4 3bbf 1d3e 1cbe 576e 94bf acc3 7bbe
00000080: 09e0 2a3f 2ccd 8ebf e886 b93c 2738 06bf
00000090: 3a9e 7ebf 11d2 f2bf 7e7e 12bf 6e11 e3be
000000a0: cd58 64bf 2623 91bf 20e7 d0be 4565 0cbf
000000b0: 5edd 6cbf 9d4f e5bd 2ba4 50bf 1aa7 85be
000000c0: c3e7 47bf e57a a2bf eec7 5bbf a332 99bf
000000d0: 8dd9 71bf ff04 5bbf a999 d9be 4ecd 2ebe
000000e0: 3733 ad3e 39a8 5cbf 798b 82bf 2fe6 69bf
000000f0: 1543 91bf 888d eabc 08b6 7cbf 69d4 14bf
00000100: 31be 15bf 1af6 f0bf 4470 50bf 4e41 9abf
00000110: f053 dabe 7282 16be 4a04 83bf cfe7 1dbe
00000120: 37d4 47bf 0830 81bf 538e a33e ab2a 8abe
00000130: 7a53 5fbf dfa5 34bf fece 18be faa8 46bf
00000140: 9614 14be 9600 d9be 03ea 99bf d57a 4abf
00000150: aa33 9abf fb14 e8be 7ec5 7d3c 25f7 85bf
00000160: 2909 40bf 2088 003f 808f 97bf a8c0 84bf
00000170: 41ff 1dbe 004f 2bbe f4d8 bfbe 9e1d 40bf
00000180: 3fa5 0dbd 26c2 44be 83f1 3ebf e109 85be
00000190: 4184 45bf f278 80be a6b4 64be 9bc9 d5bd
000001a0: fe70 c93e c858 a13e cbc3 19bf 5172 89bf
000001b0: bb06 0fbf d390 8fbe a7c6 173d 0eb6 b0bd
000001c0: 4b1c 653e 0dc6 fb3e 6ee5 0ebf 0291 28bf
000001d0: 14ee 4abf deef 33be 616e 8fbf f9d0 6fbd
000001e0: 162a babe 6071 1e3f d2ab 8a3e fb32 6bbe
000001f0: d0ca 4fbf d721 17be 23ae d2be 2831 2bbe
00000200: f554 d0bd 8d07 88be ec36 97be 0618 39bf
00000210: c12e 7dbe 1b1e be3e 26c9 b33e 85ab 0bbc
00000220: 46a9 33bf 4ce1 183f 777c 37bf 0ef7 293d
00000230: c97e 003f 3432 32bf 0fd7 88bf ec5d 1ebf
00000240: c578 c13c 735e 7cbf b58b 92be c309 28be
00000250: 15e7 30be d4d6 36bf 3e7c 4dbe cf84 53bf
00000260: 3ead 26be e058 f0be 5162 8abf e8fc 71be
00000270: 3ff1 34bd 51f2 28bf 971e 42bf 3be8 853e
00000280: 173c 81bf f0b0 31bf 5cab 0dbf 1152 32bf
00000290: 3206 ebbc 68c6 8bbe ce1e 81bd 8a6b a9bc
000002a0: c2d3 21bf c107 16be aeac 09bf 0798 10be
000002b0: 2dec 1cbf de05 d53e 2c3d e5bd ae56 80be
000002c0: 6a00 59be 7728 f2bd 6177 70be 79f6 39be
000002d0: f05d 3ebd 0b89 2abf 0955 f6be 2cf4 13bf
000002e0: 4bf5 6bbd ac58 713f 2143 06bf c9f7 3dbe
000002f0: bb88 5c3e 1b43 5e3c c8aa 213f b2e1 a73e
00000300: cf36 e13c e318 03bd 0232 e33d 6aec 10bf
00000310: 3f52 05be 5253 90be dcfe 913e 0fec b8bd
00000320: f88a cc3e 4c3c b5bc a865 54bd 4ecd 0bbf
00000330: 8f56 8bbd 36db 0c3f b502 05bd 40bb 39bf
00000340: 3f03 81bd 541b 3dbe 9570 ce3e 1a0b 16bf
00000350: eaf1 4ebf 5d67 a0bc b1b4 613f 91c9 4abe
00000360: ff54 96bd 5b61 54be e031 34bf ffc1 3cbf
00000370: 36be dabe 8e5b 9c3e b315 973e 95c6 29bf
00000380: 37ec 34bf ecb3 b6be 890f 03bf 4dd4 593e
00000390: 0798 f7bb a7a5 253f 7880 1fbf 33c0 1e3f
000003a0: 4e3b 14bf 7475 d0be 99ac 743e 826f 21bf
000003b0: bc09 6f3e c71e 20bf 5b07 af3e d470 23bf
000003c0: 1bbf 183f 6030 1ebf 2f47 083f 277e 82be
000003d0: f354 46bf 5630 0dbf 58b3 a2be f82c 313f
000003e0: 548d d0be 2019 2dbf d41a a13e d876 a33e
000003f0: 6fe7 1abe c484 343f fb58 1cbf 4371 b7be
-1.3477534 -0.99901384 -0.17829745 -1.1148812 -0.50421345 -0.2394746 0.13023412 -0.8237279
-0.6442733 0.43875512 -0.10590112 -0.57342684 -0.25787017 -0.52595097 -1.0307039 -1.0920748
-0.1212909 -0.32270625 -0.82190996 -1.1859767 -0.18347366 -0.83727777 0.44074517 -1.1937778
0.8923633 -0.037153233 -1.0611835 0.18371992 -0.73419774 -0.1525807 -1.1596173 -0.24586362
0.667481 -1.1156363 0.022647336 -0.5242943 -0.99460185 -1.8970357 -0.5722426 -0.44349235
-0.89198 -1.1338851 -0.40801334 -0.54842025 -0.9252528 -0.11196826 -0.815005 -0.2610405
-0.78088015 -1.2693754 -0.85851943 -1.1968578 -0.9447258 -0.855545 -0.42500046 -0.17070505
0.33828136 -0.8619419 -1.0198814 -0.9136686 -1.1348597 -0.02863194 -0.9871526 -0.5813661
-0.58493334 -1.8825104 -0.81421304 -1.205118 -0.42642164 -0.14698198 -1.0235684 -0.15420459
-0.7805819 -1.0092783 0.31944522 -0.26985678 -0.8723675 -0.705656 -0.14922711 -0.7760159
-0.14460978 -0.4238326 -1.202454 -0.79093677 -1.2047017 -0.45328507 0.01548898 -1.0466048
-0.7501398 0.5020771 -1.1840668 -1.0371294 -0.15429403 -0.16729355 -0.3747021 -0.7504519
-0.03458142 -0.19214687 -0.7458727 -0.259841 -0.7715493 -0.25092274 -0.22334537 -0.10438844
0.3934402 0.31513047 -0.6006438 -1.0738012 -0.55869645 -0.2804018 0.037054684 -0.08628474
0.22374074 0.49174538 -0.5581883 -0.65846264 -0.7926953 -0.17571971 -1.120556 -0.0585489
-0.36360234 0.61891747 0.27084213 -0.22968666 -0.8116884 -0.14759003 -0.4114848 -0.1671797
-0.10172454 -0.2656826 -0.2953409 -0.7230228 -0.24724866 0.37132344 0.35114402 -0.00852478
-0.70180166 0.59718776 -0.71674293 0.041495375 0.5019346 -0.69607854 -1.0690631 -0.61862063
0.023617158 -0.9858162 -0.28622213 -0.16409974 -0.17275651 -0.7142155 -0.20066926 -0.82624525
-0.16277024 -0.46942806 -1.0811254 -0.23631632 -0.044175383 -0.65994745 -0.75827926 0.2615374
-1.0096463 -0.6941061 -0.553396 -0.69656473 -0.028689478 -0.2729981 -0.06304704 -0.020681161
-0.6321374 -0.14651395 -0.53779113 -0.14120494 -0.61297876 0.4160604 -0.11193308 -0.2506613
-0.21191564 -0.11824124 -0.2348304 -0.18160428 -0.046476305 -0.6661536 -0.48111752 -0.5779445
-0.057606976 0.9427593 -0.5244618 -0.18551554 0.21536534 0.013565804 0.63151217 0.3278938
0.027491955 -0.032006156 0.110935226 -0.5661074 -0.13019656 -0.28188568 0.28514755 -0.090293996
0.39949775 -0.022123478 -0.05185476 -0.54610145 -0.06803619 0.5502199 -0.032473285 -0.72551346
-0.06299447 -0.18467456 0.40320268 -0.5861069 -0.8083788 -0.019580537 0.8816634 -0.19803454
-0.073404305 -0.20740263 -0.70388603 -0.73733515 -0.42723244 0.305386 0.29508743 -0.6631864
-0.70672935 -0.35684144 -0.5119558 0.21272393 -0.007555965 0.6470589 -0.623054 0.6201202
-0.5790299 -0.4071461 0.23893966 -0.6306077 0.23343557 -0.6254696 0.341853 -0.6384404
0.59666604 -0.61792564 0.5323362 -0.25486872 -0.7747337 -0.5515188 -0.31777453 0.6920924
-0.40732825 -0.6761646 0.3146578 0.31926608 -0.15127347 0.70515084 -0.61073273 -0.358286

lstm.bias_hh_l0 f4 [440]
00000000: b079 9abf 0f45 68bf 4b52 f7bd 5e68 8cbf
00000010: bff1 11bf d3cc a2be 39f6 4abc 747a 79bf
00000020: df93 1bbf 7ce2 e03e c1c1 86bd a80f fcbe
00000030: f1d4 6dbe 2af1 0cbf ee2d 73bf 6b02 87bf
00000040: 4841 dfbd e1ab c1be 0eaf 67bf 6067 adbf
00000050: 6345 7ebe 37ba 35bf dc61 b73e c71f adbf
00000060: 8d55 553f fbf4 a1bd 109b 7abf 3ceb 7e3d
00000070: a6a5 45bf eef4 0bbd 4814 90bf 7674 17be
00000080: 4b17 273f b4d6 8ebf 14e5 cc3d c2c9 04bf
00000090: b06e 73bf ea29 f9bf af83 12bf 43af c3be
000000a0: c0dc 51bf c1c2 94bf 9788 adbe f1a7 19bf
000000b0: 1a49 87bf 4a8e 40bd f19f 58bf e8da 59be
000000c0: 9d7e 49bf bca5 90bf 8144 5fbf 2e38 9dbf
000000d0: d854 7dbf 709b 5abf a5bf abbe cbaa a5bd
000000e0: e39a 873e 145f 5bbf fe18 81bf 940f 73bf
000000f0: d385 8abf 0496 4ebd 7249 8abf e820 22bf
00000100: 2dc8 18bf 524c e3bf 0a27 34bf c34f a1bf
00000110: b179 e9be 9abd eebd 28e0 8bbf ace1 44be
00000120: ed81 5dbf 495e 8bbf d968 993e 25b9 b0be
00000130: a88a 4dbf 79e5 3ebf 01b0 44be 449f 60bf
00000140: 313e 3fbb 8815 cabe 4396 a0bf bf57 3fbf
00000150: f08e 97bf ef7f b0be dadd 85bd 506b 73bf
00000160: 70e7 52bf 10d5 293f fa20 94bf c0ab 85bf
00000170: 71ad abbc b448 5ebe 1ab0 ffbe 7bf8 68bf
00000180: 3217 13be 6fa8 67be a010 44bf f9ce a3be
00000190: 6d94 41bf f3b3 92be 5a14 13be 7298 f3bd
000001a0: 06c3 d93e 9fd7 af3e 80aa 31bf 0c56 70bf
000001b0: b597 1ebf acdf 88be b764 1a3d d9a1 2abd
000001c0: 19a3 373e 7e38 f13e 9fd1 d8be 60b0 32bf
000001d0: 0c75 5abf d0b9 6abe 6a22 92bf 6e24 31be
000001e0: 299d f5be 2625 253f c3b7 863e 090a 6bbe
000001f0: 5767 51bf e506 20be 72e0 cabe 94c6 47be
00000200: 53da 75be 478d e4bd 4133 eabd 7baf 3bbf
00000210: fbb3 b1be 5269 c83e b055 ac3e 42d2 133d
00000220: 9a30 3ebf 29d6 e93e d57f 42bf 3de6 88bb
00000230: abd1 1b3f f412 0bbf 25aa 6ebf 8c22 23bf
00000240: 45c3 6abc c360 7cbf 612b b5be aad9 51be
00000250: 27ba acbd b83d 5bbf 067e 16be 4880 29bf
00000260: 6fd2 32bc 7c57 ffbe 1f7f 85bf 238d 55be
00000270: f5c2 e8bd c592 24bf d5e7 4abf 3947 763e
00000280: 9bfe 7dbf e69c 1abf 5b92 edbe 9f2a 3ebf
00000290: b1fb a3bc 00fc 15be 42f9 a33d abac 333c
000002a0: 950c 34bf 8270 95bd f3c2 11bf 540b 37bb
000002b0: 2672 3fbf 28b0 c03e 7df5 27be a73b 0fbe
000002c0: cf6f a6be 2cbc e3bd 70ec 9bbe 8450 1bbe
000002d0: 2d14 c2bc 4f59 06bf 7482 97be a43c 1cbf
000002e0: 2310 bcbd 14d6 593f b2d6 bcbe ce74 5fbc
000002f0: 69d7 3a3e f8c7 973c 148a 293f 10f4 e63e
00000300: 94b2 003e 5479 f0bd 1835 c73d 8f29 0bbf
00000310: 422e d2bd 2223 a8be ea44 353e c974 fbbc
00000320: 830a fa3e 4424 c8bd f8c0 fd3b 0da1 fabe
00000330: 9219 e93c 60b6 013f 927c 0d3e 65b3 14bf
00000340: 9cc2 efbd 2fe6 43be 2e18 c33e c137 25bf
00000350: 5731 6fbf 24af 0a3d 7298 6f3f c703 73be
00000360: 8723 1b3c ffd0 0cbe 3481 54bf 1dbd 5abf
00000370: cbab debe 0820 8f3e b62a 743e fe1c 15bf
00000380: 4156 0abf a1ff cbbe b29c 24bf f7f3 a33e
00000390: a24d abbc b23a 343f 130f 42bf 40cb 133f
000003a0: 1803 20bf 35e8 bdbe 8db7 943e 9e65 23bf
000003b0: b166 873e 4d8a f7be 9bc0 863e 0599 12bf
000003c0: 2ecb 0f3f 0766 2fbf d41f 043f ac5f a7be
000003d0: 3e9c 43bf 4169 f8be e898 e9be 01e5 353f
000003e0: 1b14 f6be 1332 11bf 7bfe 863e 7c98 a53e
000003f0: 8a76 11be 98b9 463f d44b 24bf d387 c8be
-1.2068386 -0.90730375 -0.12076243 -1.096935 -0.570095 -0.31796893 -0.012387806 -0.97452474
-0.6077251 0.43922794 -0.065799244 -0.49230695 -0.23225762 -0.5505549 -0.9499196 -1.0547613
-0.10901123 -0.37826446 -0.9050149 -1.3547173 -0.24831156 -0.70987266 0.35816848 -1.3525323
0.83333665 -0.079080544 -0.97892857 0.062236056 -0.77205884 -0.03416913 -1.1256189 -0.1479052
0.6526992 -1.1159272 0.10004631 -0.5187036 -0.9509077 -1.9465916 -0.57232183 -0.38219652
-0.8197746 -1.1621934 -0.33893272 -0.60021883 -1.0569184 -0.047010697 -0.8461905 -0.21274912
-0.7870882 -1.1300578 -0.87213904 -1.228277 -0.98957586 -0.8539343 -0.3354465 -0.08089217
0.26485357 -0.8569195 -1.0085752 -0.94945645 -1.082209 -0.050436035 -1.0803664 -0.6333146
-0.59680444 -1.7757666 -0.7037207 -1.2602466 -0.45600656 -0.116572574 -1.0927782 -0.19226712
-0.86526376 -1.0888149 0.29962805 -0.34516254 -0.802897 -0.745689 -0.19207765 -0.8774302
-0.0029181356 -0.39469552 -1.2545856 -0.74743265 -1.1840496 -0.34472606 -0.065364555 -0.9508562
-0.82384396 0.6634073 -1.1572564 -1.0443039 -0.020956727 -0.21707422 -0.49939042 -0.9100415
-0.14364317 -0.22622846 -0.7658787 -0.31993845 -0.75617105 -0.28652915 -0.14363232 -0.11894311
0.42531604 0.34344193 -0.6940079 -0.938813 -0.61950237 -0.26733148 0.037693705 -0.041658256
0.1793331 0.47113413 -0.42347428 -0.69800377 -0.8533485 -0.22922444 -1.1416752 -0.17299053
-0.47971466 0.6450981 0.26312074 -0.22953047 -0.8179831 -0.1562763 -0.39624363 -0.19509345
-0.24009065 -0.11159759 -0.11435557 -0.73314637 -0.34707627 0.39142853 0.33659124 0.03608919
-0.7429291 0.45671204 -0.75976306 -0.004177837 0.608668 -0.54325795 -0.9322837 -0.6372459
-0.014328782 -0.98585147 -0.35384658 -0.20493189 -0.08433943 -0.8564105 -0.14696512 -0.66211367
-0.010914429 -0.49871433 -1.0429419 -0.2085462 -0.1136531 -0.6428645 -0.7926 0.24050607
-0.9921662 -0.6039566 -0.46400723 -0.74283785 -0.020017477 -0.14646912 0.080065265 0.01096646
-0.703317 -0.0729685 -0.56938094 -0.0027930336 -0.7478355 0.37634397 -0.1640224 -0.139876
-0.32507178 -0.11119875 -0.30453825 -0.15167433 -0.023691261 -0.52480024 -0.29591715 -0.6103003
-0.09182765 0.8509228 -0.3688255 -0.013638688 0.18246235 0.01852797 0.66226315 0.4510808
0.12568122 -0.117418915 0.09726924 -0.5436029 -0.10262729 -0.32839304 0.1770207 -0.030695336
0.48836145 -0.09772542 0.007743951 -0.48950997 0.028454576 0.5066891 0.13817051 -0.58086234
-0.11707041 -0.19130777 0.38104385 -0.645382 -0.9343466 0.033858433 0.9359199 -0.2373191
0.00946892 -0.137516 -0.8300965 -0.85444814 -0.43490443 0.27954125 0.23844418 -0.58247364
-0.54037863 -0.39843467 -0.643016 0.32022068 -0.020911042 0.7040206 -0.7580425 0.5773201
-0.6250472 -0.37091222 0.29046288 -0.6382693 0.26445535 -0.48347703 0.2631882 -0.5726474
0.561694 -0.68515056 0.51611066 -0.3269018 -0.7641028 -0.48517802 -0.4562447 0.7105256
-0.48062214 -0.5671703 0.26366028 0.323429 -0.14205375 0.77626944 -0.64178205 -0.39166126

out.weight f4 [1030, 110]
00000000: 4ef7 bd3e 5ef7 29be d425 be3e 9e23 b6be
00000010: 9e76 943e 3c0c 0e3f 5205 4dbd 520e db3d
00000020: 0e66 363f d44b 64bc 4610 a23e 2044 1f3e
00000030: 2ab3 62bd f2a6 53bd 59fd 08bf d8ec ecbe
00000040: 1a6d e83e e132 1fbe aad5 d23c 0a98 f33c
00000050: c92f 84be 6cde 15be 892c 95be 600c 93be
00000060: 1b15 95be 85a8 0c3e f6f0 ce3d 86e3 033e
00000070: c756 93be f729 1d3e b2d0 9ebc 4ff1 fdbd
00000080: e11c 7d3e fd0a 9c3f f431 943f 78d8 9e3c
00000090: b2d0 c73c 7108 98be d36c 063e 63fa 323f
000000a0: 87a8 bdbe 2460 82bd ad4e 19bc 1c9b ba3e
000000b0: cfa2 74be 62b6 8e3e 8d81 aa3e 8376 173d
000000c0: c8ac d63d c29b 8e3e 7d16 0c3f 81ec 2b3e
000000d0: 23a7 72bc face fdbe 3ca6 303f c511 653f
000000e0: bd8c 363e 6807 9e3e 083c 42bf 4860 7f3e
000000f0: 9c96 10bd d27b adbd 454e d3bd 92e6 2cbf
00000100: 81f7 50bf fd2f 6a3e 2f43 443d 2cdc bebb
00000110: 9dea fdbd 1c14 61bf e391 ce3f cbf6 a5be
00000120: 90cf 043c d7e5 b9be dfd3 3a3e 64e0 b03e
00000130: 447e 0d3e 3bb0 3fbe abee 15bf 691c 2d3e
00000140: 8f88 ca3d ce83 793e 006b 833f 0618 403f
00000150: 215d 393e c0ad 543f e03e 0e3e 1301 923e
00000160: 59ae 463e 19f2 923e 1bd0 8fbc c123 97bc
00000170: ef3e 5e3f e468 a43e 6984 79be 1e5c 16be
00000180: 76fe aebd 0674 d03d 3016 b23e e40d b13e
00000190: ae2e 24bf 9d8b 933f c2e8 3a3e 5216 b03d
000001a0: 9a7b 35bf a171 6c3f c81c 44be 3888 873e
000001b0: 6fb3 30bf 5343 b23e 3264 253f 16d7 08be
000001c0: 4f8b a73e 74d2 9c3e 1cb1 423f 75c1 803f
000001d0: da7a 1f3f e23f ea3d f708 15be f860 1ebe
000001e0: 0bac 0b3f fb12 9c3e 9048 c5bd 5109 41bd
000001f0: a1ff 80bd 6e80 ae3e 6ccf 9fbe b311 75be
00000200: 33ac b33e 6a3b 543e 08b7 0bbf c569 e8bd
00000210: 166c 0fbf 2e4d f03d af1f 283c 86b3 29bd
00000220: 0fea cfbd 51ee 97be b83c 7fbe 7233 08bc
00000230: 7cb1 03bf 93d8 b4be efea 0a3f f1e5 81bf
00000240: 14f4 243f d6af 04be 6075 05bc 20d8 6c3e
00000250: afa4 58bc 0e64 523f c4e3 30be 703d 49be
00000260: 0f2f 923e 4e2c 323f 2648 8fbe c275 923f
00000270: 7fa4 933e 5a55 f0bc 5dbb 163e eb64 4dbf
00000280: 1ecb 07be 144e 983e e6ad 973c bb48 c13e
00000290: 4a10 88bd 0a6c 123e 4d28 c43f ce47 483e
000002a0: 4afd 7e3f 879a 943e b25b a5be c020 05be
000002b0: 50ab f4bc 8d65 803e 8682 1d3f f3c8 a63d
000002c0: 1fb1 56be a992 a5bd f0e6 723f f19c 8fbf
000002d0: dd33 653c 1635 11bf dd8d c1be 246b 073f
000002e0: ad40 ba3e e10e c2bf 96ba 883d 1e61 b7bc
000002f0: d66f 673f 9d0a 583b bde5 c6bb 20e6 7ebe
00000300: eb44 6e3e 0ae0 ecbc 537d 3d3e 1392 843e
00000310: c6a9 003f 771c e33e ea64 a13e 059b 29be
00000320: 23b1 24bf b049 25be b4e5 04bf c53a 683e
00000330: f801 20bf 09d6 89be bc97 07be cd3e c33f
00000340: 9fa2 963e 2028 bebd f4e7 0bbf 79d1 4c3f
00000350: d647 03bf 4154 c3be 899a 87bf cc1e 1dbf
00000360: 9a70 e73e b5ab 813d d160 55be 62d2 a23e
00000370: f835 6b3f c492 b9bd 6c31 5a3d 145a dcbe
00000380: b30e 1740 0c01 eb3e 6660 0b3f 6822 233f
00000390: 79f5 933c 8f8c febe 01b4 683c 5d4a da3d
000003a0: 2436 433e 6d74 ce3d a222 7b3e bb9d 353e
000003b0: e1ea 883d 07c5 24bd 35b8 e33e 1ccd 713e
000003c0: 9ee4 4cbf d238 25be fa42 e1bf 42c7 c1be
000003d0: 1df4 d6bd 2e35 6e3e 5c0e 49be 227d eabd
000003e0: 73e2 b73d 3dbd 9d3d e564 92be f81a 483e
000003f0: 5cc6 4c3f 0315 7dbf 611d be3f e9bd 4a3e
0.3710274 -0.1659827 0.37138236 -0.3557405 0.28996748 0.5548742 -0.050053902 0.10696091
0.71249473 -0.013934094 0.3165304 0.15553331 -0.055346645 -0.051672883 -0.5351158 -0.46274447
0.45395738 -0.15546753 0.025736649 0.029735584 -0.25817707 -0.14635628 -0.2913554 -0.2872038
-0.29117665 0.1373616 0.101045534 0.12879762 -0.28777143 0.1534804 -0.019386623 -0.123995416
0.24718048 1.2190853 1.1577744 0.01939033 0.024391506 -0.2969394 0.1312745 0.6991331
-0.3704264 -0.063659936 -0.009357137 0.36446464 -0.23890232 0.27873522 0.33301964 0.036978256
0.10482174 0.2785321 0.54721814 0.16789438 -0.014810356 -0.49571973 0.69003654 0.8948024
0.17827125 0.30865026 -0.7587285 0.24939072 -0.035299882 -0.084708825 -0.10317663 -0.6753932
-0.8162766 0.22869869 0.047915634 -0.0058245864 -0.123982646 -0.8792131 1.6138271 -0.3241485
0.008106127 -0.36308166 0.18244885 0.34546196 0.13817698 -0.1871957 -0.58567303 0.16905369
0.09889328 0.24366686 1.0267029 0.75036657 0.18101932 0.8307762 0.13891172 0.28516445
0.19402446 0.2870033 -0.017555287 -0.018449666 0.8681478 0.32111275 -0.24366917 -0.14683577
-0.08544628 0.1017838 0.34782553 0.3458091 -0.6413373 1.1526982 0.18252853 0.08598007
-0.70891726 0.92360884 -0.19151604 0.26471114 -0.69023794 0.3481699 0.6460601 -0.13363299
0.32723472 0.30629313 0.760515 1.0059038 0.6229683 0.11437966 -0.14554201 -0.15466678
0.5455939 0.3048323 -0.09632981 -0.047128025 -0.06298757 0.3408236 -0.31212938 -0.23932533
0.35092315 0.2072579 -0.5457616 -0.11348299 -0.560243 0.11733471 0.01026146 -0.041430973
-0.10152065 -0.29674008 -0.24925506 -0.008313047 -0.51442695 -0.35321483 0.5426473 -1.0148298
0.64434934 -0.12957701 -0.00814566 0.2312932 -0.013222857 0.8218392 -0.17274386 -0.19652343
0.28551528 0.69598854 -0.27984732 1.1442187 0.28836438 -0.029337574 0.14719911 -0.80232114
-0.13261077 0.2974707 0.018515538 0.377508 -0.06643732 0.14299026 1.5324799 0.19558641
0.9960524 0.29024145 -0.3229652 -0.13000774 -0.029866844 0.25077477 0.6152729 0.08143797
-0.20966004 -0.08084614 0.9488363 -1.121977 0.013989416 -0.5672163 -0.37803546 0.5289786
0.3637747 -1.5160791 0.066762134 -0.022385176 0.90405023 0.003296531 -0.0060698674 -0.24892473
0.23268478 -0.028915424 0.18504839 0.25892696 0.50259054 0.44357654 0.31522304 -0.16563042
-0.6433279 -0.16141391 -0.51913 0.22678669 -0.62503004 -0.26921108 -0.13241476 1.525354
0.29420945 -0.09284997 -0.5465081 0.8000713 -0.5128149 -0.38150218 -1.0594035 -0.6137512
0.45203096 0.06331579 -0.20837714 0.31801134 0.91879225 -0.090611964 0.05326979 -0.43037474
2.3602722 0.45899236 0.5444397 0.63724375 0.018061386 -0.49716613 0.0142030725 0.10658715
0.19063622 0.100808 0.2452493 0.1773595 0.066854246 -0.040226962 0.44476476 0.236134
-0.8003634 -0.16134956 -1.7598565 -0.37847334 -0.1049578 0.23262474 -0.19634384 -0.114496484
0.08978739 0.0770211 -0.285926 0.19541538 0.7999017 -0.98860186 1.4852716 0.19799007

out.bias f4 [1030]
00000000: d5f6 953f 8ebb 8e3f 4864 593f d0fb 1d3f
00000010: e158 303f 2e95 693f 3823 673f 662c 273f
00000020: 24a0 363f 4159 a53e efe9 783f 5ef3 e43e
00000030: 74b9 8e3f 3d8c 8e3f 95fb 5b3f 36d2 823f
00000040: 0559 9f3f 6404 9a3f 54dd 8f3f 14d7 953f
00000050: 34b3 923f 6b62 863f 1bec 8e3f 4a74 7b3f
00000060: 095e 5f3f e082 943f 1b1d 923f 33a4 903f
00000070: 890a 8d3f 579b 5f3f 1890 0b3f aa0b 503f
00000080: 6b3c 853f e7c1 833f 2e53 713f 4602 843f
00000090: a83a 853f b4f6 803f 03cd a23f a2a6 a03f
000000a0: 8f79 583f b0a3 5d3f ca68 793f f3cc 3a3f
000000b0: b2aa 693f 7272 753f 34a5 6b3f 9541 663f
000000c0: f4c9 6c3f 2df4 6a3f 137d 803f 1840 4c3f
000000d0: 2894 533f 5c35 5e3f fd5a 693f df90 4b3f
000000e0: ac00 563f 1db1 713f 9d23 5b3f 1750 663f
000000f0: cc76 7e3f ac09 863f 9bc0 693f 9687 743f
00000100: 6cb4 6e3f 4060 803f e4d7 883f 78e4 893f
00000110: 3bcf 493f 8b57 8b3f 33d4 9b3f 5db6 623f
00000120: 8031 803f fb00 633f 8076 813f ca12 733f
00000130: ae99 883f e97d 8d3f 3cf7 a93f dff4 933f
00000140: 97a7 723f c303 1e3f 3947 e33e f2dd 973f
00000150: deac 623f f8c6 393f 448d 5c3f fb8d 353f
00000160: 6792 8b3f 210b 433f d978 963f 8b5d 393f
00000170: 71d6 ac3f 0090 a03f c2ec 623f ea39 8a3f
00000180: 5c8e 633f d473 713f 5b4c 743f 6276 4b3f
00000190: 58ef 913f 46d4 833f 421a 8d3f 7402 793f
000001a0: 417a ab3f 2084 9d3f e9ca 9e3f fc9d 973f
000001b0: 6fdb ad3f e19b b43f cb13 ac3f c35b b83f
000001c0: e1fd 753f 3fe9 843f 06af 9f3f 0130 9d3f
000001d0: ce70 8a3f 8566 193f 425b 903f 46d7 933f
000001e0: 0fa9 9c3f fb4e 973f e423 a43f 9365 9f3f
000001f0: b80b 903f f755 6b3f 6038 943f 83d2 833f
00000200: 9dd7 9a3f 8b7d a53f b429 8a3f d7ca 933f
00000210: bbf6 a33f b5c5 a83f cedc 8a3f bb22 ac3f
00000220: 3b8d 803f 7fb9 8c3f 2d85 a43f 2ca4 9a3f
00000230: c972 893f 4f21 8e3f 72fd 523f 8fb4 9e3f
00000240: 8063 823f 013b 6f3f 416b 7c3f 833d 9a3f
00000250: c2c2 7f3f 6748 5f3f f253 a03f 1c88 a73f
00000260: b108 9c3f fadf 2f3f a729 b63f 06c0 843f
00000270: e362 513f 9a00 0f3f 6d22 7c3f e72d e03e
00000280: dc75 a43f 84e4 863f 4528 333f c2ba e43e
00000290: 4a1e 843f 06f5 1a3f 188b 853f 1cb7 733f
000002a0: fff9 563f e220 013f 1d74 2c3f 4340 363f
000002b0: 6757 fa3e bca3 9e3f c3d7 8e3f b34e 933f
000002c0: 45ef 1d3f c7fc 1a3f 6569 573f fdae 873f
000002d0: 3fa2 743f c0fc 023f 65f9 0c3e 1d65 163f
000002e0: 8bf6 253f 6baf 883f a45d 903f 2cf8 733f
000002f0: c751 1f3f da69 513f b3e2 473f ea66 363f
00000300: 9fe5 863f 9ba6 953f bab3 783f 5617 1f3f
00000310: a9b4 6e3f 727f 553f 7ec2 3a3f 87ec 8a3f
00000320: f84e 8d3f 641f 5b3f 85d8 ea3e 6d8c 463f
00000330: e302 3f3f 9ec6 413f 596f a73f ec83 c43e
00000340: 4472 a53f 34e9 753e 803c 923e b027 dc3e
00000350: 7b08 db3e 5fbe f03e d2de 143f 94bb 5c3e
00000360: ec75 4c3f 693a 6e3e a19e d53f 64ec 843f
00000370: 2c34 913e 443f ee3e 26f2 9d3e ce95 213e
00000380: 55b0 113f 9069 263f fe59 103f 43a3 f23e
00000390: 5c08 6f3f d0cb 8c3f a4c1 883f 740a bf3e
000003a0: e899 b33e 83b1 ac3e 5e67 893f 1552 9e3f
000003b0: 107b 823f 5a2c 463f ffaf 853f d963 2d3f
000003c0: 4370 363f daeb 863f 2d29 8f3f 0552 813f
000003d0: f493 463f c620 343f 44c8 383f 5bbd 6e3f
000003e0: bb23 a73f 598a 8d3f 1f4b 863f 1005 2a3f
000003f0: 66ed 6f3f c93b 2d3f 385a 733f 6cb7 803f
1.1715952 1.1150987 0.8491864 0.6171236 0.6888562 0.91243255 0.90288115 0.6530212
0.71338105 0.32294658 0.97231954 0.44716924 1.1150346 1.1136547 0.8593076 1.0220401
1.2449042 1.203259 1.1239419 1.1706262 1.1460938 1.0498785 1.1165804 0.9822432
0.8725286 1.160244 1.1415132 1.130011 1.101884 0.87346405 0.54516745 0.812678
1.0409063 1.0293549 0.9426755 1.0313194 1.0408525 1.0075288 1.2718815 1.2550852
0.84560484 0.8657789 0.9742552 0.7296898 0.91276085 0.95877755 0.92048955 0.8994382
0.92495656 0.9177883 1.003817 0.797853 0.82647943 0.8680017 0.9115446 0.7951793
0.83594775 0.9441088 0.85601217 0.8996596 0.9940002 1.0471702 0.9130952 0.9551939
0.9324405 1.0029373 1.0690885 1.0772848 0.78831834 1.0886091 1.2174133 0.88559514
1.0015106 0.8867337 1.0114288 0.94950545 1.0671899 1.105405 1.3278575 1.1559104
0.9478697 0.6172449 0.44390276 1.1864607 0.88545024 0.7256923 0.86153054 0.7091977
1.0904053 0.76188856 1.175563 0.7240836 1.3502942 1.2543945 0.88642514 1.0798924
0.888891 0.94317365 0.9542901 0.7947751 1.1401167 1.0299156 1.1023638 0.9726937
1.3396684 1.2305946 1.2405673 1.1845088 1.3582591 1.411007 1.344354 1.4403003
0.96090513 1.0383681 1.2475288 1.2280275 1.0815675 0.5992206 1.127785 1.1550071
1.2239093 1.1820978 1.2823453 1.2452873 1.1253576 0.91928047 1.1579704 1.0298618
1.209705 1.2928938 1.0793977 1.1546277 1.2809671 1.3185335 1.0848634 1.3448099
1.00431 1.0994109 1.2853142 1.2081351 1.0738155 1.1103915 0.82417977 1.2398852
1.0186615 0.9344941 0.98601156 1.2050022 0.9990655 0.8721985 1.2525618 1.3088412
1.2190152 0.68701136 1.4231461 1.0371101 0.81791514 0.5586029 0.9849003 0.4378502
1.2848468 1.0538487 0.6998332 0.44673735 1.0321743 0.60530126 1.0433073 0.9520128
0.83975214 0.504408 0.67364675 0.71191806 0.48894808 1.2393718 1.1159595 1.1508392
0.6169322 0.6054196 0.84145194 1.0600277 0.9556007 0.51166916 0.13767011 0.58748037
0.6482932 1.0678533 1.1278577 0.95300555 0.6223416 0.8180214 0.7808029 0.71250784
1.0538825 1.1691469 0.9714924 0.6214498 0.93244416 0.8339759 0.7295302 1.0853432
1.1039724 0.85594773 0.45868316 0.7755802 0.7461378 0.7569369 1.3080856 0.38381898
1.2925496 0.24014741 0.28561783 0.4299903 0.42779908 0.47020242 0.58152497 0.2155593
0.79867435 0.23264469 1.6689035 1.0384641 0.28360116 0.46532643 0.30848807 0.15779802
0.56909686 0.65004826 0.5638732 0.47390184 0.9337213 1.0999699 1.0684094 0.37312663
0.3507836 0.3372918 1.073467 1.23688 1.0193806 0.77411425 1.0444335 0.6773048
0.7126505 1.0540726 1.1184441 1.0103155 0.7756951 0.7036251 0.7218058 0.93257684
1.3057779 1.1057845 1.0491675 0.66413975 0.93721616 0.6766935 0.9505954 1.0055976
