src/saved_model/model_all_ca/decoder.pth (torch_old, 849027 bytes, 6 tensors)

lstm.weight_ih_l0 f4 [440, 110]
0	0xbf47a9a7	-0.77993244
1	0x3be82b82	0.0070852647
2	0xbf0a90de	-0.541273
3	0x3efd3247	0.4945242
4	0x3f3a2de0	0.7272625
5	0xbf406a2d	-0.7516201
6	0xbe612db2	-0.21990088
7	0x3f1579ae	0.58388793
8	0x3c9e626e	0.019334044
9	0xbea63442	-0.32461745
10	0xbf2aa14f	-0.6665239
11	0x3c58ee44	0.013240401
12	0xbf033a2d	-0.51260644
13	0xbeb6ea9d	-0.3572587
14	0x3e8729a9	0.26398972
15	0xbdf66587	-0.120310836
16	0x3d6cde3c	0.057829127
17	0x3f019c23	0.5062887
18	0x3f2846f1	0.6573325
19	0x3f3ace76	0.72971284
20	0xbebdba34	-0.37056124
21	0xbef788ff	-0.48346707
22	0xbf5e570e	-0.86851585
23	0xbdb16392	-0.0866157
24	0x3f263852	0.6492969
25	0xbf62f0e0	-0.88648796
26	0xbec74155	-0.38917032
27	0x3d9e544b	0.07730921
28	0x3cbb1fd1	0.02284232
29	0xbf14df95	-0.5815366
30	0xbec65c9b	-0.38742527
31	0x3f91c830	1.1389217
32	0x3eb6f0fe	0.35730737
33	0x3ad21bc0	0.0016029999
34	0xbf2d2cc5	-0.6764644
35	0xbd1f3e05	-0.038877506
36	0x3e18d480	0.14924812
37	0xbf1c3fc6	-0.6103481
38	0x3cf5c7ef	0.030002562
39	0x3ef42940	0.4768772
40	0xbe0fc036	-0.14038166
41	0x3f0e3d00	0.5556183
42	0xbdb7cb3a	-0.08974309
43	0xbf1ca876	-0.6119455
44	0xbd08d8e9	-0.033409987
45	0x3f46ba8f	0.77628416
46	0x3e73527b	0.23761933
47	0xbeeb564b	-0.45964274
48	0xbd136188	-0.035981685
49	0xbf29a8fc	-0.66273475
50	0x3eb47328	0.35244107
51	0x3d9f4067	0.07775956
52	0x3e73c94a	0.23807254
53	0xbf14e6c4	-0.5816462
54	0xbda8fb22	-0.08251025
55	0xbeaf86e1	-0.34282592
56	0xbf08840e	-0.533265
57	0x3f3b1dfd	0.73092633
58	0xbf16e7e5	-0.5894759
59	0x3e323b12	0.17405346
60	0x3e3db45b	0.18525831
61	0xbf6e23fa	-0.93023646
62	0xbdc25e00	-0.09490585
63	0x3db3190c	0.08745012
64	0xbdf77397	-0.12082594
65	0x3d059180	0.032609463
66	0x3f1437b3	0.5789749
67	0x3f07b9ef	0.5301809
68	0x3f270cb4	0.6525376
69	0x3ed32b87	0.41244146
70	0x3f19904b	0.599858
71	0x3e48c3e3	0.19605975
72	0xbd114361	-0.03546465
73	0x3f8494d7	1.0357922
74	0x3f2c2b00	0.6725311
75	0x3f0f9a98	0.56095266
76	0xbf05bccd	-0.5224121
77	0xbf3d2c76	-0.73895967
78	0x3f5177e3	0.8182356
79	0x3bc032a2	0.005865411
80	0xbd197f0c	-0.037474677
81	0xbf454ef3	-0.7707359
82	0x3f50e95e	0.8160609
83	0x3ed3ed78	0.41392112
84	0xbf2bc384	-0.6709521
85	0x3ec10137	0.3769624
86	0xbf793f93	-0.9736263
87	0x3dc854b5	0.097817816
88	0x3e892949	0.2678931
89	0xbe8d5698	-0.27605128
90	0xbef37e03	-0.47557077
91	0x3f0b34c2	0.5437738
92	0xbf3e7f18	-0.7441268
93	0x3f009b8f	0.50237364
94	0xbd5da3fc	-0.054111466
95	0xbe064965	-0.13113935
96	0xbf3729dc	-0.7154825
97	0x3ecf3d01	0.4047623
98	0xba86c1c8	-0.001028114
99	0x3f2e8dcc	0.68185115
100	0xbf516aa5	-0.8180335
101	0x3e7bd0b5	0.24591334
102	0xbf7cf7e0	-0.9881573
103	0xbed13c28	-0.40866208
104	0xbf29bfbc	-0.6630819
105	0x3f1cacc6	0.6120113
106	0x3d2658fc	0.040612206
107	0x3e051d7a	0.12999526
108	0xbd084394	-0.033267573
109	0xbeb0bdbf	-0.34519765
110	0xbca77fab	-0.020446619
111	0x3db8f1d0	0.09030497
112	0xbeb9696b	-0.3621324
113	0x3f194b43	0.59880465
114	0x3ed402db	0.4140843
115	0xbde6ae2b	-0.11263689
116	0x3edb1e76	0.42796677
117	0x3de41e3f	0.111385815
118	0x3e8bd09b	0.2730759
119	0xbed6f750	-0.4198556
120	0xbe9e3509	-0.30899838
121	0xbef6cabc	-0.4820155
122	0xbf297a1a	-0.6620194
123	0x3e6b53ce	0.22981188
124	0xbe0ec710	-0.13943124
125	0x3f1dec63	0.6168882
126	0xbf06e732	-0.52696526
127	0x3f43727b	0.7634656
128	0x3d28ccb4	0.041210845
129	0x3dd3ee56	0.10348193
130	0xbec19a78	-0.37813163
131	0x3ef8f110	0.48621416
132	0xbf4182db	-0.75590295
133	0x3f15f0cc	0.5857055
134	0x3ee54f82	0.44787222
135	0xbde3e2e3	-0.111272596
136	0xbf1fa777	-0.62364906
137	0xbf19f8f8	-0.6014552
138	0x3c8eb99f	0.017422495
139	0x3decb8e9	0.11558706
140	0xbf460693	-0.7735378
141	0x3fa84385	1.3145605
142	0x3efc62cf	0.49294135
143	0xbf134a91	-0.57535654
144	0x3ce65ce2	0.028120462
145	0xbb6432b1	-0.0034820253
146	0xbf2bc339	-0.6709476
147	0x3d4507c9	0.048103128
148	0x3f1ac334	0.60454106
149	0x3d2dab95	0.04239996
150	0xbdbf6628	-0.09345657
151	0xbdc1016e	-0.09424101
152	0xbdb8c9b3	-0.09022846
153	0xbf21099e	-0.629053
154	0xbf24eb5f	-0.6442165
155	0x3ddf4a01	0.10902787
156	0xbf050359	-0.51958233
157	0xbea7899a	-0.3272217
158	0xbf49829a	-0.7871491
159	0xbd9673a3	-0.07346275
160	0xbef22866	-0.47296447
161	0x3f251880	0.6449051
162	0x3f48a283	0.78372973
163	0x3c1591e5	0.009129022
164	0xbf332419	-0.69976956
165	0xbec6e33f	-0.3884525
166	0xbf06defa	-0.52683985
167	0x3de7bc3e	0.11315201
168	0x3cb9b08b	0.02266719
169	0xbf256fcb	-0.6462371
170	0x3ea6909c	0.32532203
171	0xbe00d102	-0.1257973
172	0x3f23a6f7	0.63926643
173	0x3f4ce9b9	0.8004413
174	0x3f207aa3	0.6268713
175	0xbf21a466	-0.6314148
176	0xbe98f161	-0.29871657
177	0xbbb2dfa4	-0.005458789
178	0x3da091a6	0.0784028
179	0x3e319554	0.1734212
180	0x3d1bad51	0.038007084
181	0xbe38f41f	-0.18061875
182	0xbf2f2c03	-0.6842653
183	0x3f8bebd5	1.0931345
184	0x3d8b0030	0.06787145
185	0x3ef79507	0.48355886
186	0xbe97b053	-0.29626712
187	0xbd034915	-0.03205212
188	0x3fcd2a02	1.6028445
189	0xbf1edf40	-0.620594
190	0xbf0d7b09	-0.5526586
191	0xbf8320e4	-1.0244412
192	0x3ea507d6	0.3223254
193	0xbddea7c4	-0.108718425
194	0x3d664d8e	0.056226306
195	0x3e9f3dcd	0.31101838
196	0xbe958f72	-0.29211003
197	0x3c18e05d	0.009330836
198	0x3f5970e2	0.8493787
199	0xbeb7f97c	-0.3593253
200	0xbecbe353	-0.39821872
201	0x3d8468e0	0.06465316
202	0xbd959540	-0.07303858
203	0x3f109996	0.56484354
204	0xbf1a35d8	-0.6023841
205	0x3f25f7d7	0.648313
206	0x3cb50643	0.022097712
207	0x3e495e13	0.19664793
208	0x3d5d2e77	0.05399939
209	0xbf040fb5	-0.5158647
210	0xbe8d5d9d	-0.27610484
211	0x3e674a77	0.22587
212	0xbe6eff23	-0.23339514
213	0xbed12b8d	-0.4085354
214	0xbdf34453	-0.11878266
215	0x3d8cffbd	0.06884716
216	0xbf0389f0	-0.5138235
217	0xbf346057	-0.704595
218	0x3e2f0df2	0.17095163
219	0xbf256a6b	-0.64615506
220	0xbf403711	-0.75084025
221	0xbf19515d	-0.59889776
222	0xbf45ada2	-0.7721807
223	0xbefe8837	-0.497133
224	0xbf1c44f6	-0.61042726
225	0xbf328ba2	-0.6974431
226	0xbf48d2d9	-0.7844673
227	0x3f194872	0.5987617
228	0x3e464313	0.19361524
229	0xbe98d134	-0.2984711
230	0xbd9511a4	-0.07278755
231	0x3a0f895b	0.00054754846
232	0xbf1b1435	-0.6057771
233	0xbf89d087	-1.0766762
234	0xbea05141	-0.31311992
235	0xbc9dbb50	-0.019254357
236	0x3f07e8ba	0.5308949
237	0xbee5fbda	-0.4491871
238	0x3f1f5221	0.62234694
239	0x3f255507	0.64582866
240	0x3f06136f	0.52373403
241	0x3d92a068	0.07159501
242	0xbe89459c	-0.2681092
243	0x3dae18ae	0.08500801
244	0x3f0d3f70	0.5517492
245	0xbf1ca58d	-0.6119011
246	0x3e2c79dd	0.16843362
247	0x3d80c1cc	0.06286964
248	0xbf2fa1c9	-0.6860624
249	0xbf863a6e	-1.0486581
250	0xbebbb46a	-0.36661083
251	0xbe6fa52f	-0.23402856
252	0xbee949fc	-0.45564258
253	0xbb881755	-0.004153172
254	0xbf3fe93b	-0.74965256
255	0xbf0945ae	-0.5362195

lstm.weight_hh_l0 f4 [440, 110]
0	0x3e8ae2ea	0.27126247
1	0xbe40dbd9	-0.18833865
2	0x3f11a0d4	0.5688603
3	0x3e13ffcf	0.14453052
4	0x3e0b25b4	0.13588601
5	0x3ec057d7	0.37567016
6	0x3ec1fd63	0.3788863
7	0x3d8d2076	0.06890957
8	0xbcea1145	-0.028572688
9	0xbdfe30cf	-0.12411653
10	0x3f064f24	0.5246451
11	0x3e862e2e	0.26207107
12	0x3e1cc782	0.15310481
13	0x3dc48f88	0.09597689
14	0x3f40f4ef	0.7537374
15	0xbefbe571	-0.49198487
16	0x3f0fdab1	0.5619307
17	0x3e3c085c	0.18362564
18	0x3f13dc04	0.5775759
19	0x3e4399a8	0.19101584
20	0xbec8aa6c	-0.39192522
21	0xbe10cd40	-0.14140797
22	0xbf0b6485	-0.54450256
23	0x3dcec826	0.10096769
24	0x3f4edec9	0.80808693
25	0x3db88314	0.09009376
26	0x3e79229a	0.24329606
27	0xbe93eb3b	-0.28890404
28	0x3ed8a95b	0.42316708
29	0xbd6b218a	-0.057405032
30	0x3d1c0671	0.03809208
31	0x3ef5962b	0.47966132
32	0x3e58b8c7	0.21164237
33	0x3e803bf9	0.25045756
34	0x3d6bccb6	0.057568274
35	0x3e2b1b42	0.16709617
36	0x3ef17deb	0.4716638
37	0x3e4f68f3	0.20254879
38	0xbd40c473	-0.04706235
39	0xbf086d19	-0.5329147
40	0xbe6e2d50	-0.23259473
41	0x3dda8811	0.10670484
42	0xbe8d5f1a	-0.2761162
43	0xbf1a6963	-0.6031706
44	0x3e1466ad	0.14492293
45	0x3e447028	0.19183409
46	0x3f361df2	0.7113944
47	0xbeb59a57	-0.35469314
48	0x3e337944	0.17526728
49	0x3c5f2e74	0.013621915
50	0x3e1d6183	0.15369229
51	0xbd36f147	-0.044663694
52	0x3e3a7cbf	0.1821165
53	0xbf36567c	-0.71225715
54	0x3e868af1	0.2627788
55	0xbf0ed13f	-0.55788034
56	0xbef925e2	-0.48661715
57	0x3f0adacb	0.542401
58	0xbf3d2762	-0.7388822
59	0x3db10a3d	0.08644531
60	0xbbf06d69	-0.0073372615
61	0xbd5d205a	-0.05398593
62	0x3d398acd	0.045298386
63	0xbe0cdcd1	-0.1375611
64	0xbddc9433	-0.10770454
65	0x3e2da171	0.16956116
66	0x3cba5d00	0.022749424
67	0x3e12fc5c	0.1435408
68	0x3e54d08c	0.2078268
69	0x3e6852a6	0.22687778
70	0x3f26f517	0.6521773
71	0x3da884c2	0.082284465
72	0x3ec59e99	0.38597563
73	0xbdd7a273	-0.105290316
74	0xbdafe5c7	-0.085887484
75	0x3f0365bc	0.5132711
76	0xbec31e88	-0.3810923
77	0x3d8fc1f8	0.070194185
78	0x3e881afa	0.2658308
79	0x3e16083b	0.14651577
80	0xbe5b1e51	-0.21398284
81	0xbeecce6d	-0.4625124
82	0x3f6a4509	0.9151159
83	0x3e6e9fc5	0.23303135
84	0xbea921c1	-0.33033565
85	0xbd88293d	-0.066484906
86	0xbf4eb7fb	-0.8074948
87	0x3f494fb0	0.7863722
88	0x3dfd25d9	0.123607345
89	0xbea7129a	-0.3263138
90	0xbe93b8bb	-0.28851876
91	0x3f3480e9	0.705092
92	0x3eee0f01	0.46495822
93	0x3f123a6a	0.5712038
94	0xbe8f4ff1	-0.27990678
95	0x3da0ee5d	0.07857964
96	0xbeaad1f3	-0.33363304
97	0x3e4441f8	0.1916579
98	0x3de9bd2c	0.11413035
99	0x3f562f5f	0.8366603
100	0xbeb6ebfa	-0.3572691
101	0x3e6f5364	0.23371655
102	0xbf49b688	-0.78794146
103	0xbc9d2882	-0.019184355
104	0xbf6112c7	-0.87919277
105	0x3f0ae2a4	0.54252076
106	0xbf01097c	-0.50405097
107	0xbbf2fd2a	-0.0074154334
108	0x3f39627d	0.72415906
109	0xbf09dff7	-0.5385737
110	0xbe503fcc	-0.20336837
111	0xbefee49f	-0.497838
112	0xbea05a84	-0.31319058
113	0x3efdd401	0.4957581
114	0x3e9a8f7e	0.301876
115	0x3f07302e	0.5280789
116	0x3e0c59d8	0.13706148
117	0x3f0543ed	0.5205677
118	0xbe315bfc	-0.17320246
119	0xbf17a8cb	-0.5924193
120	0x3ecde623	0.40214643
121	0x3cbac71e	0.022800025
122	0x3ecf455e	0.4048261
123	0x3dd921c3	0.10602143
124	0x3f2bdfef	0.6713857
125	0x3ea2d0e6	0.31800002
126	0x3d7f6ec2	0.062361486
127	0x3e465092	0.19366673
128	0x3effd5fa	0.4996794
129	0x3e0ad015	0.1355594
130	0xbf0f2208	-0.559113
131	0x3f1dd99a	0.6166016
132	0xbf1e403a	-0.6181675
133	0x3eab9819	0.3351448
134	0x3f0d9fef	0.55322164
135	0xbde1de1d	-0.11028693
136	0xbeedc695	-0.4644057
137	0xbf1322a6	-0.57474744
138	0xbd24ee3e	-0.040266268
139	0x3ebdcf63	0.37072286
140	0xbf08883b	-0.5333287
141	0xbf0bd755	-0.54625446
142	0xbd88986d	-0.06669698
143	0x3ee2067b	0.4414557
144	0x3f0d5a03	0.5521547
145	0x3ef0bd3b	0.4701937
146	0x3d8ef9cb	0.06981238
147	0x3f711b43	0.94182223
148	0x3f37276e	0.7154454
149	0xbd603682	-0.054739483
150	0xbd01ed55	-0.031720478
151	0xbe58502e	-0.21124336
152	0xbf06e6e0	-0.5269604
153	0x3da8cf9b	0.082427226
154	0xbd2d3f0a	-0.042296447
155	0x3dfb3d2f	0.12267529
156	0xbcf683a2	-0.030092064
157	0x3df03002	0.11727907
158	0xbe347d46	-0.17625913
159	0xbf0f0fe0	-0.558836
160	0xbe3696eb	-0.17831008
161	0x3e08fda7	0.1337801
162	0x3e3af749	0.18258394
163	0xbe9e4d92	-0.30918556
164	0x3cc3e775	0.023914078
165	0xbe5c3add	-0.2150683
166	0x3e0f9ebe	0.14025399
167	0x3d8e30e0	0.06942916
168	0x3d2c00a8	0.041992813
169	0xbf317d3a	-0.69331706
170	0x3dfeec95	0.12447468
171	0xbda34d51	-0.07973731
172	0xbe953d6d	-0.29148427
173	0x3dd828a9	0.1055463
174	0x3f20d299	0.62821347
175	0xbee8bc4f	-0.45456168
176	0xbdc8c7f7	-0.09803765
177	0x3c61bceb	0.013777952
178	0x3f191ab8	0.59806395
179	0x3ecf928c	0.40541494
180	0x3f163c05	0.5868533
181	0x3eaf4901	0.34235385
182	0xbf00aaa5	-0.5026038
183	0xbb8d75c0	-0.0043170154
184	0xbf173a36	-0.590732
185	0x3f09f78d	0.5389336
186	0x3cbd4f96	0.023109239
187	0xbf1b3076	-0.6062082
188	0x3ea1618b	0.31519732
189	0xbf225909	-0.63417107
190	0xbed97ad2	-0.42476517
191	0xbee375b5	-0.4442574
192	0x3efd2b72	0.4944721
193	0x3eaeaaca	0.34114677
194	0x3f556579	0.8335796
195	0x3e677429	0.22602905
196	0xbf0a753d	-0.5408514
197	0x3df1c084	0.118042976
198	0xbcf93176	-0.030419093
199	0xbf016d66	-0.50557554
200	0xbef80d02	-0.48447424
201	0xbcf8ea46	-0.030385148
202	0x3e55e5f2	0.20888498
203	0x3f287c9a	0.65815127
204	0xbf1e6d29	-0.61885315
205	0xbf0c2347	-0.5474133
206	0xbf10d3ff	-0.5657348
207	0xbdd3a93f	-0.103350155
208	0xbf36605f	-0.712408
209	0x3ec806e7	0.39067766
210	0xbf371a5e	-0.7152461
211	0x3edadebf	0.42748067
212	0x3d4e4a89	0.05036405
213	0xbcaaaa0b	-0.020833036
214	0x3e9d6c74	0.30746806
215	0xbe9989d3	-0.29987964
216	0x3cae94e4	0.021311231
217	0xbeda244f	-0.42605826
218	0x3dc36e98	0.095425785
219	0xbd85a178	-0.06524938
220	0xbdc2f632	-0.09519614
221	0xbf1efb02	-0.6210176
222	0xbe8cfbab	-0.27535757
223	0x3f4dbe3d	0.80368406
224	0x3f791ba5	0.9730781
225	0x3ea5bf4e	0.32372516
226	0x3f1208f3	0.57044905
227	0x3f015a74	0.50528646
228	0xbc606d4e	-0.013697935
229	0xbe12fd79	-0.14354505
230	0x3ef46bc8	0.4773848
231	0xbd7fa080	-0.062408924
232	0x3fa27811	1.2692891
233	0x3f4e571c	0.8060167
234	0x3f69656d	0.9117039
235	0xbdc435f7	-0.095806055
236	0xbe1addad	-0.15123625
237	0x3f663398	0.89922476
238	0x3f177700	0.59165955
239	0x3f4d6e82	0.80246747
240	0xbfa296c5	-1.2702261
241	0x3ce0b9e0	0.027432382
242	0xbfa4f933	-1.288855
243	0xbe273a62	-0.16330865
244	0x3f32ce1c	0.6984575
245	0x3e0673ec	0.13130158
246	0x3d518263	0.051149737
247	0xbe8f128a	-0.27943832
248	0xbdf11783	-0.11772063
249	0x3ef07ef3	0.46971855
250	0xbf7cb5e4	-0.98715043
251	0x3f16b45d	0.5886896
252	0x3e98aa5f	0.29817483
253	0x3e35455b	0.17702238
254	0x3efa1394	0.48843062
255	0x3e7c1128	0.2461592

lstm.bias_ih_l0 f4 [440]
0	0xbfaea862	-1.3645136
1	0xbf81a927	-1.0129746
2	0xbe829eca	-0.2551177
3	0xbf8cd0e5	-1.100125
4	0xbeff113a	-0.4981783
5	0xbe8a60e1	-0.27027038
6	0x3dfb70a4	0.12277344
7	0xbf7c3485	-0.9851764
8	0xbf24df63	-0.6440336
9	0x3ed64805	0.41851822
10	0x3e93645a	0.287875
11	0xbf17a82e	-0.59240997
12	0xbe84078f	-0.25787017
13	0xbf06a4b5	-0.52595073
14	0xbf83dc21	-1.0301553
15	0xbf8bcaee	-1.0921304
16	0xbdf8675d	-0.1212909
17	0xbea539c1	-0.32270625
18	0xbf530318	-0.82426596
19	0xbf97d2d1	-1.1861211
20	0xbe3be085	-0.18347366
21	0xbf5bef52	-0.8591205
22	0x3ee1a95a	0.44074517
23	0xbf9c557e	-1.221359
24	0x3f6471ec	0.8923633
25	0xbe3648a4	-0.17801148
26	0xbf88dc61	-1.0692254
27	0x3e29686b	0.16543739
28	0xbf39195a	-0.7230431
29	0xbe1a16d3	-0.15047769
30	0xbf947a9c	-1.1599917
31	0xbe7bc392	-0.24586323
32	0x3f2c7f24	0.673815
33	0xbfaa0e71	-1.3285657
34	0x3d184bf0	0.037181795
35	0xbf075e80	-0.5287857
36	0xbf7e9e08	-0.99459887
37	0xbff1f84e	-1.8903902
38	0xbf164dda	-0.5871254
39	0xbee30af9	-0.4434431
40	0xbf686207	-0.9077458
41	0xbf912164	-1.1338315
42	0xbed65924	-0.41864884
43	0xbe8dfd07	-0.27732107
44	0xbf74bc7e	-0.95600116
45	0xbde5518a	-0.11197193
46	0xbf5575f5	-0.83383113
47	0xbe85ae44	-0.26109517
48	0xbf46eab1	-0.7770186
49	0xbfbf991a	-1.4968598
50	0xbf80923b	-1.0044626
51	0xbf9927a9	-1.1965228
52	0xbf747d92	-0.95504105
53	0xbf5b0788	-0.85558367
54	0xbed935fb	-0.42423996
55	0xbe20dd13	-0.15709333
56	0x3cb51039	0.022102462
57	0xbf62950c	-0.8850868
58	0xbfa2c990	-1.2717762
59	0xbf6e88ce	-0.931775
60	0xbf944cdb	-1.1585954
61	0xbceab641	-0.028651359
62	0xbf7a3458	-0.9773612
63	0xbf15ca9b	-0.58512276
64	0xbeee4f86	-0.46545047
65	0xbfee8ea9	-1.8637286
66	0xbef578d2	-0.4794374
67	0xbf9a3ce0	-1.2049828
68	0xbedba543	-0.42899522
69	0xbe360818	-0.17776525
70	0xbf741727	-0.9534783
71	0xbe1de318	-0.1541866
72	0xbf3c0dda	-0.73458636
73	0xbf81300d	-1.0092789
74	0x3e6a4553	0.22878008
75	0xbe8ac46f	-0.27102992
76	0xbf63a9cc	-0.88930964
77	0xbf350a9f	-0.7071933
78	0xbe4795f5	-0.19490798
79	0xbf4c4746	-0.79796255
80	0xbe10ae8e	-0.14129087
81	0xbed90096	-0.4238326
82	0xbf99ea8a	-1.2024701
83	0xbf8ed394	-1.1158319
84	0xbf9a33b2	-1.2047026
85	0xbee182c5	-0.44045082
86	0xbd7d859a	-0.06189499
87	0xbf85f77f	-1.0466155
88	0xbfaefa76	-1.3670185
89	0x3f00bb30	0.50285625
90	0xbfad8a4e	-1.3557832
91	0xbf84c0a1	-1.0371286
92	0xbe1e843c	-0.15480131
93	0xbe2e3cf4	-0.1701544
94	0xbece7f88	-0.40331674
95	0xbf3ffa04	-0.7499087
96	0x3dd0020e	0.10156642
97	0xbe45e555	-0.19325764
98	0xbf438847	-0.7637982
99	0xbe006c2a	-0.12541261
100	0xbf43aa01	-0.7643128
101	0xbe52e9a4	-0.2059694
102	0xbe64b52b	-0.22334735
103	0xbdd5c991	-0.10438836
104	0x3ec7fc20	0.39059544
105	0x3e9aae64	0.30211174
106	0xbf3964f0	-0.72419643
107	0xbf897402	-1.0738528
108	0xbf0efd16	-0.5585493
109	0xbe8f90d3	-0.2804018
110	0x3e09d7a6	0.1346117
111	0xbdb703da	-0.089362815
112	0x3e6fb192	0.23407581
113	0x3efbc5f0	0.49174452
114	0xbf0763ce	-0.52886665
115	0xbf28bf28	-0.6591668
116	0xbf8dc4e9	-1.1075717
117	0x3c428360	0.011872143
118	0xbf8f6e61	-1.120556
119	0xbdfa8bba	-0.12233682
120	0xbeba29da	-0.36360055
121	0x3f1c3af6	0.6102747
122	0x3e9c463f	0.30522344
123	0xbe92f48f	-0.28702208
124	0xbf5174c5	-0.818188
125	0xbe172305	-0.14759453
126	0xbed2ae23	-0.4114848
127	0xbe2c22c7	-0.16810142
128	0xbdd341da	-0.103152946
129	0xbe89db6a	-0.26925212
130	0xbe97886f	-0.29596278
131	0xbf391873	-0.7230293
132	0xbe6ac15f	-0.22925328
133	0x3dd0b40e	0.10190593
134	0x3eb3c326	0.35109824
135	0xbc0f76e1	-0.00875637
136	0xbf33aa14	-0.70181394
137	0x3f18c789	0.59679466
138	0xbf48962f	-0.7835416
139	0x3d2ac294	0.04168947
140	0x3f0091e4	0.5022261
141	0xbf3225c3	-0.6958887
142	0xbf8aa72f	-1.083227
143	0xbf29f0b2	-0.66382897
144	0x3e3b6b4d	0.18302651
145	0xbf7c5e58	-0.9858146
146	0xbe928bb5	-0.28622213
147	0x3ec56bfe	0.38558954
148	0xbe30e70d	-0.17275639
149	0xbf372539	-0.7154117
150	0xbe4dad33	-0.20085602
151	0xbf537bda	-0.8261086
152	0xbe252d65	-0.16130598
153	0xbeee6a17	-0.46565315
154	0xbf8a6a54	-1.0813699
155	0xbe71fad3	-0.23630838
156	0xbd34d96d	-0.044152666
157	0xbf28896d	-0.65834695
158	0xbf422046	-0.75830495
159	0x3e910f6b	0.28332075
160	0x3d64642e	0.0557596
161	0xbf31b0d2	-0.6941043
162	0xbf15d6e9	-0.5853105
163	0xbf32518a	-0.6965567
164	0xbceb0aad	-0.028691614
165	0xbe8bc668	-0.2729981
166	0xbdc56e3f	-0.096401684
167	0xbd103862	-0.03521002
168	0xbf25c6c9	-0.6475645
169	0xbe1604f5	-0.14650328
170	0xbf147871	-0.5799628
171	0xbe10a40e	-0.14125082
172	0xbf1cedd1	-0.6130038
173	0x3ed505de	0.4160604
174	0xbde53b40	-0.11192942
175	0x3ed29bbf	0.4113445
176	0xbe59006a	-0.21191564
177	0xbdf1dec2	-0.11810066
178	0xbe70ee58	-0.23528421
179	0xbe3c47ae	-0.18386719
180	0x3f4bb588	0.7957387
181	0xbf2b58e2	-0.669325
182	0xbef65295	-0.4810988
183	0xbf0ee9ce	-0.5582551
184	0xbdb6d855	-0.08927981
185	0x3f4741d7	0.7783484
186	0xbf07abb3	-0.5299637
187	0xbe3e6f00	-0.1859703
188	0x3dfdf869	0.12400896
189	0x3c693400	0.014233589
190	0x3f21790f	0.63075346
191	0x3ea462a6	0.32106513
192	0x3ce12a0d	0.027485872
193	0xbd1d563e	-0.038412325
194	0x3de34ab9	0.110982366
195	0xbf10e87c	-0.56604743
196	0xbe0f2e1c	-0.13982433
197	0xbe905490	-0.28189516
198	0x3eec4150	0.4614358
199	0xbde58e1f	-0.11208748
200	0x3ec4065f	0.3828611
201	0xbca5ac49	-0.020223754
202	0xbd5464cb	-0.051853936
203	0xbf08c314	-0.53422666
204	0xbdb7fc83	-0.0898371
205	0x3f0d065a	0.55087817
206	0xbe9592c2	-0.2921353
207	0xbf376b61	-0.7164822
208	0xbd812729	-0.06306297
209	0xbe38e9dc	-0.1805796
210	0x3eb31d89	0.3498347
211	0xbf09d290	-0.5383692
212	0xbf4eef9b	-0.8083436
213	0xbca172f7	-0.01970814
214	0x3f7ded7d	0.99190503
215	0xbe37b9f2	-0.17942026
216	0xbd964987	-0.07338243
217	0xbe546170	-0.20740294
218	0xbee68f25	-0.45031086
219	0xbf3ce218	-0.7378249
220	0xbed9ae15	-0.42515627
221	0x3e9c5be0	0.30538845
222	0x3e971208	0.29505944
223	0xbf2a5b7f	-0.6654586
224	0xbf34ebf1	-0.7067252
225	0xbeb6b42c	-0.35684335
226	0xbf1830c6	-0.5944942
227	0x3e87fd3f	0.265604
228	0xbb593041	-0.0033140334
229	0x3f25a026	0.6469749
230	0xbf05c47f	-0.52252954
231	0x3f1ec033	0.6201202
232	0xbf143b4e	-0.5790299
233	0xbed07574	-0.4071461
234	0x3e74aca6	0.23893985
235	0xbf216f82	-0.6306077
236	0x3e6f09bc	0.23343557
237	0xbf201ec7	-0.6254696
238	0x3eaf075b	0.341853
239	0xbf333eb3	-0.70017546
240	0x3f18bf1b	0.59666604
241	0xbf1e3028	-0.6179223
242	0xbe0fb01f	-0.14032029
243	0xbe828c2c	-0.25497568
244	0xbf4654e2	-0.7747327
245	0xbf05e538	-0.52302885
246	0xbea2b358	-0.31777453
247	0x3f312ace	0.6920594
248	0xbecf8ab1	-0.405355
249	0xbf2d1920	-0.6761646
250	0x3ea110b3	0.31458053
251	0x3ea376d8	0.31926608
252	0xbeb2c806	-0.3491823
253	0x3f3484c4	0.70515084
254	0xbf1ee868	-0.62073374
255	0xbef1ae92	-0.472035

lstm.bias_hh_l0 f4 [440]
0	0xbf9c9ee3	-1.2235988
1	0xbf6bd828	-0.92126703
2	0xbe4a52e3	-0.19758181
3	0xbf8a84d6	-1.0821788
4	0xbf106637	-0.5640597
5	0xbeb29127	-0.34876367
6	0xbca298a8	-0.019848183
7	0xbf916784	-1.1359715
8	0xbf1b842a	-0.6074854
9	0x3ed685ff	0.41899106
10	0x3ea7ec96	0.32797688
11	0xbf02e3ea	-0.5112902
12	0xbe6dd4f1	-0.23225762
13	0xbf0cf126	-0.55055463
14	0xbf7309c8	-0.949368
15	0xbf87043e	-1.054817
16	0xbddf4148	-0.10901123
17	0xbec1abe1	-0.37826446
18	0xbf684975	-0.90737087
19	0xbfad6c1b	-1.3548616
20	0xbe7e4563	-0.24831156
21	0xbf3b51b3	-0.7317154
22	0x3eb761dc	0.35816848
23	0xbfb0a78f	-1.3801135
24	0x3f55558d	0.83333665
25	0xbe6137c6	-0.21993932
26	0xbf7caa5e	-0.9869746
27	0x3d34072e	0.04395216
28	0xbf42ca9e	-0.7609042
29	0xbd035760	-0.03206575
30	0xbf90208d	-1.1259934
31	0xbe17745c	-0.14790481
32	0x3f28b666	0.6590332
33	0xbfaa17f9	-1.3288566
34	0x3deaa926	0.11458044
35	0xbf05f01b	-0.52319497
36	0xbf736e7e	-0.9509047
37	0xbff85027	-1.939946
38	0xbf16530b	-0.58720464
39	0xbec3a8ce	-0.38214725
40	0xbf55e5fa	-0.8355404
41	0xbf94c0ff	-1.1621398
42	0xbeb2fa9b	-0.34956822
43	0xbea8825e	-0.32911962
44	0xbf8b38ab	-1.0876669
45	0xbd40922f	-0.04701441
46	0xbf5d71bb	-0.86501664
47	0xbe59ea4b	-0.21280782
48	0xbf48818b	-0.78322667
49	0xbfadc3f1	-1.3575422
50	0xbf825086	-1.0180824
51	0xbf9d2d34	-1.227942
52	0xbf7ff8dd	-0.9998911
53	0xbf5a9df9	-0.853973
54	0xbeab5bf7	-0.334686
55	0xbd89caa2	-0.06728102
56	0xbd523a7a	-0.0513253
57	0xbf614be7	-0.8800644
58	0xbfa15715	-1.26047
59	0xbf77b233	-0.96756285
60	0xbf8d8f99	-1.1059448
61	0xbd4ea86c	-0.05045359
62	0xbf89087b	-1.0705713
63	0xbf23171a	-0.63707125
64	0xbef46382	-0.47732168
65	0xbfe0e4e1	-1.7569848
66	0xbebce65c	-0.368945
67	0xbfa14b55	-1.2601115
68	0xbeeacb04	-0.45858014
69	0xbe16e48b	-0.1473562
70	0xbf82e739	-1.0226814
71	0xbe44dcf5	-0.19224913
72	0xbf51bb90	-0.8192682
73	0xbf8b5e4e	-1.0888155
74	0x3e55fa60	0.20896292
75	0xbeb152e9	-0.34633568
76	0xbf51e0fa	-0.8198391
77	0xbf3f4a39	-0.7472263
78	0xbe7376fd	-0.23775859
79	0xbf663d90	-0.89937687
80	0x39d2b5c0	0.00040189736
81	0xbeca1588	-0.39469552
82	0xbfa096ca	-1.2546017
83	0xbf894209	-1.0723277
84	0xbf978ef8	-1.1840506
85	0xbea9edb9	-0.3318918
86	0xbe122ccd	-0.14274903
87	0xbf736c60	-0.9508724
88	0xbfb86999	-1.4407226
89	0x3f2a0820	0.6641865
90	0xbfaa1bc8	-1.3289728
91	0xbf85abb9	-1.044303
92	0xbcafd3dc	-0.021463327
93	0xbe6136a8	-0.21993506
94	0xbf072b8e	-0.52800834
95	0xbf68d4e1	-0.9094983
96	0xbbf59e65	-0.0074956887
97	0xbe68cb9e	-0.22733924
98	0xbf48a764	-0.7838042
99	0xbe3df620	-0.1855092
100	0xbf3fba2d	-0.74893457
101	0xbe775fa8	-0.24157584
102	0xbe1314df	-0.1436343
103	0xbdf39868	-0.118943036
104	0x3ed84e28	0.42247128
105	0x3ea92d3c	0.33042324
106	0xbf514ba4	-0.81756043
107	0xbf705aec	-0.93888736
108	0xbf1e8e10	-0.6193552
109	0xbe88dfac	-0.26733148
110	0x3e0a7f2a	0.13525072
111	0xbd373db6	-0.044736587
112	0x3e423860	0.18966818
113	0x3ef13861	0.47113326
114	0xbec9cbf2	-0.3941341
115	0xbf32de86	-0.69870794
116	0xbf958865	-1.1682249
117	0xbd2a86b8	-0.041632384
118	0xbf92226a	-1.1416752
119	0xbe72762f	-0.23677896
120	0xbef59ced	-0.47971287
121	0x3f22eebc	0.6364553
122	0x3e985230	0.29750204
123	0xbe92e016	-0.2868659
124	0xbf53114c	-0.8244827
125	0xbe200813	-0.1562808
126	0xbecae072	-0.39624363
127	0xbe48b833	-0.19601516
128	0xbe7750c0	-0.24151897
129	0xbdebda8c	-0.11516294
130	0xbdeb7992	-0.11497797
131	0xbf3bafe8	-0.73315287
132	0xbea87d52	-0.32908112
133	0x3df9e0ec	0.122011036
134	0x3eac4fb0	0.33654547
135	0x3d12dfb4	0.03585787
136	0xbf3e3168	-0.7429414
137	0x3ee9a2de	0.4563207
138	0xbf53998d	-0.82656175
139	0xbb82806a	-0.0039825933
140	0x3f1be4c6	0.60895956
141	0xbf0b0683	-0.5430681
142	0xbf724a51	-0.9464465
143	0xbf2eb552	-0.6824542
144	0x3e148ffa	0.14508048
145	0xbf7c60a8	-0.98584986
146	0xbeb52b61	-0.35384658
147	0x3eb0840c	0.34475744
148	0xbdacba14	-0.08433929
149	0xbf5b8c1d	-0.8576067
150	0xbe16aefb	-0.14715187
151	0xbf297753	-0.661977
152	0xbc1ae8c9	-0.009454914
153	0xbefd68b3	-0.49493942
154	0xbf858722	-1.0431864
155	0xbe558b0e	-0.20853826
156	0xbde8b6f5	-0.11363021
157	0xbf2429e1	-0.641264
158	0xbf4ae984	-0.79262567
159	0x3e864af1	0.2622905
160	0x3d95ff83	0.073241256
161	0xbf1a9cc8	-0.6039548
162	0xbefdeaeb	-0.4959329
163	0xbf3e2a18	-0.7428298
164	0xbca4002c	-0.020019613
165	0xbe15fc00	-0.14646912
166	0x3d3f5398	0.04671058
167	0xbb697f12	-0.0035628718
168	0xbf37ff9c	-0.71874404
169	0xbd956a9e	-0.07295726
170	0xbf1c8eb4	-0.6115525
171	0xbb3a9f3d	-0.002847626
172	0xbf3f73ca	-0.74786055
173	0x3ec0b028	0.37634397
174	0xbe27f48a	-0.16401878
175	0x3f05aa58	0.5221305
176	0xbea66fcf	-0.32507178
177	0xbde37277	-0.11105817
178	0xbe9c288c	-0.30499685
179	0xbe1da1b9	-0.15393724
180	0x3f518aca	0.818524
181	0xbf072926	-0.5279716
182	0xbe978000	-0.29589844
183	0xbf173246	-0.59061086
184	0xbdfced79	-0.12349982
185	0x3f2fbf3f	0.68651193
186	0xbebfa7ee	-0.37432808
187	0xbc66e372	-0.014092313
188	0x3dba95cc	0.09110603
189	0x3c9d3fea	0.019195516
190	0x3f29585b	0.66150445
191	0x3ee37504	0.44425213
192	0x3e00b0fd	0.12567516
193	0xbdfd9807	-0.123825125
194	0x3dc74dcf	0.09731638
195	0xbf0b25a1	-0.5435429
196	0xbde5e5cf	-0.11225473
197	0xbea82460	-0.32840252
198	0x3eb4e536	0.35331124
199	0xbd56fba1	-0.052486066
200	0x3ef185ea	0.4717248
201	0xbdc4404c	-0.09582576
202	0x3bfdc7e0	0.007744774
203	0xbef48cb8	-0.4776361
204	0x3bda0ad5	0.0066541233
205	0x3f01e184	0.50734735
206	0xbdf8cf4c	-0.12148914
207	0xbf126386	-0.5718311
208	0xbdefe686	-0.11713891
209	0xbe3fb4b7	-0.18721281
210	0x3ea7c522	0.32767588
211	0xbf18ff37	-0.59764427
212	0xbf6f2f08	-0.9343114
213	0x3d0a293e	0.033730738
214	0x3f85e8a3	1.046162
215	0xbe5ff428	-0.21870482
216	0x3c1b8163	0.009491297
217	0xbe0cd114	-0.13751632
218	0xbf1396e3	-0.5765211
219	0xbf5add36	-0.8549379
220	0xbedd9baa	-0.43282825
221	0x3e8f205a	0.2795437
222	0x3e742302	0.2384148
223	0xbf15b1e8	-0.5847459
224	0xbf0a55fb	-0.54037446
225	0xbecbffe1	-0.39843658
226	0xbf39bdf1	-0.7255545
227	0x3ebf06f6	0.37309998
228	0xbc888d7b	-0.016669026
229	0x3f343531	0.70393664
230	0xbf28531a	-0.657518
231	0x3f13cb40	0.5773201
232	0xbf200318	-0.6250472
233	0xbebde835	-0.37091222
234	0x3e94b78d	0.29046288
235	0xbf23659e	-0.6382693
236	0x3e8766b1	0.26445535
237	0xbef78a4d	-0.48347703
238	0x3e86c09b	0.2631882
239	0xbf2266e4	-0.6343825
240	0x3f0fcb2e	0.561694
241	0xbf2f65cf	-0.6851472
242	0xbe204d8c	-0.15654582
243	0xbea76db1	-0.32700875
244	0xbf439c2d	-0.7641018
245	0xbee9d2f5	-0.4566876
246	0xbee998e8	-0.4562447
247	0x3f35e2d7	0.71049255
248	0xbef51178	-0.4786489
249	0xbf113213	-0.5671703
250	0x3e86f45a	0.263583
251	0x3ea5987c	0.323429
252	0xbeae0f94	-0.3399626
253	0x3f46b998	0.77626944
254	0xbf26db41	-0.65178305
255	0xbf01628e	-0.5054101

out.weight f4 [1030, 110]
0	0x3ebedba3	0.37276945
1	0xbe288f80	-0.16460991
2	0xbe78648b	-0.24257104
3	0xbf4ae343	-0.79253024
4	0x3f57eb18	0.843431
5	0x3f0de17a	0.55422175
6	0x3f640c7b	0.89081544
7	0x3db9e4cd	0.090768434
8	0x3f3667d1	0.7125216
9	0xbc8943dc	-0.01675599
10	0x3e55dd2f	0.20885156
11	0x3e1e9923	0.15488105
12	0xbd5b51b2	-0.053544708
13	0xbd51ca2d	-0.0512182
14	0xbf08fc65	-0.53510123
15	0xbeeced47	-0.46274778
16	0x3ee86ce6	0.45395583
17	0xbe1f2b85	-0.15543945
18	0x3cfbba47	0.030728472
19	0x3ceeba0b	0.029141447
20	0xbe8401e6	-0.25782698
21	0xbe155537	-0.14583288
22	0xbd850693	-0.064953946
23	0xbe2e43fd	-0.17018123
24	0xbe95280e	-0.29132122
25	0x3e155e9d	0.14586873
26	0x3dd0606b	0.1017464
27	0x3e0400b8	0.12890899
28	0xbe9325a3	-0.28739652
29	0x3e1fc392	0.15601948
30	0xbd4dabab	-0.050212543
31	0xbe3169b9	-0.17325486
32	0x3ed93823	0.4242564
33	0xbdf0beb0	-0.11755121
34	0x3f9b7209	1.2144176
35	0x3c9d0106	0.019165527
36	0x3cc7cd21	0.024389805
37	0xbf1e57a6	-0.6185249
38	0xbd627056	-0.055282913
39	0x3f32f9f7	0.69912666
40	0xbebd9017	-0.37023994
41	0xbd826328	-0.06366569
42	0xbc1f8611	-0.009736554
43	0x3ea3a33a	0.3196047
44	0xbe73057d	-0.23732562
45	0xbd2add4c	-0.04171495
46	0x3eaa642d	0.33279553
47	0x3d170a36	0.036874972
48	0x3dd727eb	0.105056606
49	0x3f413eec	0.75486636
50	0x3f8ba9ad	1.0911156
51	0x3e2bf091	0.16790988
52	0xbc601795	-0.013677497
53	0xbefdcef0	-0.49571943
54	0x3f2e8dc6	0.6818508
55	0x3ee2cddd	0.44297686
56	0xbee1208f	-0.43970153
57	0x3e9dd210	0.30824327
58	0x3ec092b4	0.37611926
59	0x3e7f3f3d	0.24926467
60	0xbd1b1055	-0.037857372
61	0xbdac62db	-0.08417293
62	0xbdd319cc	-0.10307655
63	0xbfb9d965	-1.4519469
64	0xbf5e54fa	-0.86848414
65	0x3eb128c0	0.34601402
66	0x3eb87821	0.3602915
67	0xbbbecc7c	-0.0058227163
68	0x3f3ddff5	0.74169856
69	0xbec20d61	-0.37900832
70	0x3fd7621e	1.6826818
71	0xbea5f516	-0.32413548
72	0x3c1bd7d6	0.0095119085
73	0xbf084b4f	-0.5323991
74	0xbed94530	-0.42435598
75	0x3f64e1a5	0.89406806
76	0x3e0d3ce8	0.13792765
77	0xbe3f9d97	-0.1871246
78	0xbf343c50	-0.7040453
79	0x3e2ca4ec	0.16859788
80	0x3dd1c27f	0.10242175
81	0x3e7983be	0.24366662
82	0x3f800171	1.000044
83	0x3f114080	0.56739044
84	0x3e395d55	0.1810201
85	0x3f545872	0.82947457
86	0x3df399a6	0.118945405
87	0x3e920113	0.28516445
88	0x3f4ee74e	0.8082169
89	0x3e92d58a	0.28678542
90	0xbe02a2f7	-0.12757479
91	0xbc97444b	-0.018465182
92	0x3f5e4119	0.8681808
93	0x3e8c7b61	0.2743788
94	0xbe79fb2a	-0.24412218
95	0xbe166435	-0.14686663
96	0x3f87a75a	1.0597947
97	0x3e489a0b	0.19590013
98	0x3eb1fa31	0.34761193
99	0x3f14b62c	0.5809047
100	0xbe7dd162	-0.24786904
101	0x3f5eaf09	0.8698583
102	0x3e846688	0.25859475
103	0x3daf9959	0.085741706
104	0xbeca2ff0	-0.39489698
105	0x3f67f036	0.9060091
106	0xbe1d3ea2	-0.15355924
107	0x3e878838	0.26471114
108	0xbdf01402	-0.11722566
109	0x3eb21b93	0.34786662
110	0x3f26a1ea	0.6509081
111	0xbe05f16b	-0.13080375
112	0x3fb89b02	1.4422305
113	0x3f3403b1	0.7031813
114	0x3f24f9b1	0.644435
115	0x3f80b917	1.0056485
116	0x3f2a4db5	0.6652482
117	0xbde7a569	-0.11310846
118	0xbe151ae4	-0.14561039
119	0xbe219f60	-0.15783453
120	0x3e84d803	0.25946054
121	0x3e9b5a11	0.30342153
122	0xbdc05a44	-0.09392217
123	0xbd3b8fc1	-0.04579139
124	0xbd80d7ab	-0.062911354
125	0x3eae8062	0.34082323
126	0xbe9fcacc	-0.3120941
127	0xbe74b8ad	-0.23898573
128	0x3eb43225	0.35194507
129	0x3e53bc8e	0.20677397
130	0xbf0bf2cc	-0.54667354
131	0xbde6fa2c	-0.11278185
132	0xbe773605	-0.241417
133	0x3e7c40bd	0.2463407
134	0x3c6a1a05	0.01428843
135	0xbcf8e4bc	-0.030382507
136	0xbdcdbe8a	-0.10046108
137	0xbe980d2b	-0.29697546
138	0xbe7ecfb0	-0.24883914
139	0xbb655908	-0.0034995694
140	0xbf42776a	-0.7596346
141	0xbe406e37	-0.18792044
142	0xbe1d1496	-0.15339884
143	0xbfa022e2	-1.2510645
144	0xbf0f3c19	-0.55951077
145	0xbe04e879	-0.12979306
146	0xbc058f09	-0.008151778
147	0xbf502493	-0.8130581
148	0x3dc40428	0.09571105
149	0x3f52626f	0.8218145
150	0xbe30941c	-0.17243999
151	0xbe49418f	-0.19653915
152	0x3e919cd9	0.28439978
153	0xbf1299c6	-0.5726589
154	0xbe8dadcf	-0.27671668
155	0x3fd9abe2	1.700558
156	0x3e937a96	0.28804463
157	0xbd0344a7	-0.032047894
158	0x3e177a4e	0.1479275
159	0xbf68b6bf	-0.9090385
160	0xbebd6ffb	-0.36999497
161	0x3e985413	0.29751644
162	0x3ca7a6ab	0.020465216
163	0x3ec148fa	0.3775099
164	0xbd8bffb1	-0.06835879
165	0xbf803029	-1.0014697
166	0x3f926876	1.1438129
167	0x3e47d500	0.19514847
168	0x3e77499e	0.24149176
169	0x3e94748d	0.2899517
170	0xbea49cec	-0.32150972
171	0xbe03ba12	-0.12863949
172	0xbcf3397b	-0.029690495
173	0xbf096334	-0.53666997
174	0x3f2bbf31	0.6708861
175	0x3f460153	0.7734577
176	0x3de9a9bf	0.114093296
177	0xbda59a68	-0.08086091
178	0x3f3fbbae	0.7489575
179	0xc0155f1a	-2.3339295
180	0xbe92c63f	-0.28666875
181	0xbf11321a	-0.56717074
182	0xbec1bec6	-0.3784086
183	0x3f02f29d	0.5115145
184	0x3f264a8f	0.6495752
185	0xbf9a4478	-1.2052145
186	0x3d870d6d	0.06594358
187	0xbcb55219	-0.022133874
188	0xbeebd708	-0.46062493
189	0x3b2d8013	0.0026474043
190	0xbb2be215	-0.0026227285
191	0xbe80325c	-0.2503842
192	0x3e98a642	0.29814345
193	0x3ea148dd	0.31500903
194	0x3e3d7cd4	0.1850465
195	0x3e84c8cd	0.2593445
196	0x3efbc3bb	0.49172768
197	0x3ee31c77	0.44357654
198	0x3f586847	0.84534115
199	0xbe2b1497	-0.16707073
200	0xbf2e06ba	-0.67979014
201	0xbe254dac	-0.1614291
202	0xbf04eb04	-0.51921105
203	0x3e23c60d	0.15993519
204	0xbf1fca75	-0.624183
205	0xbe89d9b3	-0.26923904
206	0xbf1d5224	-0.6145346
207	0x3fe5f358	1.7964888
208	0x3e966d3d	0.29380217
209	0xbf93d1aa	-1.1548359
210	0xbf04e7ee	-0.51916397
211	0x3fe28312	1.769625
212	0xbef12f54	-0.4710642
213	0xbec3ebf9	-0.3826597
214	0xbf43d54c	-0.7649734
215	0x3b84f888	0.0040579475
216	0x3e246f1e	0.16058013
217	0x3d81aaf9	0.063314386
218	0x3e04ba25	0.12961634
219	0x3ea27a08	0.31733727
220	0x3f6baf8e	0.9206475
221	0xbdba7413	-0.09104171
222	0xbe72d659	-0.2371458
223	0xbf1c0c5f	-0.60956377
224	0x3e8e7e30	0.27830648
225	0x3ee9de1c	0.45677269
226	0xbf1784ac	-0.59186816
227	0xbe216acb	-0.15763395
228	0x3c94c141	0.018158557
229	0xbeec96ac	-0.46208704
230	0x3d7a551b	0.06111632
231	0x3dddcd4f	0.10830175
232	0x3e4307ba	0.19045916
233	0x3dcd32a5	0.10019425
234	0x3e7b0e0b	0.24517076
235	0x3e359d06	0.17735681
236	0x3d88cf66	0.06680183
237	0xbd29579e	-0.041343324
238	0x3ee666e9	0.4500039
239	0x3e726d59	0.23674525
240	0xbf4c3648	-0.79770327
241	0xbe24b627	-0.1608511
242	0xc00b4251	-2.1759226
243	0xbddbc986	-0.10731797
244	0xbde6490f	-0.112444036
245	0x3e72e9cb	0.23721997
246	0xbe48cb54	-0.19608814
247	0xbde8229d	-0.11334727
248	0x3db8cf3c	0.09023902
249	0x3d9ab932	0.075548545
250	0xbf19b2ba	-0.6003834
251	0x3e214384	0.15748411
252	0x3e8b56c0	0.27214622
253	0xbda84e0f	-0.082180135
254	0xbec88a28	-0.39167905
255	0x3e4a8d41	0.19780447

out.bias f4 [1030]
0	0x3f98260b	1.188661
1	0x3efe97dc	0.49725235
2	0x3f1a7bf9	0.6034542
3	0x3f131e67	0.57468265
4	0x3f0aafa7	0.54174274
5	0x3f83a344	1.02842
6	0x3f6a94e1	0.9163342
7	0x3e84fc05	0.25973526
8	0x3f118044	0.5683634
9	0x3ea492fd	0.32143393
10	0x3f3cc43c	0.7373693
11	0x3f13d4a4	0.5774634
12	0x3f81af55	1.0131632
13	0x3f5bb331	0.858203
14	0x3f5ae74d	0.85509187
15	0x3f5269ea	0.8219286
16	0x3f687389	0.9080129
17	0x3f6d1344	0.9260752
18	0x3f6e42e3	0.9307081
19	0x3f5dbe24	0.86618257
20	0x3f7a5a39	0.9779392
21	0x3f409831	0.75232226
22	0x3f7278fd	0.94715863
23	0x3f6d3b50	0.9266863
24	0x3f227b70	0.634696
25	0x3f934a9a	1.1507142
26	0x3f29a076	0.6626047
27	0x3f70a5e1	0.9400311
28	0x3f5e2e6c	0.86789584
29	0x3f3769b0	0.7164564
30	0x3f11cd73	0.56954116
31	0x3f3ad2fc	0.72978187
32	0x3f502dbf	0.81319803
33	0x3f775bb5	0.9662431
34	0x3f349fac	0.7055614
35	0x40062029	2.095713
36	0x3f4a2947	0.78969234
37	0x3f4351e5	0.76296836
38	0x3f858974	1.0432572
39	0x3f84b11e	1.0366552
40	0x3f4cc509	0.7998815
41	0x3f25d165	0.64772636
42	0x3f6a0547	0.914143
43	0x3f0d49c0	0.5519066
44	0x3f4f71c0	0.81032944
45	0x3f3cd51f	0.73762697
46	0x3f1de7b7	0.61681694
47	0x3f42f2cc	0.7615173
48	0x3f77a2e8	0.9673295
49	0x3f518a5d	0.8185175
50	0x3f41256f	0.75447744
51	0x3f21d28f	0.6321191
52	0x3f507cb6	0.81440294
53	0x3f67aaaa	0.9049479
54	0x3f328e79	0.69748646
55	0x3ed238a0	0.41058826
56	0x3f2e1ef1	0.6801596
57	0x3fbd19cc	1.4773498
58	0x3f35a8b8	0.7096057
59	0x3f7a82cd	0.97855836
60	0x3f357e9d	0.7089632
61	0x3f825687	1.0182656
62	0x3f3da8c3	0.74085635
63	0x3f284150	0.6572466
64	0x3f40a900	0.75257874
65	0x3f3b51b7	0.7317156
66	0x3f6304c3	0.8867914
67	0x3f8506a9	1.0392658
68	0x3f441cd8	0.7660651
69	0x3fa3a6a0	1.2785225
70	0x3f681904	0.9066317
71	0x3f20e9a9	0.6285654
72	0x3f669080	0.9006424
73	0x3f674beb	0.90350217
74	0x3f975f8f	1.1826037
75	0x3f2b8ef2	0.6701499
76	0x3f46549b	0.7747285
77	0x3f934d72	1.150801
78	0x4004c7c0	2.0746918
79	0x3f87e79e	1.0617559
80	0x3f4bc91a	0.7960373
81	0x3ee2fdfe	0.44334406
82	0x3eafd9a0	0.34345722
83	0x3fa52ae5	1.2903715
84	0x3f1bcd93	0.60860556
85	0x3f3817c2	0.7191125
86	0x3f381254	0.71902966
87	0x3f2f53ab	0.6848704
88	0x3f7d3563	0.98909587
89	0x3f2bb632	0.67074883
90	0x3f864b2c	1.0491691
91	0x3f210d94	0.62911344
92	0x3fa749bf	1.306938
93	0x3f763674	0.9617684
94	0x3f4993aa	0.7874094
95	0x3f82b194	1.0210443
96	0x3f6d6f62	0.9274808
97	0x3f8eccb9	1.1156226
98	0x3f0a4cd6	0.5402349
99	0x3f57c8e5	0.84290916
100	0x3fdd9407	1.7310799
101	0x3f73e0c9	0.9526487
102	0x3f9ad47b	1.2096094
103	0x3f6e8823	0.9317648
104	0x3f9ad4c8	1.2096186
105	0x3f99fc2a	1.2030079
106	0x3f992170	1.1963329
107	0x3f877530	1.0582638
108	0x3fae39dd	1.3611408
109	0x3fb00518	1.3751554
110	0x3fa2c262	1.2715571
111	0x3fbc4b48	1.4710474
112	0x3f6f6dbe	0.9352683
113	0x3f95d68f	1.1706103
114	0x3f8404f3	1.031401
115	0x3f9b7568	1.2145205
116	0x3f810ef3	1.0082687
117	0x3f1b8ddd	0.6076334
118	0x3fa11e53	1.2587379
119	0x3f9f92e8	1.2466707
120	0x3faac717	1.3342007
121	0x3fec94ef	1.8482951
122	0x3fa9c468	1.3263063
123	0x3fa2ffae	1.2734277
124	0x3f86f8ed	1.0544716
125	0x3f3e3635	0.74301463
126	0x3f66e513	0.9019329
127	0x3f611f15	0.8793805
128	0x3f853092	1.0405447
129	0x3f99f691	1.2028371
130	0x3f8673ee	1.0504129
131	0x3f7c0894	0.9845059
132	0x3f7f5880	0.99744415
133	0x3f88938c	1.0670028
134	0x3f54c312	0.83110154
135	0x3fab3ff2	1.337889
136	0x3f4e8ca2	0.8068334
137	0x3f89296d	1.0715767
138	0x3f4f0379	0.80864674
139	0x3f723325	0.9460929
140	0x3f6eb3e6	0.93243253
141	0x3f838cba	1.0277321
142	0x3f4d7451	0.8025561
143	0x3f9151b6	1.1353061
144	0x3f5a665d	0.85312444
145	0x3f5b739d	0.85723287
146	0x3f4985c4	0.78719735
147	0x400b1f37	2.1737802
148	0x3f54cc47	0.831242
149	0x3f3f3f54	0.74706006
150	0x3f85f967	1.0466737
151	0x3f8cd665	1.1002928
152	0x3f8b9e19	1.0907623
153	0x3f6a5578	0.91536665
154	0x3fb4ca0a	1.4124157
155	0x3ad1194c	0.0015952974
156	0x3f3217e5	0.6956771
157	0x3eef2a5b	0.46712002
158	0x3f49528a	0.7864157
159	0x3f2721aa	0.6528574
160	0x3fbb42cf	1.4629763
161	0x3d80c4ac	0.06287512
162	0x3f1965a6	0.5992073
163	0x3ec2041f	0.3789377
164	0x3f6d098e	0.92592704
165	0x3ee2c35d	0.44289675
166	0x3f7757fe	0.9661864
167	0x3d985c21	0.07439447
168	0x3f13b656	0.577001
169	0x3f3aab07	0.72917217
170	0x3ed1a8d6	0.40949124
171	0x3fa2b0ad	1.2710167
172	0x3e995ddd	0.29954425
173	0x3f9472b8	1.1597509
174	0x3f11c5aa	0.56942236
175	0x3f60883b	0.8770787
176	0x3f5a042c	0.85162616
177	0x3faa81c5	1.3320853
178	0x3edbd7b3	0.42938003
179	0x3f79e5eb	0.9761645
180	0xbd9c73f9	-0.076393075
181	0x3e86e2e1	0.2634497
182	0x3de311e1	0.110873945
183	0x3fc3c871	1.5295545
184	0x3e8f4f36	0.2799012
185	0x3f81e1b1	1.0147
186	0x3ec9e7c9	0.3943465
187	0x3f36bafc	0.71379066
188	0x3f8bed9c	1.0931888
189	0x3f1390ea	0.57642996
190	0x3fef929e	1.8716619
191	0x3eb5b0ff	0.354866
192	0x3f8c9f05	1.0986029
193	0x3ebeb375	0.3724629
194	0x3f3c2b8d	0.73503953
195	0x3f68b64c	0.9090316
196	0x3f447e9a	0.7675568
197	0x3ff09659	1.8795882
198	0x3ebe661a	0.37187272
199	0x3f804aa2	1.0022776
200	0x3e99af4e	0.3001656
201	0x3f135d45	0.57564193
202	0x3f512aca	0.81705916
203	0x3ef26abb	0.47347054
204	0x3fd8b96e	1.6931589
205	0x3f4b630d	0.79448014
206	0x3fb14d4e	1.3851717
207	0x3d2f0d0d	0.042737056
208	0x3fae3c99	1.3612243
209	0x3cf9a7e2	0.03047556
210	0xbc0eafcb	-0.0087089045
211	0x3e31fffe	0.1738281
212	0x3e47e57e	0.19521138
213	0x3e7a3a3d	0.24436279
214	0x3e64f790	0.22360063
215	0xbcd479bb	-0.025936952
216	0x3eaaa06b	0.33325514
217	0xbd5878a8	-0.05284944
218	0x3fbff430	1.4996395
219	0x3e8f5149	0.27991703
220	0x3c9168c4	0.017750151
221	0x3ddf06b7	0.10889953
222	0x3dde0f3b	0.10842749
223	0x3d701f70	0.05862373
224	0x3ed3c111	0.41358235
225	0x3d90f58f	0.070780866
226	0x3e191716	0.14950213
227	0x3e5e5e20	0.21715593
228	0x3ef44066	0.47705382
229	0x3fe95723	1.8229717
230	0x3f11aba3	0.5690252
231	0x3be32875	0.006932313
232	0x3be16f4e	0.0068797236
233	0x3db0ba26	0.08629255
234	0x3f7544e9	0.95808274
235	0x3f462a5d	0.7740839
236	0x3f3593d1	0.70928675
237	0x3f7b6604	0.9820254
238	0x3f37a2b4	0.7173264
239	0x3fb7613e	1.4326551
240	0x3ea1f5ec	0.31632936
241	0x3f756c2e	0.95868194
242	0x3ed8ee8d	0.423695
243	0x3f4b1596	0.7932981
244	0x3f8613f9	1.0474845
245	0x3ee8892a	0.45417148
246	0x3fc78914	1.5588708
247	0x3f1b32ce	0.60624397
248	0x3f9c6232	1.2217467
249	0x3ebc85c2	0.368208
250	0x3f4539be	0.7704123
251	0x3f5f46ec	0.87217593
252	0x3f10b8c1	0.5653191
253	0x3fd29321	1.645115
254	0x3f632bd2	0.8873874
255	0x3f7ac8a5	0.9796241
