results/02-25-2019/model2/model/decoder.pth (torch_old, 1478 bytes, 6 tensors)

lstm.weight_ih_l0 f4 [12, 3]
00000000: ce58 f141 2287 c5c1 b9e9 ce3f 70ad ab3f
00000010: b712 e4bf 9782 4340 cc37 75c0 c514 d5c0
00000020: ed55 5c40 030e d53f df05 eb40 6afe 1d40
00000030: 0a6e 0c3f 42d9 9e40 32c5 9640 00de 813f
00000040: ad6c 9340 1608 e2bd 3c90 6441 21ad 97c1
00000050: 206b 9e3f ebf3 d3be 12bd f740 909d 813f
00000060: 356c 023f 7921 8140 4f91 ab3f 0d94 c240
00000070: d11a 8d41 1ef4 763f 8a8d a9bc fdec 19bf
00000080: 2906 e240 abbb df3f 9d6d 4cc0 a703 8d40
30.168362 -24.690983 1.6165076 1.3412304 -1.7818211 3.0548456 -3.8315306 -6.6587853
3.4427445 1.6644901 7.3444667 2.4686532 0.54855406 4.9640207 4.7115717 1.0145874
4.607016 -0.110366985 14.285213 -18.959536 1.2376442 -0.41397032 7.74183 1.0126209
0.5094636 4.035336 1.340372 6.0805726 17.638094 0.96466243 -0.020697374 -0.6012724
7.063252 1.7479147 -3.1941903 4.406696

lstm.weight_hh_l0 f4 [12, 3]
00000000: 7f0d e2bd 9faa 27bf aefd 14bf 1cff 3040
00000010: 4b97 a23e 96ad 8c3f 0939 0c3f 539e d63f
00000020: c856 4f3f 1ca5 2040 bc0b 9140 5ddf 6040
00000030: 0bd6 b0be a38b 0a3f a53a 123e 7c60 d5bf
00000040: a909 a3bf 5bbd a6bf b7c4 dd40 68a8 4f3f
00000050: 578d 8fc0 78a8 15be ef3c 1f40 a84a b7be
00000060: 268d d63e 9106 b0bf 3d5a a3bf 9b77 a440
00000070: 6370 c43f 628a 65c0 6d55 8ebf 6236 4ac0
00000080: b634 5d3e 7d63 bd3f 8e7a e840 33e0 9b40
-0.110377304 -0.6549472 -0.58199584 2.7655706 0.31756052 1.0990474 0.5477453 1.6767067
0.8099179 2.5100775 4.5326824 3.513633 -0.34538302 0.5411932 0.14280184 -1.667007
-1.2737323 -1.3026537 6.930263 0.8111634 -4.4860034 -0.14615047 2.488094 -0.35799146
0.41904563 -1.3752004 -1.2761914 5.1396003 1.5346798 -3.5865712 -1.111982 -3.1595693
0.21602139 1.4795986 7.2649603 4.871118

lstm.bias_ih_l0 f4 [12]
00000000: 330b a73f 2e24 0940 0e6e 6440 9b8c ba3e
00000010: 39e0 1ebf e0a1 f0bd fbca 5140 9244 53c0
00000020: ac55 b840 2685 ff3f f678 b140 845e 4640
1.3050293 2.1428332 3.5692172 0.36435398 -0.62060887 -0.11749625 3.278014 -3.3010602
5.760458 1.9962509 5.5460157 3.0995188

lstm.bias_hh_l0 f4 [12]
00000000: 816f 683f 7e43 f03f 499d 5840 9a85 223f
00000010: 233f 9dbf a59f ba3e df34 4340 f7e3 7bc0
00000020: 1734 c540 a867 1540 2e12 a240 e6e2 6940
0.9079514 1.8770597 3.3846 0.6348511 -1.2284893 0.36449924 3.050102 -3.9357889
6.1626086 2.3344517 5.064719 3.6544738

out.weight f4 [8, 3]
00000000: 8271 2740 654b ea3f 089f 14c0 077f 1441
00000010: c5f3 d4c0 b139 c140 7e34 5941 be82 3ac1
00000020: 35aa 1041 ef42 2b3f 9dea 8c3f 5b36 0040
00000030: 769d 9740 76e9 ac40 09f0 97c0 6a22 a740
00000040: 0ff3 a43f 437a 9d3e 6a1e da3f bdf9 783e
00000050: 3f1b 8cbf 7885 7a40 df97 9e40 c34f fc40
2.616303 1.8304259 -2.3222065 9.281013 -6.654757 6.0382924 13.575315 -11.6569195
9.041554 0.6689901 1.1009098 2.0033176 4.7379713 5.4034986 -4.748051 5.222951
1.2886676 0.3075734 1.7040532 0.24314018 -1.0945815 3.9143963 4.956039 7.8847365

out.bias f4 [8]
00000000: 9508 eb3f aa72 1141 7ce4 5641 25d6 7c3f
00000010: f8d1 f63f f2c5 5a40 1adf d03f a3b5 bd3f
1.8361994 9.090494 13.430782 0.9876426 1.9282827 3.4183316 1.6318085 1.4821056
