results/04-03-2019_n/all_ca_arc_sinh_h24/ch21/grad_clip_0.5/without_zero/model/decoder.pth (torch_old, 123171 bytes, 6 tensors)

lstm.weight_ih_l0 f4 [96, 24]
00000000: a082 fdbd 27c6 6ac0 f9e2 ba3f b423 50bf
00000010: 77ed 8640 1111 7abd a349 0ac0 1460 55be
00000020: 049f 3bbf d7da 823f 32d9 c6bf ff35 863f
00000030: f0fd f0be 65f9 78c0 4499 c7bf fa26 23c0
00000040: 6888 b6bf 85d0 b6bf 17f2 64c0 bad1 a9bf
00000050: a2ad 9a3f e41c 003e 5ab2 383f ff3f 04c0
00000060: 7628 01c0 5ecb 7e40 5771 47c0 d749 fd3e
00000070: 1780 5dbf bc1e f3bf ec4b a83d 5599 dd3f
00000080: b852 c840 d375 3e40 1b74 e93f f3e2 8dbf
00000090: 7422 ab3f 6d8b 1640 82f1 b540 85c9 3dbf
000000a0: 344b 4240 43af 77bd 6d7f 2840 bea5 b1bf
000000b0: 3b12 9bbf 09c8 27bf 6ba5 bd3e 7c28 3c3d
000000c0: d2fe fbbe 968f 92bd fdc4 cebe 7c29 c6bd
000000d0: 7208 d4bd 0384 40bd c848 e5be 3024 6a40
000000e0: 41bb 88c0 4f15 97bf 66eb a13f b096 dcbf
000000f0: e1a8 273f 9ca3 373e 487b 583f 0ade 773d
00000100: e862 fcbe 93c0 c9be 6e26 2c40 ca14 713f
00000110: cef5 613d f709 223f e202 dabe 060f c4bd
00000120: 2e85 c2bd 56a3 b83f 89ca f33f 19d1 4dbf
00000130: 4d4b 483f dc51 13bf 9c6c 593f 946a fe3f
00000140: 00a2 28bf 6b8c 973e 9010 303f 44f3 91bf
00000150: 3bbf 1a40 f8f9 073f ff41 933d d6d1 7abe
00000160: 7f4c 0f3f b1fe ce3f b97b e4be ff26 34c0
00000170: 513a 80c0 3731 753e f769 4a3d 857c 1c3f
00000180: 1444 02c0 6620 b6bf 026f fc3f e365 fa3d
00000190: 562f a23d ec23 9e3f 1f4a afbf 6024 5ec0
000001a0: ee8e 8b3e 5805 76bf 35c9 77be 165b 5840
000001b0: afae 2741 bec9 68be bac0 6d3f 9512 2dbf
000001c0: fefb b6be 2ca9 c8be 85b7 9f40 3387 cb40
000001d0: af7d ad3f e30a babf 6922 1f40 6743 94bf
000001e0: cb2c 0040 4e38 913f dd6d aa40 51a1 ffbe
000001f0: 0f58 b93f 25ce 1fc0 0edc 42c0 e2d8 66bf
00000200: 1dc0 953f d7fb 41bf 6e2e 13bf 157d 1c3f
00000210: 8265 41bf 6a74 06bf f048 d7bf d606 87c0
00000220: 7c5b e1bf c87b ba3e 1265 9a3f c04e c93f
00000230: 53fe fa3f 2640 b43e bdc1 7240 1dd6 fc3f
00000240: 5044 ffbf 945f f1be 3abb ecbf 9657 00bf
00000250: 4900 8b3f 2b6a b63f eb4b 1240 d39d 3abf
00000260: 59a8 ebbe 5d77 c83e 0c31 ea3f 8107 a53f
00000270: 602a 32bf e548 7abf db83 ab3e b5e9 843f
00000280: e4ba 0140 c9c8 6b40 7a61 3cbf d597 853e
00000290: b01c c1bf bb16 96bf 9b74 a1bf 51d7 1dc0
000002a0: 473f 39bf 98d8 2cc0 581c 2d3f 95c6 823e
000002b0: 42cf e13d ea4c 783f 4930 febd d540 183f
000002c0: b935 89bf 60e8 b6c0 8357 c2bf 4720 593f
000002d0: 8ede b0bf 2965 5dc0 3e74 483f 7e1e 0fbe
000002e0: 4e69 3abf 3c23 d5be 24c1 f13e 12f6 95bf
000002f0: 13d8 2a40 d100 663f aeb8 263f 8d5f 493f
00000300: 561d c93c 47f9 4b3d 9730 15bf f310 1dbe
00000310: 017f f1be 0482 ef3e 2c89 e6be 3e21 6bbf
00000320: 6d5e 3040 7853 a6c0 6e6a 92bc 3739 ac40
00000330: 602b a5c0 09c5 bebf d205 c8bf 7fec 193f
00000340: c092 5e3f b21b e6bd 0525 5bbd d686 363f
00000350: c697 223e 1a13 6b3f 0341 f4be c547 72be
00000360: 28c9 7b3f 09dc c73d 4fdb 01c0 d286 ae3f
00000370: 5b63 1a40 0854 083f 94cc 5b40 1395 8640
00000380: ca9e 643e 577f 20c0 6b62 a7bf 7bf9 52c0
00000390: 208f bc3f 5bc9 b33f c3c8 073f d4ff 873f
000003a0: f78d 883f 2e47 1840 4c61 1840 07b1 1abe
000003b0: 8596 90bb 99dc 69bf 01bd c4bf 6e84 8c3f
000003c0: 35b7 5c3d 97d8 e8bf e68e a23f 8ebc 64be
000003d0: 8420 4e3f 83d2 4bbf 579e 483e eb6b 37bf
000003e0: 50cc b0c0 abfb 1940 9cb3 4ec0 4741 973f
000003f0: 3df1 6dbf 13ba 53bf e48d 29bf 0d29 87bf
-0.1237843 -3.6683443 1.4600517 -0.8130448 4.2164874 -0.061051432 -2.1607444 -0.20837432
-0.73289514 1.0223035 -1.5535033 1.0485228 -0.4706874 -3.8902218 -1.5593648 -2.549254
-1.4260378 -1.4282385 -3.577276 -1.3267128 1.2084239 0.12511021 0.7214714 -2.066406
-2.0180945 3.9811625 -3.1162927 0.49470398 -0.86523575 -1.8993754 0.08217606 1.7312418
6.2600975 2.9759414 1.8238558 -1.1084884 1.3369889 2.3522599 5.685731 -0.7413562
3.03584 -0.060469877 2.6327775 -1.3878706 -1.2114938 -0.65539604 0.37040266 0.045937046
-0.4921785 -0.07156293 -0.40384665 -0.09675881 -0.10353173 -0.047000896 -0.4478209 3.6584587
-4.272858 -1.1803378 1.2649963 -1.7233486 0.65492064 0.17933506 0.8456311 0.060514487
-0.4929421 -0.39404735 2.6898456 0.94172347 0.05516606 0.63296455 -0.42580324 -0.09573178
-0.09498058 1.4424846 1.9046184 -0.8039718 0.782399 -0.5754678 0.8493135 1.9876275
-0.6587219 0.29599318 0.6877527 -1.1402364 2.4179218 0.531158 0.07190322 -0.24494109
0.559761 1.6171476 -0.44625643 -2.8148801 -4.0071187 0.23944555 0.049417462 0.611275
-2.0354052 -1.4228637 1.9721377 0.122264646 0.07919185 1.2354712 -1.3694495 -3.4709702
0.27257484 -0.96101904 -0.24197848 3.3805594 10.480147 -0.22733209 0.928722 -0.6760648
-0.3573913 -0.39191568 4.9911523 6.360254 1.355398 -1.4534572 2.4864752 -1.158307
2.002734 1.1345308 5.325911 -0.49927762 1.4479998 -2.496957 -3.044681 -0.90174687
1.1699253 -0.757749 -0.5749272 0.6112836 -0.75545514 -0.52521384 -1.6819134 -4.2195845
-1.7606044 0.36422563 1.2062094 1.5727158 1.9608864 0.3520519 3.7930748 1.9752842
-1.9942722 -0.47143233 -1.8494637 -0.50133646 1.0859462 1.425115 2.2858837 -0.7289707
-0.46026877 0.39153567 1.8296218 1.2892915 -0.6959591 -0.9776748 0.33499035 1.0383822
2.027032 3.68413 -0.7358624 0.260924 -1.508688 -1.1725687 -1.261371 -2.4662669
-0.7236218 -2.7007198 0.67621374 0.2554213 0.110258594 0.9699236 -0.124115534 0.59473926
-1.071952 -5.715866 -1.5182956 0.84814876 -1.3817918 -3.4592993 0.7830237 -0.13976476
-0.7281693 -0.41628444 0.47217667 -1.171572 2.6694381 0.89844996 0.6512555 0.78661424
0.024550121 0.049798276 -0.5827727 -0.15338497 -0.4716721 0.46778882 -0.4502653 -0.918476
2.7557633 -5.197689 -0.017873015 5.381984 -5.161545 -1.490388 -1.5626776 0.6012649
0.8694267 -0.11235751 -0.0535021 0.71299493 0.1587821 0.9182602 -0.4770585 -0.2366019
0.98353815 0.09758765 -2.0290105 1.3634894 2.4123142 0.5325322 3.4343615 4.2056975
0.22326198 -2.5077722 -1.307691 -3.296477 1.4731178 1.4045824 0.53040713 1.0624948
1.0668324 2.3793445 2.3809385 -0.15106593 -0.0044124746 -0.9135223 -1.537018 1.0977914
0.053885657 -1.8191098 1.2699859 -0.22337553 0.80518365 -0.7961809 0.19591652 -0.71649045
-5.5249405 2.4059856 -3.2297125 1.1816796 -0.92946225 -0.827058 -0.6623213 -1.0559403

lstm.weight_hh_l0 f4 [96, 24]
00000000: 7727 44c1 57cc 22c0 61b1 ca3f b968 9bc0
00000010: 6971 5fc0 dd52 273f 69a7 79c0 df6b 113f
00000020: 8ed2 00bf 34af 833e 1f47 16c0 8d09 f7bd
00000030: 2a92 f7bd 791a 1f40 138b 1bbf 1bb9 bac0
00000040: 185f 2a3e b19e 12c0 7f93 abc0 c3da 0141
00000050: ba8c 2f41 7aba b1c0 5d1a f1c0 3281 843e
00000060: 8539 4ac1 c451 2841 4ae4 4140 316a d5bf
00000070: 1b9a d13f 43ec 2d41 f870 693f ba1b 1c41
00000080: 7358 9f40 ff1b 833f 18b6 8ec0 387f 91c0
00000090: f1b5 be40 f380 4e41 b5e1 14c1 bd9d 7bc1
000000a0: c741 c1bf 8d82 243f 196f 9fc0 7ede bd3f
000000b0: a409 9b40 7508 6740 be9a f940 250d 5bc1
000000c0: c658 5840 eab0 1040 612d 6ac0 b86f a340
000000d0: 2a79 4e40 96a1 8dc0 0806 3e40 c418 af40
000000e0: 8d3c e340 845e 213f 2110 1f40 0af4 83bf
000000f0: 4a53 4440 1207 36c0 f77a 24c0 da67 413f
00000100: 924c d5c0 186e 9240 f29a 1e3f 9d2d 18c1
00000110: 1d94 c1c0 55ff 9740 9d88 b540 0fdc 2240
00000120: b7f0 f1bd e4db 7c40 b6f6 5c40 dea9 c73f
00000130: 4dfe 6040 5cd6 1cc0 4524 f3bf 1bc7 88be
00000140: b139 8dbf eda3 203f 39c5 ad3e be41 48be
00000150: 8aba 343f 0f87 20c0 75fb fd3d 2961 a540
00000160: f3d5 a3bd 4cbe e2bf d0ee c13f fff6 0940
00000170: 6c00 9140 1175 c23f 7482 3ebf 6d73 b2bf
00000180: d7de 04c1 dd29 3fc0 4a3b d23f 3366 abc0
00000190: 55d4 90c0 3036 f340 8a81 9040 6ead 973f
000001a0: fbd7 0ac0 3b27 8bbd d74e 52bf 73ea 8a3f
000001b0: 7907 20c0 f14d 4c40 3244 d2bf 2306 da3f
000001c0: 0c40 0e3f 8bb7 773f fafa 1240 f3b7 d1c0
000001d0: a56c 893d c5cf 2ebf 3415 ab40 b343 06c0
000001e0: 8f49 a8bf e268 1fc0 5565 66c0 a289 9840
000001f0: 8638 5540 68e7 a241 eacd 47bc 9b0a 9dbf
00000200: 1cfb e33e fbb9 1c3d 0a71 bcbf 6d46 35bf
00000210: 93c7 b83b cc1e 0b41 0edf 8fbf 3090 2b3f
00000220: c1c9 9040 85d7 a83f 8ce7 1bc0 3157 04c1
00000230: 79ee a5c0 b2e6 d040 453a 21be cfbb bc40
00000240: 4ead fdbf dbf0 5cbf dbb3 acbf 539e a6bf
00000250: e305 fb40 5d67 f8be 2dae c13e 9e76 7d3f
00000260: bc00 44bd 8aae d3bd 4914 4b3f 5f06 733e
00000270: 3ad8 35bd c741 9c3f c019 25be 382a 28bf
00000280: 6568 f040 ee0f 613f 0a23 0cbe 6621 b13f
00000290: c56b ac40 a455 b9be f99a 9bbe 48d1 343f
000002a0: 3c9c 54c0 c9ac b7bf 3bd4 71c0 fc93 7e3f
000002b0: c3df 43bf f59c 25c0 28b7 c7bf e32f 13c0
000002c0: 862c 453f 0a78 02bf 5eeb 62c0 47a7 5d3d
000002d0: 331f c53c 3aba f7c0 0f5f f940 7ed5 33c1
000002e0: dffb 7a40 dc89 5dc0 5310 d5bf 9a85 1c41
000002f0: 5e47 ecbd 7a3d 61be a001 4dc0 1029 c03f
00000300: d163 8cbf 96eb 3fc1 a2fd 0bc1 9709 cc3f
00000310: 7040 cc3e b892 ad40 85c0 7ebf f09e 61c0
00000320: edbe e9c0 311b 8140 6bff 7840 0555 dcbf
00000330: 25fb e73f b269 b83f 05d3 1641 eebd fec0
00000340: d287 5540 3449 45c0 f35b 1cc0 96d3 9540
00000350: 2e51 eec0 e01e 4441 4c4f 19bc 4e60 d13f
00000360: ef0d c0c0 68f8 4640 b727 a9bf 27be 0740
00000370: 784d 81bf 3ea5 7040 b601 0b3f b430 0140
00000380: 01b6 42bf 8e9f 8a3f 2782 5c3f ca87 cbbf
00000390: 5a0d e0c0 6223 da3f 135a f03e 5004 b7bf
000003a0: a4df a940 2231 ccbe c71a 4f3f 733b 37c0
000003b0: 220b 72c0 04e3 e5be 3e97 f43e 7e24 2fbf
000003c0: f306 b33e 13c3 4dc0 0c6d 4d41 ada6 70c1
000003d0: b6c8 a7bf b26c 81c0 9af5 b2c0 e87f d4bf
000003e0: d99d 95bf a069 c7bf dd80 44c1 dc3d babe
000003f0: 48c2 c4bf 9373 8fbe 0c54 5b40 9c04 fa40
-12.259635 -2.543722 1.5835382 -4.8565335 -3.491297 0.65360814 -3.900843 0.56805223
-0.5032128 0.25719607 -2.348091 -0.120623685 -0.120884255 2.4859908 -0.60759085 -5.835096
0.16637838 -2.2909358 -5.361755 8.115909 10.971857 -5.5540133 -7.534468 0.25879818
-12.639043 10.519962 3.0295587 -1.6673032 1.6375154 10.870181 0.91188 9.756769
4.979547 1.0242919 -4.4597282 -4.5467796 5.9597096 12.906482 -9.305104 -15.72601
-1.5098199 0.64261705 -4.9823117 1.4833524 4.844927 3.6098912 7.8001394 -13.690709
3.3804183 2.260798 -3.6590197 5.1073875 3.2261453 -4.425975 2.969118 5.471773
7.1011415 0.63034844 2.4853594 -1.030885 3.0675836 -2.8441815 -2.5700052 0.7554909
-6.665597 4.575939 0.6195518 -9.511136 -6.04933 4.7499185 5.6729264 2.5446813
-0.11813491 3.950921 3.452558 1.5598714 3.5155213 -2.4505835 -1.8995444 -0.26714405
-1.1033231 0.6275013 0.3393953 -0.19556329 0.70597136 -2.5082433 0.12401477 5.1681104
-0.07999792 -1.7714324 1.5151005 2.1557004 4.5313015 1.5191976 -0.74417806 -1.3941475
-8.304404 -2.9869301 1.6424344 -5.3562255 -4.5259194 7.6003647 4.515813 1.1849802
-2.1694324 -0.06794592 -0.8215155 1.0852798 -2.500456 3.1922572 -1.6427062 1.7033123
0.5556648 0.9676444 2.2965684 -6.5537047 0.067101754 -0.6828578 5.3463383 -2.097882
-1.3147448 -2.4907765 -3.5999348 4.766801 3.331575 20.362991 -0.01219509 -1.2268862
0.4452752 0.038263302 -1.4721997 -0.70810586 0.0056390255 8.695019 -1.1239946 0.6701689
4.524628 1.3190771 -2.4360075 -8.271287 -5.1853604 6.528161 -0.15744884 5.897926
-1.9818513 -0.86305016 -1.3492388 -1.3017067 7.8444686 -0.4851636 0.37828198 0.9900912
-0.047852263 -0.10336025 0.7932783 0.23732899 -0.044395663 1.2207574 -0.16123104 -0.6568942
7.5127435 0.8791493 -0.13685241 1.3838317 5.3881555 -0.3619815 -0.30391672 0.7063184
-3.3220358 -1.4349605 -3.7785785 0.99444556 -0.7651331 -2.587705 -1.560277 -2.2997978
0.7702106 -0.50964415 -3.5456157 0.054114606 0.024062729 -7.7414827 7.792854 -11.239622
3.921623 -3.4615393 -1.6645607 9.782618 -0.1153705 -0.21996108 -3.2032242 1.5012531
-1.0967962 -11.995016 -8.749422 1.5940427 0.39892912 5.42416 -0.9951251 -3.5253258
-7.3045564 4.0345693 3.8905895 -1.7213446 1.8123518 1.4407256 9.426518 -7.960685
3.3364148 -3.082593 -2.4431121 4.6820784 -7.4474096 12.257538 -0.009357285 1.6357515
-6.001701 3.1089115 -1.3215245 2.120981 -1.0101767 3.7600856 0.54299486 2.0185976
-0.76058966 1.0829942 0.86136097 -1.5900815 -7.00163 1.7042048 0.4694372 -1.4298191
5.30855 -0.39881235 0.80900234 -2.8630035 -3.7819295 -0.44899762 0.4777164 -0.6841506
0.3496624 -3.2150314 12.839123 -15.040692 -1.3108127 -4.0445185 -5.5924807 -1.6601534
-1.1688796 -1.5579109 -12.281461 -0.3637532 -1.537179 -0.28017864 3.4270048 7.8130627

lstm.bias_ih_l0 f4 [96]
00000000: 88e6 15be 51bb 39bf 99e1 b9bf 84ed 303f
00000010: d960 00bf 3f12 5bbf 867e 97bf cc41 d6bf
00000020: 6446 67c0 1aca ce3f e244 3a40 7338 2ac0
00000030: 3499 e8bd 6345 343f 8311 8640 e17b ed3d
00000040: 4271 0840 e9ae a13f 1782 ff3f e1f9 8d3f
00000050: 47b0 253f 0abc ecbf f7d5 82be 89ad 8b3f
00000060: 69a7 8040 8d36 5a40 90dd 13c0 b6e6 983f
00000070: 7931 8ebf 585b d03f 4bcc 15c0 a93b 0b40
00000080: 5cb3 383f d92b 303f 6ee5 d7be 87b4 d0bf
00000090: c789 e1bf 6361 6abf 74f9 88be 810c c93f
000000a0: 226d 7bc0 e48b 73c0 6b21 c5bf 85c7 a7be
000000b0: 68ef 553d 4643 043e 0384 af3e ddd2 793f
000000c0: 760a 85bf 76b4 1640 76c0 8a3f 883f 8fbf
000000d0: a096 30c0 7f26 2b40 75f4 ebbf ed0c 0840
000000e0: efc3 77bf 5856 83bf e6f7 bdbf d559 253e
000000f0: 5dba 1740 30aa 86bf 93cb 6440 c4b8 f03f
00000100: 1b0c db3e f5c0 7fbf c6f3 dfbf a01e f33f
00000110: b918 0e40 8d95 ef3e 2c34 f1bf e099 df3f
00000120: 36f9 e7bf bf29 b8bf 2e2f 3fc0 6e04 76bf
00000130: 1045 14c0 a332 a4bf 5083 463f c6eb 4bc0
00000140: bdb7 c6bf e25f 1ac0 8ae2 0cc0 1624 8dbf
00000150: 09c0 0dc0 6389 06c0 ce5e c2bf 4444 c9bf
00000160: 7a96 3ec0 49bb 0cc0 5b70 09c0 1472 d4bf
00000170: ce34 0cc0 9fa5 c5bf 8a66 5cc0 4ac0 c1bf
-0.14638722 -0.7255145 -1.4521972 0.6911242 -0.5014778 -0.85574716 -1.1835487 -1.673883
-3.6136713 1.6155427 2.9104543 -2.6596954 -0.11357346 0.70418376 4.1896377 0.11595894
2.1319127 1.2631503 1.9961575 1.1091882 0.647221 -1.8494885 -0.25553867 1.0912334
4.020436 3.4095795 -2.310398 1.1945407 -1.1108848 1.6277876 -2.340594 2.1755164
0.7214868 0.68816906 -0.42167228 -1.6305093 -1.7620171 -0.9155485 -0.26752818 1.5706941
-3.928536 -3.8054132 -1.5400823 -0.3276941 0.05223027 0.12916288 0.34280404 0.97587377
-1.0393817 2.3547645 1.0839984 -1.1191263 -2.7591934 2.6742246 -1.8433977 2.125789
-0.96783346 -1.0260725 -1.4841278 0.1614755 2.3707497 -1.0520687 3.5749252 1.8806386
0.42782673 -0.99903804 -1.7496269 1.8993721 2.220259 0.46793786 -1.8844047 1.7468834
-1.8122928 -1.438774 -2.9872546 -0.9610051 -2.3167152 -1.2827953 0.77544117 -3.1862655
-1.5524822 -2.4121022 -2.2013268 -1.1026638 -2.214846 -2.1021354 -1.5185182 -1.5723958
-2.9779344 -2.198931 -2.1474826 -1.6597314 -2.190723 -1.5441169 -3.4437585 -1.5136807

lstm.bias_hh_l0 f4 [96]
00000000: 9d0e 80be a5bd 52bf fbb4 a0bf 82d3 123f
00000010: 463d 38bf 8b1c 60bf c4f1 9abf 90b3 d9bf
00000020: 716e 6bc0 b59d e93f 6467 3a40 3292 37c0
00000030: ac1d 223e 91fc 413f 21f2 7f40 d37f 9b3e
00000040: 3f06 0e40 b350 c03f 442a e73f 84a4 b93f
00000050: 9f2f 343f 0e00 c3bf 1c97 a6be bee4 7f3f
00000060: b380 8240 b044 5b40 8aa9 02c0 2df5 8e3f
00000070: 5642 85bf a26b 0040 37f0 25c0 520b 1640
00000080: b91b c53e 4ae5 2f3f f7bc 08be abb9 c6bf
00000090: b0ba fbbf 6931 61bf 9ed4 62be b797 b83f
000000a0: c012 75c0 5ee9 7dc0 0a34 acbf c57f b5be
000000b0: 9e22 5a3d 5ec9 3bbe 0368 d23e dd25 953f
000000c0: af56 87bf 8416 0740 fc30 833f 24a0 9bbf
000000d0: 4041 32c0 270e 2f40 93b5 d3bf e38f 1040
000000e0: 8eee 59bf ac69 70bf 743e a6bf 7934 713e
000000f0: 61d6 0440 d6f6 3fbf 0a0b 7840 98c5 db3f
00000100: 589c ef3e af92 a9bf 8bd4 d9bf 215c e73f
00000110: dbbe 0a40 c9a3 293e ed17 0bc0 ebe7 b53f
00000120: f8ad cfbf 1aeb d6bf a30d 35c0 d844 77bf
00000130: 3bcf 0fc0 fce1 cabf 44c3 4a3f 620c 4dc0
00000140: 735c dcbf 654c 0bc0 4113 13c0 b2bd 8ebf
00000150: 2707 07c0 d6af e2bf 6247 c7bf d59d d7bf
00000160: f246 41c0 9be0 f8bf 8744 0ac0 b555 dabf
00000170: 591b 0ec0 fa81 c7bf 75d9 58c0 087d cbbf
-0.2501115 -0.82320625 -1.2555231 0.57353985 -0.71968496 -0.87543553 -1.2105031 -1.7007923
-3.6786158 1.8251253 2.9125605 -2.868298 0.15831631 0.7577601 3.9991534 0.3037096
2.2191312 1.5024627 1.8059773 1.4503331 0.70385164 -1.5234392 -0.32537162 0.9995841
4.0782104 3.4260674 -2.0415978 1.1168572 -1.0410869 2.0065694 -2.5927866 2.344441
0.38497713 0.6870924 -0.13353334 -1.5525411 -1.9666348 -0.8796602 -0.2215142 1.44213
-3.8292694 -3.9673686 -1.3453381 -0.35449043 0.05325567 -0.18338534 0.4109498 1.165218
-1.0573329 2.1107492 1.0249324 -1.2158246 -2.7852325 2.7352388 -1.6539787 2.2587821
-0.8512963 -0.9391124 -1.2987809 0.23555173 2.0755847 -0.74986017 3.8756738 1.7169676
0.46798968 -1.3247889 -1.7017988 1.807499 2.167899 0.16566385 -2.1733353 1.4211401
-1.6224966 -1.6790497 -2.8289573 -0.9658942 -2.2470233 -1.5850215 0.792042 -3.2038808
-1.7215713 -2.1765378 -2.2980502 -1.115164 -2.1098115 -1.7709911 -1.5568659 -1.6845042
-3.0199552 -1.9443544 -2.1604326 -1.7057406 -2.2204192 -1.5586541 -3.3882725 -1.5897532

out.weight f4 [1030, 24]
00000000: 84f8 e33d 5ad5 d4bf 02a6 91c0 a727 f03f
00000010: a2a3 ec3f 2182 4e40 4d09 7940 1ceb f8bf
00000020: 1a52 0fc0 7df8 0c40 1575 113f 4e82 473e
00000030: 7df9 f8bf f0c3 3cc0 2489 10c0 a316 8d40
00000040: fa52 803d 1a01 5b40 ad36 ab3f 755c d93f
00000050: 6600 95bf e11f db3e a24f 14be 1e11 773f
00000060: 9abe 80bd 1d69 8240 2691 cc40 436b 973f
00000070: 6923 0440 54c9 47bf 8eff 7840 9d5a fa3e
00000080: 88d0 6140 22c0 bf3f 164f a03f 9cb9 273e
00000090: 5330 d43f 3bc8 0040 afde 1540 2c23 d1bf
000000a0: a77a 793f 8da8 bf3f d82c 8440 d657 85bf
000000b0: 443d f03f 75f0 a1bf c367 2c40 fe4b c6bf
000000c0: 6f43 823c 7e76 19c0 90bb d03f d2d4 c43f
000000d0: eb95 e93f 0129 5840 db55 0f40 af8f eebf
000000e0: 1321 823f 22a7 9040 a739 9440 6d67 51c0
000000f0: aa69 f8be 8b61 c940 1354 d03d 5707 98bf
00000100: 2675 8f40 a8f6 d83f 0619 3d40 e96c acbf
00000110: a63b cebf 7f93 8c3e bf9e 913f 9eb8 4640
00000120: 3b02 23be 1922 b4bf 1fee 60be 22bb d13f
00000130: 6756 e13f 1f9d d4bf eabc ea3f 058d 03c0
00000140: 5828 8d3f 87d0 0240 96f3 c23f f3d0 02c0
00000150: 9ec3 b4bd ec60 823f 79b8 2040 f734 00bf
00000160: 300e 2840 43d2 153f b584 2b40 ce5b 1fbf
00000170: 2ff6 7cbe c1fd 7e40 ed86 783f cc02 d73f
00000180: e853 febd b2f3 1fbf a6f9 3fbf b250 8a3f
00000190: 7998 cb3f 1a87 d63e 1081 f53f 1cfa 8ebf
000001a0: 0ce0 4f3e 6fb2 0940 3236 f93f 58fd 00c0
000001b0: 2e14 83be 76e9 aa3e e7b6 453f 5d6d 49bf
000001c0: ad81 e23f 1194 8c3f 99a0 a93f 3ec4 26bf
000001d0: 5631 85bf 2119 9440 e988 193f f5ec dc3f
000001e0: a26f 0640 9d34 03c0 b6f3 a03f 4c76 1240
000001f0: 345e 1140 15d0 c9c0 376e 3a40 130e 89bf
00000200: 6d28 7f3f dafa 0f40 a100 e63f 3b2c 0cbf
00000210: 1af4 09bf f2c0 bbbe 192b 4640 2186 113e
00000220: 528f f83f 884d 05be e61e 4f40 b29e 6bbe
00000230: 9a3b 8c3f 682e cdbe 5b34 3c40 2258 823f
00000240: 4a44 dabf 6d15 06c0 134f 69c0 5867 fa3f
00000250: 52e9 7a40 5a80 cd3f a522 9040 c3a8 31c0
00000260: ebac a6bf 2be1 d13f bb9d 1c40 b4d0 333f
00000270: 8696 02c0 92e1 0ec0 6902 5540 78ce 3740
00000280: 0454 3040 d378 9a40 b8da 0640 79ee 963e
00000290: 709c 0ac0 b8a1 66bf 9bec 7040 7d9e 743e
000002a0: 2c71 38bf 09dd 2e40 00d0 4a40 ae92 693f
000002b0: b7ab 603d f0e4 18be 7c5d 2e40 cfc3 183f
000002c0: 70ca 843f 77b6 0340 7f36 b63f 5263 e63d
000002d0: 133e 0d3f 2ff8 ba3d 2c86 3c40 2130 13c0
000002e0: 2e02 eabe 5429 b93f 8412 8f3f e970 613e
000002f0: 3773 0c3f 0de7 a0bf cde6 bc3f c4cd 84bf
00000300: 6546 783f 9aa2 eebf d082 f6be 4b4b c03f
00000310: b019 673f ed0b 2740 5724 e03f e13a 20bf
00000320: d378 863f 5c6e 2940 532b 2940 e97e 23c0
00000330: 718c 0ebf 987f 8940 0400 d9bf 18db 2ebf
00000340: e6bf 5840 a007 b83f c1e4 d53f 353d 87bf
00000350: 5df7 1ebf e1f5 2d3e 7514 9f3f 104e 2240
00000360: e212 953f 3da9 f5bd 0f35 a5be 0441 183f
00000370: 4141 f53e e253 d3be 9d6f 793f afae d4bf
00000380: a169 ebbe d3da 1540 cdb2 b53f 4e6a 8ebf
00000390: 2d57 8abd ce29 ac3e 8bc7 303f 095a 8cbf
000003a0: 32cc dd3f ea57 033f 8538 ab3e 35a6 e1be
000003b0: 6a9f 1abf f178 1340 09a8 453f a37f bb3f
000003c0: e839 79be 49e7 123f 2274 1e3f 1bd5 9d3f
000003d0: 49be 883f f638 f43f c3b9 5440 16b5 9b3f
000003e0: 70f5 c0be 7ead 3640 2211 3640 b907 2dbf
000003f0: d390 733e 57cb 143f 2be1 54c0 84b5 fb3d
0.11131385 -1.662761 -4.5515146 1.8762101 1.8487437 3.2266924 3.8911927 -1.944675
-2.239386 2.2026665 0.5681928 0.19483301 -1.9451138 -2.949459 -2.2583704 4.4090133
0.062658265 3.4219422 1.3376061 1.6981341 -1.1640747 0.4279776 -0.14483503 0.96510494
-0.06286354 4.075331 6.3927183 1.1829609 2.0646613 -0.7804158 3.8905978 0.48897257
3.5283527 1.4980509 1.2524135 0.16379398 1.6577247 2.012221 2.3417165 -1.6338859
0.9745278 1.4973313 4.130474 -1.041743 1.8768697 -1.2651507 2.693833 -1.5491941
0.015901295 -2.3978572 1.630724 1.5377448 1.8248876 3.3775027 2.2396152 -1.8637599
1.0166343 4.520402 4.6320376 -3.2719376 -0.48518115 6.293157 0.10172286 -1.187724
4.4830503 1.6950274 2.9546523 -1.3470737 -1.6111953 0.2745628 1.137657 3.1050181
-0.1591882 -1.4072906 -0.21965836 1.6385233 1.7604493 -1.661045 1.8338902 -2.0554821
1.1027937 2.0439775 1.5230587 -2.0440032 -0.088263735 1.0185828 2.5112593 -0.5008082
2.625866 0.5852396 2.6799748 -0.6224946 -0.24703287 3.984238 0.9708088 1.6797729
-0.124183476 -0.62481225 -0.7499031 1.0805876 1.5905906 0.4189995 1.9180012 -1.1170077
0.20300311 2.1515157 1.9469664 -2.0154629 -0.25601333 0.33381242 0.7723221 -0.786825
1.7695824 1.0982686 1.3252136 -0.6514319 -1.0405681 4.6280675 0.59974533 1.7259814
2.1005635 -2.0500863 1.2574375 2.2884703 2.2713747 -6.3066506 2.912977 -1.070742
0.9967106 2.2496858 1.7968942 -0.5475499 -0.53888094 -0.36670643 3.0963805 0.14211322
1.9418738 -0.13017857 3.236261 -0.23009756 1.0955689 -0.40074468 2.9406955 1.0183146
-1.705209 -2.0950577 -3.6454513 1.9562788 3.9204907 1.6054795 4.504229 -2.7759254
-1.302152 1.6396841 2.447127 0.7024033 -2.0404372 -2.2325177 3.328272 2.8719769
2.755128 4.827249 2.1070995 0.29478815 -2.1657982 -0.90090513 3.7644413 0.23888583
-0.72047687 2.732241 3.1689453 0.9123944 0.05485126 -0.14931083 2.7244558 0.5967378
1.0374279 2.0580118 1.4235381 0.112494126 0.5517284 0.091293685 2.9456892 -2.2998126
-0.45704788 1.4465737 1.1177526 0.22015728 0.54863304 -1.2570511 1.4757935 -1.0375295
0.96982414 -1.8643372 -0.48146677 1.5022978 0.9027357 2.610103 1.751109 -0.6258984
1.0505623 2.6473608 2.6432693 -2.554621 -0.55683047 4.2968254 -1.695313 -0.6830306
3.3867126 1.4377327 1.6710435 -1.0565554 -0.62096196 0.16988327 1.2428118 2.5360146
1.1646388 -0.1199517 -0.32267043 0.59474206 0.47901347 -0.41274935 0.97435933 -1.6615809
-0.45979026 2.341481 1.4195191 -1.1126192 -0.06754909 0.33625644 0.6905448 -1.0964977
1.732794 0.5130602 0.33441558 -0.44072118 -0.60399497 2.3042567 0.77209526 1.4648327
-0.24338496 0.57384163 0.61895955 1.233066 1.068307 1.9079883 3.323838 1.2164638
-0.37687254 2.8543391 2.8447957 -0.6758991 0.23785715 0.5812277 -3.3262432 0.12290481

out.bias f4 [1030]
00000000: 7857 4b3f 0800 413f 8709 3a3f 23d3 ee3e
00000010: 64a3 eb3e 10d8 433f ee16 613f 8b55 f13e
00000020: 9551 153f 1e2e 823e b683 553f 8631 e83e
00000030: 2e86 623f 069c 873f 621c 453f 033c 7d3f
00000040: 3365 8c3f 5f80 8d3f 0625 893f bf29 813f
00000050: 7169 8c3f cbff 613f 8ec4 8c3f 28b2 5f3f
00000060: fb62 433f 6f9d 543f 3cd2 153f 4666 8a3f
00000070: 6151 543f cdc7 f63e 923f d03e e55b 5a3f
00000080: 321b 703f c943 723f 7e9f 5d3f c557 533f
00000090: a52c 743f f929 5f3f f222 433f 1ea4 8c3f
000000a0: 9655 393f 91b6 703f edf8 523f f8df 423f
000000b0: bdd7 603f e4d7 493f 2c48 6f3f 8e8c 473f
000000c0: 0b10 773f 3205 6c3f 6b54 3e3f 62c2 513f
000000d0: e2aa 573f ba91 513f a2d4 5d3f c53c 3a3f
000000e0: 10a8 453f 7adf 633f bbd7 333f aed6 6c3f
000000f0: 13d4 693f 7c26 443f 9231 3c3f 49c0 4d3f
00000100: 0159 3b3f 738e 553f e5b5 513f 9c2a 7d3f
00000110: 4fa3 333f 60e2 683f d013 453f 3765 443f
00000120: 3046 463f 28f5 453f 8842 343f cef8 453f
00000130: fe16 693f 2c0e 6f3f 9564 533f ac55 623f
00000140: 3407 423f 8253 143f 4d0f 1e3f 4583 6b3f
00000150: 467a 7e3f dff8 443f fe12 853f 5153 2d3f
00000160: 1874 7b3f 32c2 763f b81b 7e3f dc66 403f
00000170: b82e 873f e731 4a3f 13b8 843f 52fd 553f
00000180: 7c8b 3e3f 3630 173f a764 5a3f 426f 2e3f
00000190: a0dc 763f 7a54 6d3f 5a61 7e3f 6f5e 693f
000001a0: 32af 863f 4f27 743f 5cf8 8f3f 1f9f 813f
000001b0: cea3 743f 2fd3 8b3f c421 833f 2c45 853f
000001c0: 0eed 653f 7439 663f 8211 753f 2b59 833f
000001d0: ee46 763f 3582 f93e c2da 593f f95a 7b3f
000001e0: 93b4 753f 370e 7b3f 1200 8a3f 3285 933f
000001f0: 0c85 6f3f b86f 4b3f 7ca7 823f 70e3 503f
00000200: 6fd7 853f 6295 8b3f 8d2c 5d3f 3400 823f
00000210: 430b 853f ffb9 843f 422b 883f a31e 723f
00000220: 4241 793f 7ceb 783f bc44 673f a71a 6d3f
00000230: 63cc 773f e8aa 543f c2a3 103f 4c67 833f
00000240: c5e0 453f 98a2 743f a575 6f3f b892 663f
00000250: 153f 683f 2f80 4d3f 1871 883f 5baa 8c3f
00000260: 3155 863f 76ad 4f3f 4579 853f bbab e03e
00000270: c01d 5a3f f867 093f 5fb2 5f3f dff2 273f
00000280: fe79 833f 65af 053f 53f1 323f b75c c53e
00000290: 17bc 833f 94b9 253f 0311 413f 7310 f73e
000002a0: 9f7e 453f 62ed eb3e d4b3 263f 0964 073f
000002b0: f6cc c13e f409 563f f3de 063f 6d86 513f
000002c0: b59a ff3e c60d 1d3f 6416 593f 791a 163f
000002d0: 870f d33e 25b1 253f 648c 293e 9ca5 103f
000002e0: d20f 073f aa4c 433f 612d 0c3f ac35 2a3f
000002f0: 7e34 c83e 5cd9 3f3f e32b 2d3f d44b 2a3f
00000300: 734e 433f 6ac3 133f c74b 3b3f 79c8 be3e
00000310: e565 453f 7a39 3f3f d25b 2e3f 0d1c 493f
00000320: 9c2c e13e e9e5 253f 49bf 873e cd7b 443f
00000330: 7bf6 183f 0a53 4b3f 76e1 6c3f 4e0a 733f
00000340: 23d9 773f da75 253f 3eb8 343f 2a0e 4e3f
00000350: d24e 3a3f b0e0 133f 8d93 533f 070e 133f
00000360: 865b 5a3f 41c6 cf3e b070 9a3f ac9d 363f
00000370: ea4a 2c3f ceee 323f 4352 c13e c419 1a3e
00000380: b9fc 1f3f a38d 303f e184 2b3f 1476 043f
00000390: 5091 753f 8bfb 5f3f aa8c 663f 2e63 243f
000003a0: cc9f 1f3f e146 293f 490c 443f 0eb6 483f
000003b0: a323 3a3f 2b06 0d3f e0f3 533f 5c00 2f3f
000003c0: ab21 3a3f ebd3 443f df15 133f 368b 2f3f
000003d0: 5e4c 093f f235 263f 75c2 1a3f 56b7 4e3f
000003e0: c131 5e3f 70b7 033f dc92 3d3f c0b7 da3e
000003f0: a1d5 413f a1fc 1f3f 27bd 353f 2b15 713f
0.7943034 0.7539067 0.7267079 0.4664546 0.46023095 0.7650156 0.8792561 0.47135577
0.5832761 0.2542581 0.834041 0.45350283 0.8848599 1.059449 0.76996434 0.98919696
1.0968384 1.1054801 1.0714424 1.0090865 1.0969678 0.88280934 1.0997484 0.8738122
0.7632291 0.83052725 0.5852392 1.0812461 0.82936674 0.4819931 0.406735 0.8529647
0.93791497 0.9463468 0.8657149 0.825558 0.9538062 0.8717342 0.762252 1.0987585
0.7239622 0.94028574 0.8241108 0.76123 0.8782919 0.7884505 0.934695 0.77948844
0.96508855 0.9219543 0.7434756 0.8193723 0.8424512 0.81862986 0.86652577 0.72748977
0.7720957 0.89012873 0.70251054 0.92515075 0.91339225 0.7662122 0.7351314 0.8037153
0.73182684 0.83420485 0.81918174 0.9889314 0.70171064 0.9097042 0.76983356 0.7671694
0.7745085 0.77327204 0.7041402 0.7733277 0.9105071 0.93381 0.8257535 0.88411975
0.7579224 0.5793992 0.617421 0.91997176 0.99405324 0.7694225 1.0396421 0.67705256
0.9822402 0.9639007 0.99261045 0.7515695 1.0561132 0.78982395 1.0368675 0.8358966
0.74431586 0.5905794 0.85309833 0.68138516 0.964304 0.92707026 0.99367297 0.9115972
1.0522215 0.9537248 1.1247668 1.0126685 0.95562446 1.0923823 1.024468 1.0411735
0.8981484 0.89931417 0.9572984 1.0261587 0.9620198 0.48732153 0.8509942 0.9818569
0.9597866 0.98068565 1.0781271 1.1525023 0.9356239 0.79467344 1.0207362 0.8159704
1.045637 1.0904963 0.86396104 1.0156312 1.0394062 1.0369262 1.0638201 0.94578
0.973652 0.9723432 0.90339255 0.92618793 0.96796244 0.8307328 0.56499875 1.0265899
0.77296096 0.955606 0.93538886 0.90067625 0.90721256 0.8027372 1.0659513 1.0989488
1.0494748 0.81124055 1.0427634 0.4388102 0.85201645 0.5367427 0.8738155 0.65604967
1.0271604 0.52220756 0.6989948 0.38547298 1.0291775 0.64736295 0.7541658 0.48254737
0.77146333 0.46079546 0.65118146 0.52887017 0.37851685 0.8360894 0.52683944 0.8184574
0.4992272 0.6134914 0.8479979 0.58634144 0.41222784 0.64723426 0.16557461 0.565027
0.52758515 0.76288855 0.5475674 0.66488147 0.39102548 0.7494104 0.6764509 0.66521955
0.7629158 0.57720053 0.731625 0.37262323 0.77108604 0.7469708 0.68108857 0.7855843
0.43979347 0.6480394 0.26513126 0.76751405 0.597511 0.7942358 0.92531526 0.949376
0.968157 0.6463295 0.7059363 0.8049036 0.7277652 0.5776472 0.8264702 0.5744328
0.85295904 0.40580943 1.206564 0.7133434 0.6730181 0.6989564 0.37758073 0.15048891
0.62495 0.6896612 0.6699963 0.5174267 0.95924854 0.874932 0.90058386 0.64213836
0.62353206 0.6612378 0.76581246 0.78402793 0.7271063 0.55087537 0.82794 0.68359923
0.72707623 0.7688586 0.5745525 0.68571794 0.5363215 0.64926064 0.6045297 0.807485
0.8679467 0.5145178 0.74052215 0.42718315 0.75716597 0.62494856 0.7099175 0.94172925
