results/04-03-2019_n/all_ca_arc_sinh_h24/ch21/grad_clip_0.5/with_zero/model/decoder.pth (torch_old, 123167 bytes, 6 tensors)

lstm.weight_ih_l0 f4 [96, 24]
00000000: b019 3a3f 8f74 833f 260c 35bf 1c54 9740
00000010: 7bf4 4ebf 9743 adbe 38e1 00c0 c16a c6be
00000020: 573f edbe fdce 96be c2f5 1cbd c331 94be
00000030: f9f7 e0bd fdf8 dcbe 15e6 99be 0b2a ac3e
00000040: f47b f440 87fe 1dc1 5c19 8c3e 2afd d240
00000050: 8462 05be 891a 75be e967 96bf 8ceb 36bf
00000060: fbae 143f ea5d 4a3e de17 e63f d97b 6cbf
00000070: 911b d940 c3ef a8bd 5026 27bf 6549 953f
00000080: 568a 64bf 66ab babd 8f64 bf3d 1140 5c3f
00000090: b6d4 9b40 cfab a9be 9472 31bf d6d8 0a3e
000000a0: 23e5 e33f a827 d93e 3af4 19be 47d4 963e
000000b0: 4318 cfbf e7b6 fd3e 51e3 65be 0659 36bf
000000c0: 3d6c a33f 8f43 043f f17e 2740 8476 a440
000000d0: 2b59 923e da4f e440 b20f 1c40 d88a e43f
000000e0: 860e ae3f bd04 1dc0 408d 1bbf 42d4 58bf
000000f0: 860a 183e 51c1 c4bf 4e58 d9be 27c4 af40
00000100: 93ac 1abe d1a8 a33f 1d87 1440 34c1 793e
00000110: 0e28 5cc0 fce0 94bf 225b 02c0 298e 52c0
00000120: ddb8 1542 0103 29bf b3c6 e9be bfc5 b23e
00000130: a9f5 673e 56bb 0a3f 7e92 5d3f b7a5 903e
00000140: 45a3 4dbf 14eb 6ebf c5ff ff3d 48e9 243d
00000150: e9be 53bf ef40 3f3e 71b4 dcbf a89e e93e
00000160: b867 95be d15c 92bf cf6f 033c 48d2 b5bd
00000170: de30 28c2 5c85 70bf 7de7 4dbe 5848 c53d
00000180: 2702 2e40 0712 16c0 0770 ce40 0527 a340
00000190: ced4 c03d a480 17bf c521 a33f d2fc e63f
000001a0: 1ec7 2340 895e a9c0 717f 113f caef b1c0
000001b0: 642b 1540 3130 f240 3f42 1340 dfc4 7040
000001c0: 59fe b4bf 7605 f640 71ea 6c40 f15c 24c0
000001d0: 506a bac0 9352 e7bf d45c b8bf a0d6 1ac1
000001e0: 66b1 533f 0df4 573f 17dc 02bf a799 92bc
000001f0: aea9 80be 47e7 e83e dfeb e83f ba3a fe3e
00000200: 52db 0240 f24c c3bf 895d c93e c9dd 883f
00000210: ad49 63be a046 883e 5248 2540 00dc 893e
00000220: 8f2c 13bf 9f7b bc3e 62d8 c03f a0a1 13c3
00000230: 5574 883e 24c8 a93f 9c5d 56c0 9e28 c4be
00000240: 1238 0dbf e758 be3d d71b ee3f cb66 23bf
00000250: e0f4 89c0 8be3 7f3f a94d febf 4ee3 54c1
00000260: ef56 933f 2f0a d43f 76bc 7f3f 7157 c43f
00000270: 7a1d b03e 5dc5 cb3e 3716 c73d f8f5 99bf
00000280: 38e3 9c3e dd9d 3ec2 bc7e 6dbe e0cb 063f
00000290: 87b1 c43e 66b9 afbf f2e8 973f b0ba 39bf
000002a0: 827a 1941 5468 1f3f ad7c 0e3f f736 a13e
000002b0: 7f40 f5be 1397 cb3e c476 753f ec1e 303f
000002c0: bd81 593f cc98 00bf 1652 90be 40f7 0dbe
000002d0: ef89 8f3f 8054 21bf 0802 d2bf 7ce9 cf3e
000002e0: 43e9 95be 92fa d6bd 9d24 b6bf 1725 15be
000002f0: 3256 0cc1 0a6d abbf 4567 90bf 5539 2abf
00000300: 6df8 2c42 2cc7 1540 4b32 463f ca30 edbf
00000310: 1bdc b7c0 6daf ec3d 2401 d4be 540e 7c40
00000320: c75b 6440 7961 b13f d25d f83e e226 0ec0
00000330: 9006 9340 17ab aa40 8d56 3f40 9106 0841
00000340: c270 97bf 2cdb b140 17ea 34bf 90e5 b33f
00000350: eb87 91c1 aa91 c9be fc74 20bf 5fb8 75c0
00000360: 3612 9f3f 7cbc 3fc0 0bd8 3840 ea2f 0040
00000370: e35d b4bf d4be 0740 2ea8 38bf 4957 5640
00000380: 2a25 8cbf e1c0 503e 87fd 753f 6145 6ec0
00000390: 80c6 2940 7080 21c0 3bc0 033f fd07 b23f
000003a0: 881e 703f 596a 2140 d85c 933f 614b 1dc0
000003b0: 6ed2 a9c0 6bbb cd3e 2bf0 2fc0 1757 8abe
000003c0: cc88 e5bf d974 0340 c76f 48c0 0fac babf
000003d0: 2b1c 1ebf 50cd 4dc0 3701 0ec0 5e8a aac0
000003e0: 1ad7 a0bf 3c33 1740 5ea4 8bbe 3339 743f
000003f0: a326 cdbf e0b8 bd3f 77bf 0d3e 02e5 3541
0.72695446 1.0269946 -0.7072166 4.7290173 -0.808418 -0.3384063 -2.0137463 -0.38753322
-0.46337387 -0.29454795 -0.03832031 -0.28944215 -0.10984797 -0.43158713 -0.3005835 0.33625826
7.640131 -9.87464 0.27363098 6.593404 -0.13025862 -0.23935904 -1.1750461 -0.71453166
0.580795 0.19762388 1.7976034 -0.92376477 6.784615 -0.08248856 -0.65292835 1.1663023
-0.89273584 -0.09114723 0.09345352 0.8603526 4.8697157 -0.33138892 -0.6931546 0.13559279
1.7804302 0.42413068 -0.15034571 0.2945883 -1.6179279 0.49553606 -0.22449996 -0.7122959
1.2767407 0.51665586 2.617123 5.1394672 0.28583655 7.1347475 2.438458 1.7854872
1.3598182 -2.4534142 -0.60762405 -0.8469888 0.14847764 -1.5371495 -0.42450184 5.4926944
-0.15104894 1.2785894 2.3207467 0.24390107 -3.4399447 -1.163116 -2.0368123 -3.2899268
37.43053 -0.6602021 -0.45659408 0.34916493 0.22652306 0.541921 0.86551654 0.2825143
-0.80327255 -0.9332745 0.12499956 0.040261537 -0.8271318 0.18677114 -1.7242566 0.45628858
-0.29180694 -1.1434575 0.008022263 -0.088779986 -42.04772 -0.9395349 -0.20107837 0.09632939
2.7188814 -2.3448503 6.451175 5.098513 0.09415589 -0.59180665 1.2744681 1.8045905
2.5590281 -5.29279 0.56835085 -5.560521 2.3307734 7.5683827 2.3009183 3.762016
-1.4140121 7.6881666 3.7018092 -2.5681727 -5.8254776 -1.8072075 -1.4403329 -9.677399
0.82692564 0.84356767 -0.5111708 -0.017895533 -0.25129455 0.4548895 1.8196982 0.4965418
2.0446362 -1.5257857 0.39329174 1.0692683 -0.22196074 0.26616383 2.582539 0.2692566
-0.57489866 0.36813065 1.5066035 -147.63135 0.26651254 1.3264203 -3.3494635 -0.38312238
-0.5516368 0.092943005 1.8602246 -0.63828725 -4.311142 0.9995658 -1.986745 -13.305494
1.1510905 1.6565608 0.99896944 1.5339185 0.3439749 0.39799014 0.09721034 -1.2028189
0.30642104 -47.654163 -0.23192877 0.5265484 0.38416693 -1.3728454 1.1867964 -0.7255049
9.592409 0.6226857 0.5565899 0.31487247 -0.4790077 0.39763698 0.95884347 0.68797183
0.8496359 -0.5023315 -0.28187627 -0.1386385 1.1213969 -0.6301956 -1.640687 0.40607822
-0.29279527 -0.10497011 -1.4229923 -0.1456493 -8.771044 -1.3392651 -1.1281515 -0.6649373
43.242603 2.3402815 0.7742049 -1.8530514 -5.7456183 0.11556897 -0.4140712 3.9383745
3.5681016 1.3857871 0.4850908 -2.2211232 4.594551 5.333385 2.9896576 8.501603
-1.1831286 5.5580044 -0.7066969 1.4054432 -18.191366 -0.39368945 -0.62678504 -3.839378
1.2427433 -2.9958792 2.8881862 2.0029244 -1.4091152 2.1210222 -0.7213162 3.3490775
-1.0948842 0.20386077 0.9608998 -3.7229846 2.6527405 -2.5234642 0.51465195 1.3908688
0.93796587 2.522116 1.1512709 -2.4577258 -5.306937 0.4018205 -2.7490337 -0.2701957
-1.7932372 2.0540068 -3.1318223 -1.4583758 -0.6176173 -3.2156563 -2.2188241 -5.3293905
-1.2565644 2.362502 -0.2727384 0.9539978 -1.6027416 1.4822044 0.1384257 11.36841

lstm.weight_hh_l0 f4 [96, 24]
00000000: 8ffc 7741 9462 5bbf 97da f1bf b848 94c1
00000010: c91c 943f 53d6 29c1 9ba7 cac0 2dcb 4e41
00000020: bcfe 75bf dfda 1541 f637 9141 8f0e ce3f
00000030: 53ac 0e40 63f9 ad40 a92a 9a3f 6baa eebf
00000040: 8945 bbbf 5212 48c1 97d9 07c0 e014 68c0
00000050: 40ac 20c1 1cd8 ac3f b3a7 ddc0 9d79 87c1
00000060: a240 abc0 e5b5 67c1 8434 fbc0 5ac4 d3bd
00000070: 656d b6c0 bed9 21c0 9a66 2540 4104 8fc0
00000080: 6537 8fbf cb6e f640 1040 0fc0 0b65 cfc0
00000090: 86e2 ab40 8359 b040 046b ae40 72dc a0c0
000000a0: 50fd d6c0 17e0 acc0 6902 3ac1 fb09 5541
000000b0: b11f c440 c6d7 59c0 8bae 623f 0130 1ec1
000000c0: 4008 a440 122d 3e41 e758 d542 0e46 5940
000000d0: 23a0 763d 527b aec0 7589 e140 c7f9 0ec1
000000e0: 5303 c1c0 4962 9ac1 8662 e9bc 4189 a7c0
000000f0: 3f84 dec0 8572 a541 4c98 b8c0 3d74 0b41
00000100: b232 c5c0 651e b03f f1c3 1cc0 bfcb c93e
00000110: 18c3 3f40 e723 6740 f3f2 f73f a25e 94c1
00000120: 8eae 8140 8956 42c1 b1ba 973f dcb4 3542
00000130: 04e9 d93e f728 12c0 bce2 873f 0713 f940
00000140: d82f 1ec1 8758 fbc1 a99f 87bf 0670 a440
00000150: b121 63bf a027 2bc0 469f 01c1 b5e1 6ebf
00000160: 17c0 a63e 3d68 a43f 977c 15bf 4b93 d93e
00000170: 1685 453f a799 84bf 1362 0bc1 7ef6 f040
00000180: 79af 1dbf c2da c43f 0497 0bc1 73d8 08c0
00000190: 57d2 0140 97c4 d3bf a81e b7c0 2c5b 29c0
000001a0: 17f3 e7c0 c239 d4bf 2922 bd40 19d7 8dc0
000001b0: 80af f53f dd8c 6b40 e411 4b40 ebc7 10c1
000001c0: 7ce1 c53f 755e 3c40 1ea3 6b3f 5448 1240
000001d0: ba8d 8c40 01d0 ab3f 2dd3 b0be 199d 1442
000001e0: b9b6 3040 71f7 20c0 dc90 e13e 0b57 0ec1
000001f0: 15a0 e6c0 0c5e b142 5474 a1bf 1c97 11c1
00000200: 01b2 82c0 874b d13f 3390 9d3f 2807 06c0
00000210: 166e 2840 f438 c23e 5ce1 e240 f0b2 7ac0
00000220: a151 19be 5dc6 efbf af77 16c0 3873 88c2
00000230: ea55 f3c0 05c4 f340 8964 4ebd bc30 e840
00000240: 4edc d8bf 5da5 8f40 22b0 22bf 2a5a 18c2
00000250: 679b fc40 d377 cf3e 30cd 2442 5eed 2b41
00000260: 695a 4341 a4a5 fa3f 1a8b 4540 21bf 4ec1
00000270: 3708 6740 b16e ff40 0842 5240 491d 00c1
00000280: 0013 9bbf f264 5840 8dfe 8a41 04b5 7a3f
00000290: bd49 fd40 bc07 b640 edd7 9242 d2e9 9fc1
000002a0: 0f4d a9be fe89 6841 0dd8 b6bf 4995 f240
000002b0: ec6f 1c42 172b d8c0 f89d 1a40 97fc 9142
000002c0: 01f0 ca40 ccf2 9441 a42f 6841 ec77 8540
000002d0: 1f09 bfbf 7853 7ec0 0d11 7ec0 3d34 7c40
000002e0: 71c2 073e 837b afbd 5979 f6c0 4d50 b4be
000002f0: 9160 0641 3618 6fc0 4d5f 4141 7eca 40c0
00000300: 4f23 943f 0211 b140 ae79 73c0 f817 ee40
00000310: c841 7740 c70f c540 992c 2bc1 2fed e040
00000320: 2c9b 93c2 6ca1 c3bf 7ea6 fec0 1c93 5fbf
00000330: 6215 52c1 19c1 4d41 76f0 11c1 6826 bcc1
00000340: dc5f 2a40 7230 5cbd c4d1 a040 b662 b5c0
00000350: e3d0 c640 fa2e 913e ac29 a941 9db9 12c0
00000360: f2f5 1141 4a2b e441 9446 96c0 fb74 0640
00000370: 87f0 053f e082 8d41 864a 3041 d00a 29c1
00000380: d508 63bf 610c 4d40 0a40 b4c0 0820 93c1
00000390: b7e9 1341 e445 5fc1 8247 a1bf 65ab 8e3f
000003a0: 7a08 a9c0 acb4 12c1 70d6 44c1 95fc 68c0
000003b0: 488b 8ac1 bd52 e040 0f4b a4bf d7d5 6741
000003c0: 02f4 50c0 fd1b a13f b77e 1241 ef91 51c0
000003d0: 05af 0bbe f319 9d40 0aab 3e40 7a7e 3140
000003e0: f8ac 6f41 c38f a83f 253f 2ec1 f9ab f840
000003f0: b42a 3a40 663c d73e 8d35 34c1 faaf 1e40
15.49916 -0.85697293 -1.8894833 -18.535507 1.1571285 -10.614825 -6.3329597 12.924603
-0.9609182 9.365935 18.152325 1.6098193 2.2292678 5.4366927 1.2044269 -1.8645757
-1.4630595 -12.504473 -2.1226556 -3.626274 -10.042053 1.3503451 -6.926721 -16.934381
-5.3516397 -14.481908 -7.8501606 -0.103401855 -5.700854 -2.528915 2.5843873 -4.4692693
-1.118878 7.7010245 -2.238285 -6.4810843 5.371402 5.5109267 5.4505634 -5.02691
-6.718422 -5.4023547 -11.625588 13.314937 6.1288686 -3.4037948 0.8854758 -9.88672
5.126007 11.8860035 106.67364 3.3949008 0.060211312 -5.4525537 7.0480294 -8.935981
-6.031656 -19.29799 -0.028489362 -5.2355046 -6.9536433 20.680918 -5.768591 8.7158785
-6.1624384 1.3759276 -2.4494593 0.39413258 2.9962826 3.6115663 1.9371017 -18.546207
4.052558 -12.146127 1.1853849 45.42662 0.4256059 -2.2837503 1.0616069 7.7835727
-9.886681 -31.418226 -1.05956 5.1386747 -0.88723284 -2.6742935 -8.101385 -0.9331315
0.32568428 1.2844311 -0.58393234 0.42495188 0.771562 -1.0359391 -8.711444 7.5300894
-0.61595875 1.537926 -8.724369 -2.138211 2.0284631 -1.654437 -5.722492 -2.6461897
-7.248424 -1.6580126 5.91042 -4.432507 1.9194183 3.6804726 3.172967 -9.048808
1.5459437 2.9432652 0.9204577 2.2856646 4.3923006 1.3422853 -0.34536114 37.153416
2.7611525 -2.5151026 0.4405583 -8.896251 -7.2070413 88.683685 -1.2613626 -9.099392
-4.084229 1.6351174 1.2309631 -2.0941868 2.631719 0.37934077 7.0900097 -3.9171715
-0.14972545 -1.8732411 -2.351055 -68.22504 -7.6042376 7.617678 -0.050388847 7.255949
-1.6942232 4.488936 -0.6355001 -38.08805 7.89397 0.40521106 41.20038 10.745451
12.209573 1.95818 3.086615 -12.921662 3.6098764 7.982262 3.2852802 -8.00715
-1.2115173 3.3811612 17.374292 0.9793246 7.9152513 5.688444 73.42173 -19.98917
-0.33066604 14.5336895 -1.4284683 7.5807233 39.1093 -6.75526 2.4158916 72.99334
6.3417974 18.618553 14.511631 4.170889 -1.4924659 -3.9738445 -3.9697907 3.9406884
0.13257767 -0.0856848 -7.702313 -0.35217515 8.398576 -3.7358527 12.085767 -3.0123591
1.1573275 5.533326 -3.8043017 7.440426 3.86339 6.158176 -10.698388 7.028953
-73.80307 -1.5283637 -7.9578238 -0.87333846 -13.13022 12.859643 -9.121206 -23.518753
2.6621008 -0.05375714 5.025606 -5.6682997 6.212999 0.28356153 21.145348 -2.292579
9.122545 28.521137 -4.6961155 2.10089 0.5232014 17.688904 11.018194 -10.56514
-0.8868535 3.2038805 -5.6328173 -18.39064 9.244559 -13.954563 -1.2599947 1.1146055
-5.2822847 -9.169109 -12.302353 -3.6404164 -17.318008 7.0101 -1.2835406 14.489707
-3.264893 1.2586666 9.155936 -3.274532 -0.13640983 4.9094176 2.9791894 2.7733445
14.979729 1.3168873 -10.890416 7.7709928 2.9088564 0.42038268 -11.263074 2.4794908

lstm.bias_ih_l0 f4 [96]
00000000: 090b cd3d ae64 c03f 5ccb 6abe 2de0 d93e
00000010: ca85 fa3f 8404 d1bd 3f19 96be 2dd9 4e3f
00000020: 665a 4240 c7b5 a53f 4bf5 35c0 51ec 8bbf
00000030: 6780 823e dd36 c53f a687 0a40 1047 693f
00000040: 4ee6 9d3f 2dc7 ee3e 1373 333f da68 2cbf
00000050: a977 6040 9e7b 0cc0 fbb6 1f3f 50ff bf3f
00000060: 1379 0d3e 2fea 1c40 3ea7 ed3e 507c 823e
00000070: c864 ca3e 2af4 abbe 8cc1 2d3f a5cb 1d3f
00000080: df0f 2f3f fed2 16bf beba e83f 91bf 19bf
00000090: 6a5d e7bd c3dc 6fc0 0cdb c6c0 6279 893f
000000a0: fadb 083f a777 7b3f 534f 94c0 8b8a 2840
000000b0: f736 aebe 8339 3fc0 aac9 b03e e0b9 3b40
000000c0: fe39 5240 568d 35bf 0992 ff3f 3024 7940
000000d0: f893 9d40 3c70 a040 ef24 2e3e 1a29 d93f
000000e0: ecde 75c0 ed33 c73f 5864 f63f 56f7 b73f
000000f0: 7120 63bf e37c 3abf f939 743f 6dae 0140
00000100: 1506 0c3f 77f1 0340 ff2a 62bd 274d b5bf
00000110: 9516 5dc0 a6e3 2abf 2e06 de3f 81fd 8540
00000120: 0282 31c0 c542 22c0 c2ae cfbf 4454 abbf
00000130: e19c 02c0 a829 bcbf 5abb efbf 7b00 aabf
00000140: 85ab ecbf 68ab e4bf eb5a 40bf ab04 26c0
00000150: 0d74 0dc0 5f6b 12c0 0cfe f6bf 8d62 6cbf
00000160: ead4 b2bf 6951 c7bf e83d f0bf e1a7 f0bf
00000170: 3691 ecbf d626 3ec0 d3e8 c7bf 3754 efbf
0.100118704 1.5030725 -0.22929138 0.42553845 1.9572079 -0.102059394 -0.29316136 0.80800134
3.0367675 1.2946099 -2.8430965 -1.0931493 0.25488588 1.5407368 2.1645293 0.9112406
1.2335908 0.46636334 0.70097464 -0.6734749 3.5073035 -2.195045 0.6238858 1.499979
0.13815717 2.4517934 0.46416658 0.25485468 0.39530015 -0.3358472 0.67873454 0.6163886
0.6838359 -0.589157 1.8181989 -0.6005793 -0.11297114 -3.7478492 -6.214239 1.0740168
0.5346066 0.9822945 -4.634683 2.633456 -0.3402631 -2.9878852 0.34528857 2.93322
3.2847896 -0.70918787 1.9966441 3.8928337 4.9243126 5.0137005 0.17006277 1.6965668
-3.841731 1.5562721 1.9249372 1.4372356 -0.88721377 -0.7284681 0.9540096 2.026271
0.5469678 2.0616128 -0.055216786 -1.416417 -3.4545033 -0.66753614 1.7345636 4.1871953
-2.77356 -2.5353253 -1.6225207 -1.3385091 -2.0408251 -1.4700212 -1.872905 -1.3281397
-1.8489844 -1.7864809 -0.7513873 -2.594035 -2.2102082 -2.2878034 -1.9296279 -0.92337877
-1.3971226 -1.557172 -1.8768892 -1.8801233 -1.8481815 -2.9711204 -1.5617927 -1.8697575

lstm.bias_hh_l0 f4 [96]
00000000: 8065 193e ff25 c33f 1a18 0abf 220e 7c3e
00000010: 02af ff3f 5867 1ebe 6da0 b2be 6238 783f
00000020: 5849 3740 7222 b03f 3ce2 22c0 c799 86bf
00000030: 2714 923e ad0a bd3f f986 fc3f 0a9e 9f3f
00000040: f0d0 9d3f 7ca6 9a3e b9a0 193f eb95 08bf
00000050: 4652 6a40 6926 0ec0 043f 5b3f 08ff da3f
00000060: d50f 7cbd fb76 1a40 ee4b ea3e 016e 483e
00000070: 030a b33d 63bd 21be 1f7a 033f 4445 033f
00000080: c86d e03e 7639 77bf 91fb 0740 1e4f 0dbf
00000090: 4c33 2cbe eb6f 64c0 b2e2 cac0 a48c a13f
000000a0: fc2f 413f 3df9 5a3f 1f9c 9ac0 6477 3040
000000b0: 88c2 f9be f0bf 53c0 2fa8 cd3e f29c 4a40
000000c0: e786 5440 95d1 1dbf 9763 0140 40fa 7640
000000d0: f407 9d40 6451 9540 9ac9 373e 41a9 d33f
000000e0: b801 7fc0 c727 d73f bce1 ec3f 4a65 b73f
000000f0: 6e90 54bf 8e4d 64bf e0c6 783f 9183 ee3f
00000100: 7ab0 143f c251 1240 4f51 743d fd10 8fbf
00000110: 9994 68c0 2fe8 28bf 1a4d e83f 4d40 8040
00000120: 6d2d 34c0 259a 1dc0 02d1 f8bf 7432 a9bf
00000130: 671a 0cc0 d64f c0bf 9213 0bc0 0283 bcbf
00000140: e9de e0bf 190b ecbf 778f 20bf dc75 27c0
00000150: 7443 0ac0 94b1 04c0 c292 edbf 3a8e 4ebf
00000160: cfcf afbf 5d23 9cbf d6f8 08c0 56d4 fcbf
00000170: 8957 f9bf d03d 38c0 d494 d7bf c9e7 f2bf
0.14980125 1.524597 -0.53943026 0.24614766 1.9975283 -0.1546911 -0.3488802 0.96961033
2.8638515 1.3760512 -2.5450583 -1.0515679 0.28531 1.4768883 1.972869 1.2470105
1.2329388 0.30205142 0.6001087 -0.53353757 3.6612716 -2.2210944 0.8564303 1.7109079
-0.061538536 2.413512 0.45761055 0.19573213 0.08742144 -0.15794902 0.51358217 0.51277566
0.43833756 -0.96572053 2.1247294 -0.5519885 -0.16816443 -3.569331 -6.340173 1.2621045
0.75463843 0.8553656 -4.8315578 2.757287 -0.48781228 -3.30859 0.40167376 3.1658292
3.3207338 -0.6164792 2.0217035 3.859024 4.907221 4.6661854 0.17947999 1.6536027
-3.98448 1.6809014 1.8506389 1.4327786 -0.8303288 -0.8918084 0.9717846 1.8633901
0.5808178 2.28624 0.059647854 -1.117706 -3.6340697 -0.65979284 1.814853 4.007849
-2.8152726 -2.4625332 -1.9438784 -1.3218522 -2.1891115 -1.5024364 -2.1730695 -1.472748
-1.7568027 -1.8440887 -0.6271891 -2.6165686 -2.160367 -2.0733385 -1.8560412 -0.8068577
-1.3735293 -1.2198292 -2.1401877 -1.97523 -1.9479839 -2.8787727 -1.6842294 -1.8976985

out.weight f4 [1030, 24]
00000000: c737 0f40 35d9 61c0 0e29 ad3f d2bc 283f
00000010: a0b3 0840 4a87 2540 746a 1041 80d7 fd3f
00000020: a06a 11bf 5527 6a3f 414f 6540 9b9a 3cbf
00000030: 90a1 813f 20f1 c6be d2f5 d940 b5cc 113f
00000040: 1fa0 e73f 94d4 5840 93b3 413f 1dab 84c0
00000050: aa84 9fc0 cde6 83bf 75dd 0b40 7673 0cc0
00000060: e427 bfbd 9962 c1c0 df9b b63e ef47 8c40
00000070: 0b0f 0f40 c117 0f40 3b29 52bf 5763 603e
00000080: 3330 7fbf ce4f afbd 8fe8 dfc0 5cf2 edbe
00000090: d162 883f 4eab 17c0 e482 8b3e 09b9 033e
000000a0: ce17 0cc0 0f25 4abf 7a87 b7bf e2bc 7bc0
000000b0: 48c5 6e40 6753 0fc0 8304 23c0 5bac 51bf
000000c0: b2ac a0be bcef 8a3e ca19 d5c0 8f9a 933e
000000d0: d29d 0e40 ea0f b040 a2de 81bf 27af cdbf
000000e0: d317 ba3f b9aa 3cbd 0bf1 17c0 b7cd ccbf
000000f0: e690 0240 2f54 b4c0 abf2 e93f 6fcb 53c1
00000100: eb04 07c0 3b09 3941 25e9 1040 c022 8ac0
00000110: 2dec 9940 dbf2 11c0 f245 86bf 05a1 c83f
00000120: 1924 183e 8371 3f3f 0e87 13c0 f08b 7d40
00000130: b7db 0340 62f3 8840 4897 31c0 2796 76be
00000140: 84fe 6cc0 a120 93bf 60b2 e73b 15e9 0dc1
00000150: dd4d 143c c785 9fc0 0b69 543f 3c8a d4c0
00000160: 8a51 52be bb0c fc3f 041e 663f 6434 35c0
00000170: cf9d 5e3f 2fed 1040 f538 1ec0 3f95 c4be
00000180: 53eb 46bf 54a0 1d3f dd4f d3bf 28ef 1140
00000190: 13a5 2040 95aa 3f40 3c4d 44bf fcfd 2a3e
000001a0: c1c7 36bf 6771 59be 6f7b 99be c861 23c1
000001b0: b483 46bf e77c 82c0 f86e 023f f49d 9dc0
000001c0: d427 de3e dbff 8040 88bf 813f d143 30c0
000001d0: 40ee 443f 91f6 3340 9ba4 73bf 3754 c0be
000001e0: a426 14bf 7b4e 98bf 82fb acbf 82f3 a240
000001f0: 7d6f 5540 81e8 9f3f 4c7a 22c0 4d1d 963f
00000200: eb88 07c1 67c5 aebf 5d1c 2540 1785 953f
00000210: f89b a2bf 1274 8fc0 acc9 783f 5d48 a8c0
00000220: f417 8ebf 2c1d cac0 1302 44bf eb63 91c0
00000230: 6865 863f ab1f b83d 1f62 65c0 b4a0 a73e
00000240: 9b32 eb3f 0f98 e2c0 9671 c33f c698 8140
00000250: 978d 4b40 a580 cb40 2168 0f40 bcb9 e7bf
00000260: 309a 0bbf 8784 1d3f 43d6 8240 a0ad 593f
00000270: 9d92 423f 7a30 653f cced f240 a8c0 9240
00000280: 3946 c3be b2da 0d3f 69a6 743d a5f7 abc0
00000290: 71f1 34c0 8153 7bc0 49ae 40c0 b779 7d40
000002a0: a1bd a040 6bad dbbf 54e8 8e3f b344 babf
000002b0: 68dd 0140 2bc9 3a40 78da 4bc0 0c2f 11c0
000002c0: e7cc a1c0 8da7 2d3f a778 81c0 222a f6be
000002d0: 30e5 7040 4271 d1bf 70d3 1a40 1b83 5040
000002e0: 74b0 953e fb95 25bf f5f1 1cc0 d3bf 4ec0
000002f0: 1115 3541 0c89 1540 bb3c 28c0 6249 84c0
00000300: bb14 e43e d818 e0bc 38ae c7c0 3b64 5cbf
00000310: 6a6d cf3f 6345 9040 9859 d23f 81e3 28bf
00000320: 2f21 81be 134c 2dbf 82a8 02c0 dfbf a9bf
00000330: b81d 963f e6f5 52c0 f83e e73f 68b9 3dc1
00000340: ff65 88bf 28be 1241 ad63 cb3f 4ec3 4ac0
00000350: 64fb c740 1eb0 5bbe 7068 8c3f 5461 b7bf
00000360: bd09 8b3f d6be bc3f 9013 e4bf bdb6 933e
00000370: 08bf 9a3f c6f1 8e3f 03bb 4abf 85eb 443e
00000380: ff6f 50c0 7cf6 e9be c493 febe 228e d1c0
00000390: 24df a2bf 3583 77c0 4259 323f cd8b 78c0
000003a0: ddcd 4b3f 6a9b 2c40 17a2 25be cb70 b0bf
000003b0: 82ab 0840 4070 cb3f f7e5 8ebf 98f7 953f
000003c0: af62 71bf 8638 b3bf ea87 293f 598f 14bf
000003d0: e215 3840 93da 5d40 2c22 fc40 9ebc cdbe
000003e0: ae62 1c40 93f9 43bf cea0 fcbe a7bb babf
000003f0: 8cc7 613f e4be 05c0 78bb 37bf d124 533e
2.2377794 -3.5288823 1.3528154 0.65913117 2.1359634 2.5863824 9.02599 1.983139
-0.5680332 0.91466266 3.5829623 -0.7367341 1.012743 -0.3885584 6.8112574 0.56952983
1.809574 3.3879747 0.75664634 -4.145888 -4.9849443 -1.030481 2.1853917 -2.1945472
-0.093337804 -6.043286 0.35665795 4.383781 2.2352931 2.2358248 -0.8209416 0.21912895
-0.9968292 -0.085601434 -6.9971385 -0.46473968 1.0655156 -2.3698306 0.272483 0.12863554
-2.188953 -0.78962797 -1.4338219 -3.9334035 3.730791 -2.2394655 -2.5471504 -0.8190362
-0.31381756 0.27136028 -6.659398 0.28828856 2.2283826 5.5019426 -1.0146067 -1.6069077
1.453852 -0.04606125 -2.374087 -1.6000279 2.040094 -5.6352763 1.8277181 -13.237166
-2.1096752 11.564754 2.26423 -4.316742 4.81008 -2.2804477 -1.0490096 1.5674139
0.1485752 0.7478258 -2.305118 3.961666 2.0602853 4.27971 -2.7748585 -0.24080716
-3.7030344 -1.1494333 0.0070708245 -8.869405 0.009051767 -4.9850802 0.8297278 -6.6418743
-0.20538917 1.9691385 0.8988955 -2.8313227 0.86959547 2.2644765 -2.4722264 -0.38395116
-0.77702826 0.61572766 -1.6508747 2.280222 2.5100753 2.9947865 -0.7668035 0.1669845
-0.7139855 -0.21234666 -0.29976985 -10.211372 -0.77544713 -4.077747 0.50950575 -4.9255314
0.4338976 4.0312324 1.0136576 -2.7541392 0.7692604 2.8119242 -0.95173043 -0.3756425
-0.5787146 -1.189895 -1.3514254 5.092225 3.3349297 1.249283 -2.5387144 1.1727692
-8.470927 -1.3653992 2.5798562 1.1681241 -1.2703848 -4.4829187 0.97182727 -5.2588334
-1.110106 -6.316061 -0.76565665 -4.543447 1.0499697 0.08990415 -3.5841138 0.32739794
1.8374819 -7.081062 1.5269039 4.049899 3.180517 6.3594537 2.2407305 -1.8103557
-0.54532146 0.61530346 4.088655 0.85030556 0.76004964 0.89527094 7.591528 4.5860176
-0.38139513 0.5541183 0.059729014 -5.37398 -2.8272364 -3.9269717 -3.0106375 3.960554
5.023148 -1.7162298 1.1164651 -1.4552215 2.0291386 2.9185283 -3.1852093 -2.2684965
-5.0562625 0.6783379 -4.045978 -0.4807902 3.7639885 -1.6362689 2.4191551 3.258002
0.29236186 -0.6468198 -2.452268 -3.230458 11.317643 2.3364897 -2.6287067 -4.133958
0.44547066 -0.027355596 -6.240017 -0.8609044 1.6205266 4.50847 1.6433592 -0.65972143
-0.2522063 -0.67694205 -2.041535 -1.326168 1.172782 -3.2962584 1.8066092 -11.857765
-1.0656127 9.171425 1.5889794 -3.1681705 6.2494373 -0.21453902 1.0969372 -1.4326577
1.0862347 1.4745739 -1.781847 0.28850356 1.2089548 1.1167533 -0.7919161 0.19230469
-3.2568357 -0.45695865 -0.4972211 -6.5486 -1.2724347 -3.8673832 0.69667447 -3.8835328
0.79611 2.6969857 -0.16175114 -1.3784422 2.135468 1.5893631 -1.116393 1.1716185
-0.94291204 -1.4001625 0.66223013 -0.5803123 2.8763356 3.4664657 7.8791714 -0.40182966
2.443523 -0.76552695 -0.49341434 -1.4588517 0.8819511 -2.089776 -0.7177043 0.20619513

out.bias f4 [1030]
00000000: 0143 313f f9ab 1d3f af54 0e3f 9af0 013f
00000010: 0724 e13e 803f 3e3f b9f7 2f3f 7777 bb3e
00000020: 534a e03e 5696 8b3e 258c 273f 83e7 cc3e
00000030: f64c 1c3f bad8 243f 2165 023f e469 243f
00000040: fc5c 223f a523 2c3f 21c5 283f eab1 1d3f
00000050: 5cf2 333f e3ae 073f 0f13 3b3f 0d41 133f
00000060: 7816 f03e 4501 233f cd9c e63e eccd 2d3f
00000070: 5dae 063f 6a89 953e d64a b83e 380e 133f
00000080: d685 183f 2420 1f3f 69fc 203f 1932 2d3f
00000090: 7068 123f cbaf 073f 2eb0 323f e427 233f
000000a0: 0e3a 033f eabf 1f3f 8d9e 1e3f 3a4c 213f
000000b0: c740 1f3f 71eb 143f df6b 2a3f 9e02 123f
000000c0: ef56 363f 2c91 233f a287 0b3f 73b4 043f
000000d0: 563b 1d3f 2f75 183f ee28 153f 4071 fa3e
000000e0: 4e2c 0f3f 30cf 2e3f 067a 053f d60b 293f
000000f0: 8b36 2d3f a912 1c3f b393 203f fa08 213f
00000100: 37c3 1b3f eb88 283f 507a 1f3f 21b5 333f
00000110: fa46 1f3f 4d1a 473f 3e1a 2a3f 0cb0 0b3f
00000120: b52a 183f 7fda 203f 9a8f 2a3f 2047 163f
00000130: d0b0 203f 9554 353f 3437 633f 0770 3c3f
00000140: adb4 183f 7a92 fb3e 0338 033f efbc 2b3f
00000150: 8ae3 3a3f d49e 203f e6f3 323f ca9c 113f
00000160: aa1a 3b3f 42ef 313f 3784 3b3f 4f92 223f
00000170: c1d1 463f fbd9 343f 8b68 3a3f 8fd6 2f3f
00000180: aae8 183f 8676 143f bab5 1d3f 7a65 0c3f
00000190: b164 523f 779c 293f 21c3 313f 7c08 2c3f
000001a0: 4a47 483f abbb 3f3f 6988 4c3f 45f6 4a3f
000001b0: 4962 413f ce94 433f 266f 3d3f 2f0b 443f
000001c0: 0384 2d3f 572f 3e3f 6aa5 313f fdf0 403f
000001d0: 0d88 1b3f c8be c63e 9804 2e3f f870 283f
000001e0: f205 1d3f 3948 4a3f cebd 2f3f 4662 403f
000001f0: 385a 343f c65a 0b3f 7a9b 333f 72cf 213f
00000200: a01e 373f ea9d 453f 66b0 2c3f 5e37 2f3f
00000210: a533 3b3f 56f0 2b3f 928a 233f 0a57 2d3f
00000220: 5f78 1a3f a771 343f 5443 193f 27a3 463f
00000230: 3c52 153f cbf0 133f 3ada e03e 205d 223f
00000240: bdc6 2e3f 0751 1f3f 2ed1 213f 276f 413f
00000250: c7e7 283f 0f84 e13e 3735 213f ca18 263f
00000260: 054a 3e3f 6d1c 3c3f 950d 4e3f 5a2a af3e
00000270: ad83 2c3f 9245 e43e 833a 5a3f 4cf4 303f
00000280: 4145 453f 1a5b d53e 71bf 173f 5ddb b63e
00000290: 1b94 503f 20e7 0a3f 408f 3e3f 6e21 df3e
000002a0: 766a 1d3f 4230 ed3e 2baa 163f c786 183f
000002b0: 1fbf a33e 86ac 3e3f 5bd0 093f d49a 133f
000002c0: 9b44 ee3e 940a 273f d894 493f ce04 103f
000002d0: 92d9 b23e 3932 0d3f e24e 333e 91d5 2d3f
000002e0: a1a6 cb3e e7d5 243f ed4a f23e 7c45 fc3e
000002f0: 5e3d bf3e 2d03 283f a3ea 1c3f fe7b 203f
00000300: 7aee 273f 2905 ee3e e271 f53e 50ba ae3e
00000310: 6af0 173f 7bef 3f3f 8568 193f 52d6 2d3f
00000320: 8c38 bf3e 8b3a f43e fd19 923e d453 283f
00000330: 9c3b 1a3f 6a45 243f 9b2c 3c3f 790c 393f
00000340: c358 403f 8195 163f 1dd9 213f a99a 283f
00000350: dca9 253f 7791 033f 9c65 293f b71e 113f
00000360: dd97 2c3f 9b38 c93e 45c2 7a3f e04b 193f
00000370: 1c70 173f cd87 173f 2521 bd3e 01d6 3f3e
00000380: 2f64 103f f8de ff3e bbcf ec3e 916c f93e
00000390: 732d 263f 499c 563f 9bb4 1c3f 2f4b 143f
000003a0: e076 0b3f 5d71 123f 823a 273f a231 253f
000003b0: 08b4 fe3e f44a fb3e c3e4 283f 55df 2e3f
000003c0: 6d4d 203f 0c64 383f 89ed 013f 9d0d 043f
000003d0: cd5d 043f 0846 1c3f dbfb 1c3f abc9 243f
000003e0: de57 3c3f f3cf e23e c3c6 0a3f 17d0 c23e
000003f0: fcc9 1e3f 21c1 203f 05c9 ef3e d70c 293f
0.69242865 0.61590534 0.55597967 0.50757754 0.439728 0.74315643 0.6873737 0.36614582
0.43806705 0.27263135 0.6544822 0.4002038 0.61054933 0.643932 0.5093556 0.64224076
0.6342313 0.6724189 0.65925795 0.615996 0.70291686 0.5300123 0.73075956 0.57521135
0.46892142 0.6367381 0.45041505 0.67892337 0.5260981 0.292064 0.35994595 0.5744357
0.5957922 0.6215842 0.6288515 0.6765457 0.5719061 0.53002614 0.6980008 0.63732743
0.5126046 0.6240221 0.6196068 0.6300694 0.6220822 0.58171755 0.6657085 0.57035244
0.712264 0.6389339 0.54503834 0.51837844 0.61418664 0.5955381 0.5826558 0.48914528
0.5592698 0.68284893 0.5213932 0.66033685 0.6766135 0.60965973 0.6272537 0.6290432
0.6084475 0.6583392 0.6229601 0.70198256 0.62217677 0.77774507 0.6644629 0.545655
0.59440166 0.628334 0.6662537 0.5870228 0.62769794 0.70832187 0.8875611 0.7360844
0.5965069 0.4913519 0.5125734 0.67085165 0.7300345 0.6274235 0.6990341 0.56879866
0.7308756 0.69505703 0.7324862 0.635045 0.7766381 0.7064511 0.7281577 0.68686765
0.5973002 0.5799335 0.6160542 0.5484234 0.8218489 0.6625437 0.6943837 0.67200446
0.7823378 0.74895734 0.79895645 0.7928203 0.75540596 0.7639893 0.73997724 0.76579565
0.6777956 0.74290985 0.69393027 0.7536772 0.6075447 0.3881743 0.6797576 0.65797377
0.61337197 0.79016453 0.68648994 0.75149953 0.7045016 0.54435384 0.70159113 0.6320716
0.71531105 0.7719408 0.6745666 0.6844386 0.7312568 0.671636 0.63883317 0.67710936
0.6033992 0.7048592 0.5986836 0.775927 0.58328605 0.57789296 0.43916494 0.6342335
0.68272 0.6223301 0.6320981 0.7556023 0.65978664 0.44046065 0.62971824 0.64881575
0.74331695 0.73480874 0.80489475 0.34212 0.6738842 0.44584328 0.8524553 0.6912277
0.770588 0.41671067 0.5927649 0.35714236 0.8147599 0.5425892 0.7443733 0.43580192
0.6149057 0.4632588 0.58853406 0.59580654 0.3198175 0.74482 0.5383355 0.57658124
0.46536717 0.65250516 0.7874274 0.5625733 0.34931618 0.5515476 0.1751056 0.67904
0.39775565 0.6438889 0.4732279 0.49271762 0.37351507 0.65629846 0.6129553 0.626892
0.6559826 0.46488312 0.47938448 0.3412652 0.5935122 0.74974793 0.5992511 0.6790515
0.3734783 0.47700915 0.28535452 0.6575291 0.60247207 0.6416842 0.7350556 0.72284657
0.7513544 0.58821875 0.63221914 0.6586099 0.6471231 0.51393837 0.6617067 0.5668749
0.67419225 0.39301 0.9795268 0.598814 0.5915544 0.5919159 0.3693935 0.1873398
0.5640287 0.499748 0.46252236 0.48715642 0.649131 0.8383222 0.6121308 0.5792722
0.54478264 0.5720423 0.6532365 0.6452886 0.49746728 0.49080622 0.6597406 0.6830953
0.6261814 0.7202766 0.50753075 0.5158327 0.5170563 0.6104436 0.613218 0.6437022
0.73571575 0.44299278 0.54209536 0.38049385 0.62026954 0.6279469 0.46833053 0.6603522
