results/04-03-2019_n/all_ca_arc_sinh_h24/ch21/grad_clip_0.5/with_zero/model/encoder.pth (torch_old, 406252 bytes, 4 tensors)

lstm.weight_ih_l0 f4 [96, 1030]
000000 42 01 55 bd 50 98 a0 3f bd 6d 06 be b0 90 78 3f
       -0.052003153 1.2546482 -0.131278 0.97095776
000010 16 85 91 be 3b d0 b7 3e 02 2f 54 bd c5 a9 9a 3e
       -0.2842185 0.35901055 -0.051802643 0.3020765
000020 86 51 01 3f 18 b7 00 be a8 c8 b3 3d 88 a3 85 3f
       0.5051502 -0.12569845 0.087785065 1.0440531
000030 db 17 f5 3e 5c b1 15 3e 4d 22 7b 3f b9 26 f1 3e
       0.47869763 0.14618438 0.98099214 0.47099856
000040 76 0e 84 3e 68 21 2c bf e5 0e 8a 3d 62 27 fc 3d
       0.25792283 -0.67238474 0.06741122 0.12312199
000050 1a 7b 87 bc d6 af 91 3e d7 30 2e 3e 36 5c af 3b
       -0.016538192 0.28454465 0.17010818 0.0053515686
000060 0c 29 24 3f 7a 92 78 bd 3a b0 f5 3e b7 0c a5 be
       0.6412513 -0.060686566 0.47986013 -0.32236263
000070 09 cf d3 3d ad 0d 4c 3f 26 19 31 3e b3 85 c3 be
       0.10342223 0.7970837 0.1729475 -0.38187942
000080 a1 38 be 3e 18 f9 05 3a fc b4 ea 3b eb eb ae bc
       0.3715258 0.0005110665 0.0071626883 -0.021352729
000090 98 ee fb 3e b3 b2 44 bf ed fd 22 bf a6 37 31 bd
       0.4920547 -0.76835173 -0.6366871 -0.04326596
0000a0 b8 42 12 3f 04 a2 e3 3e be cb e2 3e 95 b9 b6 be
       0.57133055 0.44459546 0.44296068 -0.35688463
0000b0 7d e2 9b be 7c 89 13 bf 03 7b da 3e 85 42 e2 bb
       -0.30446234 -0.5763166 0.42671975 -0.0069049024
0000c0 31 55 d7 3e 33 28 19 3f 23 a8 d3 be 08 9f bc 3e
       0.42057183 0.59826964 -0.41339216 0.3684008
0000d0 c1 00 76 3f e2 71 b4 3e f0 8e 91 3f 7f ca 38 3f
       0.960949 0.35243136 1.1371746 0.72183985
0000e0 42 5f a8 bd db 40 ad be 87 cf 2a 3d 6b 50 ca 3e
       -0.08221294 -0.33838543 0.04170182 0.3951448
0000f0 10 b6 4c be eb 59 9f 3e d8 58 15 3e 0f ef 5e be
       -0.19991326 0.3112329 0.14584672 -0.21770881
000100 c6 87 c9 bd 7d 0a fa 3d 33 33 c6 3e 32 1a 91 bf
       -0.0984035 0.12209032 0.38710937 -1.1336119
000110 10 21 2c 3e 54 d2 48 3f 4c 1f 1c 3c 28 92 e8 3e
       0.16809487 0.78445935 0.009528946 0.45424008
000120 d4 7c 0f be b1 4f a1 3e fc 19 10 3f 6b 9e dd 3d
       -0.14012462 0.31506112 0.5628965 0.108212315
000130 d1 c7 e3 3e 34 0f e0 be 96 ec 31 3f bf c2 b7 be
       0.44488385 -0.437616 0.69501626 -0.35890767
000140 c5 30 75 3e 57 cb 11 3e 51 b3 ad bd 6d 6b 9f be
       0.23944385 0.14237724 -0.084814675 -0.31136647
000150 0f 0b c4 3d 7e d7 35 3e 04 f0 aa be 80 22 9e 3d
       0.09572422 0.17757985 -0.33386242 0.07721424
000160 b5 01 78 3e 35 f2 18 3e 75 d3 72 3f 79 0e 0b 3f
       0.24219401 0.14936145 0.9485391 0.5431896
000170 21 c3 88 3f b0 67 43 bf ce 13 c6 3d d4 93 5f 3f
       1.0684549 -0.7633009 0.09671746 0.8733494
000180 a7 f8 13 3d 57 62 59 3e d5 21 11 3f 30 09 83 bd
       0.036125805 0.2122892 0.5669225 -0.06398237
000190 09 a7 2f be a8 0a 43 3f 9e 7a a1 bd bd 6b 75 3e
       -0.17153563 0.76188135 -0.078847155 0.2396688
0001a0 c8 a0 89 bd 6f 8e cc 3e 7e f8 ce 3e 5f a7 80 3e
       -0.0672012 0.39952418 0.4042396 0.25127694
0001b0 d2 05 d8 be 99 30 09 3d 6c 15 0c be d6 08 ba 3e
       -0.4219194 0.033493612 -0.13680047 0.36334866
0001c0 0c 0f 8c be 08 48 5e 3f 44 c7 8f 3d df ce 30 3f
       -0.2735523 0.8682866 0.07020429 0.6906566
0001d0 fe ac 9d be 2c 62 a4 bd cc 71 6c be 89 9b 4d bf
       -0.30796045 -0.08026537 -0.23090285 -0.8031545
0001e0 dc 15 d2 3e 1a 46 b1 3e f3 ce 00 be 5c ed 2d bf
       0.41032302 0.34623796 -0.12578945 -0.67940307
0001f0 ab de 84 be 18 b0 11 bd 8e 03 a0 3f 8f 91 fd be
       -0.25951132 -0.035568327 1.2501085 -0.49525115
000200 99 92 5c 3f b4 85 c3 3c c5 0e 0c be a5 3d b3 be
       0.8616119 0.023867466 -0.13677509 -0.3500797
000210 78 46 83 3c fa 16 36 3f 68 ac 54 3d 55 6f 36 3f
       0.016024813 0.7112881 0.051922232 0.7126363
000220 9a e4 fa be f2 ab a6 3e 28 41 03 3e d2 7c 3d 40
       -0.49002534 0.3255306 0.12817824 2.9607434
000230 8d 1a 1f 3d 46 f8 46 3d 6e a0 3c 3f 73 23 5d 3e
       0.03884368 0.048576616 0.73682296 0.21595554
000240 81 cd 9c 3f 70 c8 5a 3e 30 b7 8f bf 9d fe 21 3f
       1.2250215 0.21365523 -1.1227779 0.63279134
000250 bc e1 36 3c 4a 7b 2e 3e 9d 36 fa 3d 4d 38 b2 3e
       0.011162218 0.17039219 0.12217448 0.3480858
000260 1e d2 8e 3d 67 c1 9c 3e 65 ee 50 3e 09 6f 1d be
       0.069736704 0.30616304 0.2040344 -0.15374388
000270 93 c0 5f 3f fe eb ee be d2 d1 b1 3f 45 2a de 3f
       0.8740322 -0.46664423 1.3892157 1.735665
000280 d4 03 74 3e 01 31 36 be 6f 07 9d 3f b4 31 a2 3d
       0.23829585 -0.17792131 1.2267894 0.07919636
000290 cf 41 03 3f 74 84 34 3c c2 83 da 3f 08 a8 91 3f
       0.5127229 0.011017907 1.7071459 1.1379404
0002a0 50 07 c0 3d 06 f1 df 3f 62 79 af 3e 8a af d5 3f
       0.09376395 1.749543 0.34272295 1.6694195
0002b0 38 17 6a 3e 0c ec 27 3f b8 06 a9 be 9b b2 67 3f
       0.2286042 0.65594554 -0.33012938 0.90506905
0002c0 1b 2b 5e 3e c7 4a 16 3f af 5f 12 3f 6f 36 6b be
       0.21696131 0.5870785 0.5717725 -0.22969984
0002d0 6a 68 52 be e8 65 5b 3e f4 4e 25 3f 94 c9 0d 3f
       -0.20547643 0.21425593 0.645736 0.5538571
0002e0 40 a5 50 3e a0 af 36 3f 22 7d 7e bd 48 71 7c 3e
       0.20375538 0.7136173 -0.062131055 0.24652588
0002f0 87 77 6a 3f 73 7f dd 3d 01 5a 0f 3f 26 3c 4d bd
       0.91588634 0.10815325 0.5599671 -0.05010619
000300 31 7c e6 bd b2 ef 0f 3e b5 d1 d2 be 39 a1 55 3f
       -0.112541564 0.1405628 -0.4117562 0.8344913
000310 5f 6e 17 3d 78 d8 7e 3e 87 1d 9c 3e 52 a9 a0 3e
       0.036970492 0.24887264 0.30491278 0.3137918
000320 58 0a 5b 3f 68 86 90 be d3 d1 4a be fb 59 af 3d
       0.8556266 -0.28227544 -0.19806604 0.08562084
000330 c8 02 bc 3c ed 25 e7 be 4d 6b 3a 3f 6b ad 11 3e
       0.022950545 -0.45146123 0.7281998 0.1422631
000340 8c cc f1 be bc 21 fc 3e 36 ea 00 be be 2a 72 3f
       -0.4722637 0.49244487 -0.12589344 0.9459647
000350 0f 2b 2e bf c4 50 84 be 03 c7 22 3f f7 62 86 3e
       -0.6803445 -0.2584287 0.6358492 0.2624738
000360 ee 22 89 bf 5d a0 29 be 0e 0f ab 3e 2b fa 39 3e
       -1.0713785 -0.1656508 0.33409923 0.18161838
000370 d8 c3 a6 3e c4 32 7c bf 50 0b 75 bf 82 16 96 3d
       0.32571292 -0.9851496 -0.95720387 0.07328512
000380 9a 11 65 bf 7d f7 db 3d 63 fc b8 bd 34 c7 c1 bf
       -0.8947998 0.10740564 -0.09032514 -1.5138917
000390 a7 4b 3f 3d 52 09 ba 3e e3 24 52 3e 64 81 3f 3f
       0.046703007 0.36335236 0.20521884 0.7480681
0003a0 2f 68 dd 3e e2 b2 9f 3e 44 5d ab be 5f be 40 be
       0.43243548 0.31191164 -0.33469594 -0.18822621
0003b0 9b 9d 13 3e 42 1f 9c be fc db 52 3f b9 80 7b 3f
       0.1441559 -0.30492598 0.8236692 0.9824329
0003c0 86 2b f8 3f 52 5d 22 3f 4e 18 1c bd 67 d1 f6 be
       1.9388282 0.63423645 -0.038109116 -0.48206636
0003d0 62 e7 cb 3f b2 84 12 bf 64 a7 b6 3f 3e ff e6 3f
       1.5929987 -0.57233727 1.4269834 1.8046644
0003e0 15 2f b6 3e 03 8b 04 3f 10 38 a0 be b7 c6 78 3e
       0.35582796 0.51774615 -0.31292772 0.24294554
0003f0 f4 74 24 3f cf a0 be 3f 66 b5 4e 3f cf 04 30 3e
       0.64240956 1.4892825 0.8074554 0.17189334

lstm.weight_hh_l0 f4 [96, 24]
000000 10 05 35 bf 14 24 ae bf 3f 17 09 40 64 42 29 3e
       -0.7071085 -1.360476 2.1420438 0.16529232
000010 af 9e f6 3e 0e a2 b2 3f a6 f1 df be 69 a3 64 bf
       0.4816794 1.3955705 -0.4373905 -0.89311844
000020 e2 2c 6a be 04 41 36 be d4 21 86 3e 1f 37 27 3f
       -0.22868684 -0.17798239 0.26197684 0.65318483
000030 b5 02 4d 40 54 28 d0 3d 0f a8 f8 be 8d e1 46 bd
       3.2032902 0.10163942 -0.4856572 -0.048554946
000040 27 f5 96 40 87 de 5c c0 bc c3 51 be cd 6d 81 40
       4.717426 -3.451082 -0.20484823 4.0446534
000050 d6 8d 8d 3e 45 c0 6f c0 6d 78 54 3f ab 71 2e bf
       0.27647275 -3.7461102 0.82996255 -0.68142194
000060 b0 65 dd 3f f9 bf 34 40 64 cd 8a bf 45 6f 8c be
       1.7296658 2.824217 -1.084393 -0.27428642
000070 cc c8 35 40 1d f4 90 40 27 92 fd 3f e5 24 f6 be
       2.8403807 4.529799 1.9810227 -0.48075023
000080 63 ea 91 3f 5f 7e 8f bf 00 60 16 be f5 37 cd bf
       1.1399654 -1.121044 -0.14685059 -1.6032702
000090 70 41 75 bd 4f 45 c9 be 7c 8d c4 3f 31 69 26 40
       -0.05987686 -0.3931069 1.5355678 2.6001704
0000a0 08 88 6a 3f 1a a1 0b c0 2f 2c 3b 40 69 7c 18 3f
       0.9161382 -2.1817079 2.9245718 0.59564835
0000b0 ee e0 2a 40 2e 19 53 c0 5d 55 ab bf 34 a4 37 3f
       2.6699786 -3.2984118 -1.3385426 0.7173493
0000c0 00 06 00 c0 64 1f b6 40 f5 2d 6c 40 b7 d5 62 40
       -2.0003662 5.691332 3.690305 3.544294
0000d0 a9 a8 75 c1 09 c0 ac 3f 86 45 1a 3e 73 ae 67 c0
       -15.353677 1.3496104 0.15065584 -3.6200225
0000e0 b5 c5 10 bd 09 55 34 bf 1c 06 9e 3f 44 48 ab 3e
       -0.035344798 -0.70442253 1.2345614 0.33453572
0000f0 5e ad d7 40 3b da 78 be 72 fd 87 3e 80 34 1e 40
       6.739913 -0.24301998 0.2656055 2.4719543
000100 6e 92 c2 3f 4a c5 8d c0 e5 2b 6c c0 ce 26 66 41
       1.5200937 -4.430333 -3.690179 14.384474
000110 2a e1 0e 40 f9 67 25 bf 43 a1 bb 3e 81 33 34 be
       2.232493 -0.64611775 0.3664647 -0.17597772
000120 e8 c6 f9 3e 93 2d 82 3f 53 77 6e bf 9d 0b 81 40
       0.48784566 1.0170158 -0.93150824 4.0326676
000130 81 00 9c 41 08 b9 00 40 a8 f6 4e 3e fa c7 99 3f
       19.500246 2.0112934 0.2021128 1.2014153
000140 9e 0d 1a bf 05 71 bb 3e d0 92 2b 3e 81 07 75 3f
       -0.6017703 0.36609665 0.16755223 0.95714575
000150 59 93 66 42 9c d9 04 40 f8 ce 15 41 0d 5e 21 3f
       57.643894 2.0757818 9.3630295 0.63034135
000160 f8 3b a9 c1 e0 60 09 c0 9d 93 c5 bf e4 3a 07 41
       -21.154282 -2.1465378 -1.5435673 8.451878
000170 89 35 87 bf 9d 70 3a 40 5f ac bf 3e 57 fe 44 3f
       -1.0563213 2.9131234 0.37436196 0.7695059
000180 93 cf 3c be 7a 81 45 40 02 56 22 bf e9 ac 82 3d
       -0.18438558 3.0860276 -0.6341249 0.06380636
000190 53 d4 af bf 5f 80 07 40 97 92 42 40 83 18 18 be
       -1.3736671 2.1172101 3.0401971 -0.148531
0001a0 c6 f5 33 40 be b0 aa bd 09 91 aa 3e 0e 80 30 bc
       2.8118758 -0.08334492 0.33313778 -0.010772718
0001b0 77 7b 77 40 60 37 fd be 13 2e 2b 40 d2 51 f6 bd
       3.8669107 -0.4945631 2.6746871 -0.12027325
0001c0 ba 92 84 40 cd da 28 bf a2 8e 35 40 cd 8f a6 40
       4.142911 -0.65958863 2.8368306 5.205054
0001d0 24 62 19 40 33 3d 06 bf 39 25 4c c0 5c c6 38 be
       2.396615 -0.5243713 -3.189772 -0.18044418
0001e0 f2 01 d1 c0 02 b8 79 40 98 3d d6 bf 54 4a 53 3f
       -6.5314875 3.901856 -1.6737547 0.8253529
0001f0 a8 0d 4b 40 19 fe 20 41 88 bc 5f 3e b6 02 22 c0
       3.1727085 10.062036 0.21849263 -2.5314155
000200 6a a8 f8 be 89 7b f3 3f 90 f9 07 3f 7c c9 8b 3e
       -0.4856599 1.9022075 0.5311518 0.27302158
000210 31 75 cf c0 be 09 ea 3f 46 9d 0b c0 ea 90 69 3f
       -6.4830556 1.8284223 -2.1814742 0.91236746
000220 8b 2f ac c0 61 62 2a 40 37 cb c5 bf 21 86 22 c0
       -5.3808036 2.6622546 -1.5452641 -2.5394366
000230 31 56 48 40 2b 72 d0 bf c3 f6 58 3f 81 f6 e0 be
       3.1302607 -1.6284841 0.8475153 -0.43938068
000240 a9 93 1b bf 7e b7 a6 c0 07 76 de 3b dd 6b 8f 3f
       -0.60772187 -5.209899 0.0067889723 1.1204792
000250 03 4d e6 40 1b a2 c9 3f d0 b6 f6 c0 78 02 ac be
       7.196901 1.5752596 -7.709816 -0.33595634
000260 f6 5a 87 c0 05 3f 7f be 49 c3 11 3f a1 49 8f be
       -4.2298536 -0.24926384 0.56938607 -0.27985862
000270 95 8a 04 c1 77 d9 67 3f ba e8 07 c1 3f 56 f5 3e
       -8.2838335 0.905662 -8.494318 0.47917363
000280 bd 8e 11 40 3a 6b 20 3e 47 e4 21 c0 34 50 a2 be
       2.274337 0.15665904 -2.529558 -0.31701815
000290 34 60 0a c0 44 21 91 be 07 92 dc 40 bb 87 7a bf
       -2.1621218 -0.28345692 6.8928256 -0.9786336
0002a0 ad cc 25 c0 57 62 e0 40 ab af 80 c0 4a 5c 07 bf
       -2.5906174 7.0120044 -4.021444 -0.52875197
0002b0 16 45 ab c1 3c b7 9f 40 39 52 ad 3e 58 e6 94 c0
       -21.408733 4.9911175 0.33851793 -4.653118
0002c0 d6 30 f6 bd c6 a9 bb be d0 8c 6d be 5c dd 54 40
       -0.120210335 -0.36652964 -0.23198247 3.3260107
0002d0 52 12 c0 41 55 1f e1 bd e5 ed 32 bf 3b 73 68 c0
       24.008945 -0.10992304 -0.6989425 -3.632033
0002e0 df ba bb c0 96 b9 e0 c1 ee c5 6d c0 37 e0 ba 41
       -5.8665614 -28.090618 -3.7152057 23.35948
0002f0 0f 40 6c 40 55 7a 69 c0 ef 37 3c bd ad af 14 be
       3.6914098 -3.6480916 -0.04595178 -0.1452014
000300 06 be 7d be 5e c3 11 40 60 a6 b9 be 38 eb 30 3e
       -0.2477952 2.2775493 -0.36259747 0.17277229
000310 60 3c d1 bf a6 0f c5 3f 7d 5d d0 3f ae b0 ce 3e
       -1.634655 1.53954 1.627853 0.4036917
000320 a0 34 00 40 48 4b 53 bd c3 91 11 be c2 dd c1 3d
       2.003212 -0.051585466 -0.1421576 0.09466125
000330 12 03 59 40 dd a7 53 bf 19 a6 e9 3f fc 89 02 3e
       3.3908124 -0.82678014 1.8253814 0.1274795
000340 bd 46 99 40 67 a8 71 bf 61 6b 88 3f ba 82 8e 40
       4.789885 -0.94397587 1.065777 4.453458
000350 ac 65 e1 3f 5c 66 3c bd a6 82 f5 bf 1f 6b ae 3b
       1.7609153 -0.045996055 -1.9180496 0.0053228284
000360 9c 99 6b c0 eb 91 1d 3e 9e c6 45 3e fd 30 8c 3f
       -3.6812506 0.15387695 0.19314048 1.095245
000370 3e 65 28 40 1c 54 98 be 84 f4 b9 bf 2f 4c 3b be
       2.6311793 -0.2975167 -1.4527745 -0.1829078
000380 bb 0e 12 bf e4 a5 c8 c0 4d d4 05 3e a1 f9 3c 3f
       -0.57053727 -6.2702503 0.13069268 0.73818403
000390 57 96 c1 c0 96 d0 53 c0 3e ec 02 c0 8b a9 e5 3f
       -6.049602 -3.309606 -2.045669 1.7942365
0003a0 8f 7b 8e c0 cb 8d b2 3f 7a fe 14 c0 db 70 f7 bf
       -4.452583 1.3949522 -2.328032 -1.9331316
0003b0 38 b6 9d 3f 3e f3 00 c0 f8 83 ab 3f 15 55 e6 3e
       1.2321234 -2.0148463 1.3399649 0.44986787
0003c0 97 a1 3d 40 16 84 5f c0 47 4b ba 3f 4f 51 30 40
       2.9629877 -3.492437 1.4554223 2.7549627
0003d0 fe 4a c4 c0 75 65 0b 40 0b e7 00 c0 a9 ac 8a 40
       -6.1341543 2.1780674 -2.0141017 4.3335767
0003e0 97 f9 81 3e f7 aa d5 3e 51 09 15 3f be 2b b5 bf
       0.25385734 0.41731998 0.5821734 -1.4153974
0003f0 92 ac 1e c1 76 db 38 3f e4 d7 3f c0 5c 72 31 40
       -9.917131 0.7220987 -2.997552 2.772605

lstm.bias_ih_l0 f4 [96]
000000 b8 c2 c8 3f 7a 66 be 3f 1d 17 ac 40 a4 15 66 42
       1.5684423 1.4875023 5.3778214 57.521133
000010 90 3e 3a 40 04 4c 91 c0 95 5a c4 c0 6c ad b7 41
       2.9100685 -4.5405293 -6.1360574 22.959679
000020 4e 94 56 40 01 ca a9 c0 c3 6d 2a c1 b9 16 46 c0
       3.3528018 -5.3059087 -10.651797 -3.095137
000030 11 ed c9 40 ab fd b3 c0 c5 22 39 40 3c a5 b5 3e
       6.310189 -5.6247153 2.8927472 0.35477626
000040 b7 6c 63 40 4c fd c8 41 8a a2 16 40 00 aa 46 42
       3.5535104 25.12368 2.3536706 49.666016
000050 2a e5 b6 3f 2e 99 94 c0 09 56 65 42 82 ed 05 c0
       1.4288685 -4.6436987 57.33402 -2.0926213
000060 d7 b8 3a 40 02 63 8f bf a8 49 52 c0 4e 94 12 42
       2.9175317 -1.120209 -3.2857456 36.64483
000070 d9 03 26 40 d6 11 74 3f 10 4e 30 c0 ae 9f f4 3f
       2.5939848 0.95339715 -2.7547646 1.911123
000080 a6 75 e1 41 dd cd 0f 3f a0 c4 b9 bf dc fd 22 bf
       28.182446 0.561735 -1.451313 -0.6366861
000090 d0 82 9a c0 46 37 4a 40 e7 ac 1f 40 07 de 18 c1
       -4.8284683 3.1596236 2.4949281 -9.554206
0000a0 9f 91 1c c2 ac 97 f4 c0 ef 1b 1e 40 af b9 55 42
       -39.14221 -7.6435146 2.470455 53.43133
0000b0 0b 74 bb 40 92 e3 39 bf b6 48 10 42 0c fb 5c c0
       5.8579154 -0.7261287 36.071007 -3.4528227
0000c0 e5 8b 01 c0 e3 f4 af 3f 38 40 37 c0 eb 26 3e c0
       -2.0241635 1.3746608 -2.8632946 -2.9711254
0000d0 46 b0 b9 bf c4 e2 fb bf d7 82 53 be 7f 54 27 c0
       -1.4506919 -1.9678578 -0.2065538 -2.6145322
0000e0 77 92 06 40 f1 f8 c1 3f 09 cc 8d 3f 60 eb e3 3f
       2.1026895 1.5154096 1.1077892 1.7806206
0000f0 26 98 8f 40 d0 08 cf 3f 56 cc 22 c0 1a 3e 22 bf
       4.487323 1.6174564 -2.5437217 -0.6337601
000100 56 fa 28 42 d5 3b 6a c0 c5 c8 7c bf cb 39 2f 40
       42.24447 -3.6599019 -0.9874385 2.7379024
000110 ec ba f1 3e 0f a4 9f 3f 09 4b 3f c0 fe f2 d1 be
       0.47212923 1.2471942 -2.9889548 -0.410057
000120 3c 32 35 c0 17 84 73 c0 45 a6 b6 c0 c8 20 8e c0
       -2.831191 -3.8049371 -5.7077966 -4.4415016
000130 9e b7 2b c1 18 21 87 3f fe e3 19 c0 79 a7 18 41
       -10.732328 1.0556974 -2.4045405 9.540887
000140 d0 ba 1b c1 7b 62 9d 3f 12 da b3 bf 1c 58 e6 3e
       -9.7331085 1.2295679 -1.4050925 0.44989097
000150 59 72 76 40 fc 16 74 40 f3 fd 6f c1 7b de 87 c0
       3.8507292 3.8139029 -14.999499 -4.2459083
000160 df fd 2c 40 65 84 e5 41 67 9f 8d c0 7f e0 93 40
       2.702995 28.689646 -4.4257083 4.6211543
000170 de b1 39 c0 cc ef c4 3f 7e 47 2e c1 69 23 15 c0
       -2.9014812 1.538568 -10.892454 -2.3302863

lstm.bias_hh_l0 f4 [96]
000000 ac 91 e5 3f 6c d5 95 3f a5 40 af 40 57 9f 66 42
       1.793508 1.1705756 5.476641 57.655605
000010 38 da 43 40 1b 5b 90 c0 35 7f ba c0 21 17 b6 41
       3.060194 -4.5111213 -5.828028 22.761293
000020 79 89 53 40 17 c8 af c0 3f 0e 2a c1 c4 1e 42 c0
       3.3052657 -5.493175 -10.628478 -3.0331278
000030 b4 6e c5 40 7a 73 af c0 27 a1 4c 40 62 2b ef 3e
       6.1697636 -5.4828463 3.197336 0.46712786
000040 4a 9d 62 40 0c c5 c8 41 fe 40 18 40 00 b7 46 42
       3.5408502 25.096214 2.3789668 49.67871
000050 ca ee af 3f ef d6 8e c0 7d 88 64 42 10 b2 10 c0
       1.3744748 -4.463737 57.13329 -2.260868
000060 a7 05 34 40 26 7c 83 bf 36 e5 5f c0 f5 47 13 42
       2.812845 -1.0272262 -3.498365 36.82027
000070 f5 ba 29 40 cb cd 6e 3f 44 ae 27 c0 00 f2 ea 3f
       2.652036 0.93282765 -2.6200113 1.8355103
000080 df 5e e1 41 3c 6c 40 3f 5d 34 e3 bf 2d 43 64 bf
       28.171324 0.7516515 -1.7750355 -0.89165
000090 46 1c a2 c0 bc 60 51 40 80 87 1d 40 72 dd 1b c1
       -5.0659513 3.2715292 2.4613953 -9.741564
0000a0 b2 e3 1c c2 87 d0 fc c0 34 87 21 40 06 73 55 42
       -39.22236 -7.900455 2.5238771 53.362328
0000b0 a7 7e bd 40 c3 3b 36 bf 38 75 11 42 56 db 5d c0
       5.9217105 -0.7118494 36.36447 -3.4665122
0000c0 b8 05 e4 bf 3d c9 ba 3f 47 75 38 c0 75 ad 3b c0
       -1.7814245 1.4592663 -2.882158 -2.932462
0000d0 3e 45 bd bf 39 06 f1 bf 4c 18 9b bd 2a 69 31 c0
       -1.4786756 -1.8830024 -0.07572994 -2.7720437
0000e0 a1 f4 06 40 bb 32 a5 3f 87 18 8d 3f d9 76 e2 3f
       2.108681 1.2906107 1.102311 1.769252
0000f0 ee 3e 8a 40 c4 63 cf 3f b9 55 25 c0 d5 99 11 bf
       4.320182 1.6202321 -2.583357 -0.56875354
000100 e4 aa 28 42 ae 6a 67 c0 73 bd 56 bf 0b 1f 25 40
       42.166885 -3.6158862 -0.83882827 2.5800197
000110 e2 81 06 3f e7 50 8b 3f 5c 7e 44 c0 a9 3f fe be
       0.52541935 1.0884064 -3.0702124 -0.49657944
000120 5c 00 4a c0 00 4f 73 c0 94 b2 be c0 45 d1 89 c0
       -3.156272 -3.8016968 -5.959299 -4.3067956
000130 50 2f 28 c1 28 b8 41 3f ad 04 2b c0 4e 5c 1d 41
       -10.511551 0.75671625 -2.6721604 9.835035
000140 6f 8f 1e c1 29 8f b6 3f 1d 30 ba bf 81 f7 cb 3e
       -9.910018 1.4262439 -1.4545933 0.39837268
000150 ad 2c 6d 40 69 6a 6f 40 33 ce 6c c1 14 84 86 c0
       3.7058518 3.7408698 -14.800342 -4.203623
000160 a5 00 23 40 a7 37 e7 41 16 ec 92 c0 7e 2a 97 40
       2.5469143 28.902174 -4.591319 4.723937
000170 48 2a 3a c0 b4 05 ac 3f af cb 2d c1 1e 78 0f c0
       -2.9088306 1.343924 -10.862227 -2.2417064
