results/04-03-2019_n/all_ca_arc_sinh_h24/ch21/grad_clip_0.05/arc_sin_znorm/model/encoder.pth (torch_old, 406252 bytes, 4 tensors)

lstm.weight_ih_l0 f4 [96, 1030]
000000 31 c5 02 c0 89 b8 b4 c0 ae 43 ce c0 ab ae e9 c0
       -2.0432856 -5.6475263 -6.4457617 -7.302572
000010 1e 98 b7 c0 46 4b 55 c0 29 06 09 c1 1f 0b ab bf
       -5.737319 -3.3327193 -8.564004 -1.3362769
000020 2b 1b 6f bf ed 61 8b c0 cf 3b e6 bf 6f e6 78 be
       -0.9340083 -4.355704 -1.7987002 -0.24306653
000030 1a b0 d5 bf d0 cf 96 40 ec e7 8e c0 c6 1a 76 c0
       -1.6694367 4.7128677 -4.465811 -3.8453841
000040 86 70 fc 3f 59 ff a2 3f 23 8b e2 3f bc 7b cb 40
       1.972184 1.2734176 1.7698711 6.3588543
000050 34 05 45 bd 41 4d fd 3f 8c fb af c0 04 61 fd bf
       -0.048100665 1.9789201 -5.4994564 -1.9795232
000060 a1 1f dd bf d5 8e 13 40 63 26 3d bc a3 e4 0a c0
       -1.7275277 2.3055928 -0.011544797 -2.1702049
000070 b1 eb 72 bf e0 0d d4 bd 2c 53 bb 3f 2c f4 35 c0
       -0.94890887 -0.10354209 1.4634757 -2.843028
000080 cd 58 8c 40 c9 7d 07 41 a7 65 fb bf 43 21 bb 3f
       4.38584 8.468209 -1.9640397 1.4619526
000090 a0 f7 3c 3f e6 3e 7f bf a3 e1 8a 41 31 9d b0 bd
       0.73815346 -0.9970535 17.360174 -0.08623732
0000a0 eb 7f c5 c0 fa 40 25 40 03 f4 ea bf d5 5e a8 40
       -6.171865 2.5820909 -1.8355716 5.261576
0000b0 bb f8 08 c0 30 60 e7 3f 7f fa b7 bf b1 20 a8 bd
       -2.1401813 1.8076229 -1.437332 -0.082093604
0000c0 56 dd 05 c1 fc 9f 0b c1 82 8f e0 3f 03 81 f0 bf
       -8.366537 -8.726559 1.7543795 -1.8789371
0000d0 49 6a 58 c0 50 7c f5 bf f6 9a 99 c0 0f d1 c5 3f
       -3.3814871 -1.9178562 -4.800166 1.5454425
0000e0 05 6a 89 c0 cc 2d 86 c0 dd c8 f0 bf d7 fc 1d c1
       -4.294192 -4.1930904 -1.8811299 -9.8742285
0000f0 43 7e 04 40 fe 3a f5 3f 38 7e 4e 40 f1 83 e0 40
       2.0702064 1.9158628 3.2264538 7.016106
000100 7b df fb 3f 0e 18 db 40 24 dd 5c 40 e5 47 f8 3f
       1.9677576 6.8466864 3.4509974 1.939694
000110 73 e1 0f 40 9b ec 5d 40 1b 99 0a 41 0c dd 40 40
       2.2481353 3.4675663 8.662379 3.0134916
000120 d0 6c 66 40 d5 6b bd bf 82 b9 f8 40 f5 8c ba 40
       3.6003914 -1.4798533 7.772645 5.8297067
000130 f7 4e 09 41 4b 21 48 40 89 f5 13 41 12 5a 0e 41
       8.581779 3.127032 9.247445 8.89699
000140 00 e5 6a 3f 57 89 e7 40 06 fe e2 c0 f8 fe ce bf
       0.91755676 7.235515 -7.0935087 -1.617156
000150 58 b6 ac bf b8 28 8b c0 46 fd 5e 40 0f 6e 53 3f
       -1.3493147 -4.3487206 3.4842086 0.8258981
000160 7e 4c 29 40 f8 66 a7 3f ef 9d 55 40 7e 74 18 c0
       2.6452937 1.3078299 3.3377645 -2.38211
000170 84 ff d2 c0 68 44 39 41 43 3f fa 3f 01 ad 5e 41
       -6.593691 11.579201 1.9550556 13.917237
000180 0b a8 dd c0 7c 62 75 41 12 31 c7 3f 2d 48 34 bf
       -6.926763 15.336544 1.556185 -0.7042263
000190 77 b1 a3 c0 27 00 83 40 9f e8 b8 40 65 64 2a c0
       -5.115413 4.0937686 5.778396 -2.6623776
0001a0 fc 42 0f 41 94 42 a9 40 0a 7c 99 40 52 10 18 41
       8.953854 5.289377 4.7963915 9.503984
0001b0 7d 08 bf 40 69 6a ac 40 82 8e ed 40 10 90 0e 41
       5.969786 5.3879895 7.423646 8.9101715
0001c0 b5 be c8 c0 a7 7f 51 c0 15 14 bf be 92 ba 7c 3f
       -6.2732797 -3.2734163 -0.3732001 0.98722184
0001d0 b5 9b af 3f 35 31 1a c0 2c e4 1f 40 f1 68 96 40
       1.3719393 -2.4092534 2.4983015 4.70031
0001e0 50 74 fa 40 7f a6 ff 3e e7 24 ef 3f b2 c3 4e 3e
       7.8266983 0.49931714 1.8683137 0.2019184
0001f0 e0 32 c0 c0 1a e9 3c 3f c3 50 d5 40 65 e6 04 40
       -6.0062103 0.73793185 6.6661086 2.0765622
000200 45 a2 d4 3f 59 80 1d c0 af 94 a9 40 c9 74 9a 40
       1.6612021 -2.4609587 5.2994 4.826756
000210 40 a0 d2 40 53 74 f5 40 79 66 4e 40 97 85 ba 40
       6.582062 7.6704497 3.2250044 5.8288074
000220 e0 87 80 40 2f ce 49 be f8 fe 5b bf 53 06 91 3f
       4.0165863 -0.19707559 -0.85935926 1.1330055
000230 8d c1 81 c0 19 ed 44 40 d8 ae d4 3f 09 be fe 3f
       -4.054877 3.0769713 1.6615858 1.9901744
000240 db 21 ae 3f b4 26 51 bf 9b 1c 0d 40 91 f2 8f 40
       1.3604082 -0.8169968 2.204871 4.49836
000250 f6 36 74 40 75 02 d4 3f ca dd ae 40 ba 69 dc 40
       3.8158545 1.656325 5.464574 6.887906
000260 da 6f 96 3f 91 fe e7 3e 4e d0 85 c0 74 53 d9 bf
       1.1752884 0.45311406 -4.181678 -1.6978593
000270 0e fb 8a c0 5d 2f 7b c0 59 9c 8a 3f 7b ca 14 40
       -4.3431463 -3.9247658 1.0828964 2.3248584
000280 7e 2d 58 c0 62 be 0c 40 53 51 78 c0 cc 25 35 c0
       -3.3777766 2.19912 -3.8799636 -2.830432
000290 8d 4c 0e 40 69 4e bb 3f bf bc e7 bf 25 64 24 3d
       2.2234223 1.4633304 -1.8104476 0.040134568
0002a0 6a ce 7b bf 3e cd 30 c0 dc b5 35 c0 95 b0 13 40
       -0.9836184 -2.762527 -2.8392248 2.3076527
0002b0 01 c7 18 40 84 e2 48 c0 32 b0 d8 3f a3 3d f7 bf
       2.3871462 -3.1388254 1.692877 -1.9315685
0002c0 3f 4b 6a 40 c5 16 73 40 04 9d 0e c0 1a 97 d9 bf
       3.6608427 3.7982647 -2.2283335 -1.6999238
0002d0 a8 d7 af 3f c4 a1 65 c0 f6 a8 24 3f 13 0b cf bf
       1.3737688 -3.5879984 0.64320314 -1.6175255
0002e0 8b 66 bc c0 b7 77 7f bf 28 b7 7e c0 56 d0 c2 c0
       -5.8875175 -0.99792045 -3.979929 -6.0879316
0002f0 db 67 1f c0 6a 01 90 bf 35 a2 7d c0 3c ea d9 bf
       -2.4907138 -1.1250432 -3.9630253 -1.7024608
000300 00 43 00 c0 1d cd 2c c0 47 24 cb be d9 9c 9f c0
       -2.0040894 -2.7000191 -0.39676115 -4.9878964
000310 03 8c db 3f 2b 22 97 bf 76 8a 62 c0 8f fb 40 c0
       1.7152103 -1.1807302 -3.539701 -3.015354
000320 00 fc a8 c0 61 62 e2 c0 47 d5 58 c0 fe 3e de 3f
       -5.2807617 -7.074509 -3.3880174 1.7362974
000330 b2 76 94 bf 7c cb f6 3f 7e 3e 80 3f b1 53 2b 3e
       -1.1598723 1.9280849 1.0019071 0.16731144
000340 f7 ea 4d 3f 5e e6 54 be 94 ee 03 c0 a3 09 e5 bf
       0.8043665 -0.20791003 -2.0614367 -1.7893566
000350 89 fe 62 bf 40 fc 6b 40 5c 83 ae be 7b 69 b8 3f
       -0.8866964 3.687271 -0.34084594 1.440719
000360 61 7c 93 c0 5a c6 7a 40 5d 58 d7 bf c7 e7 23 40
       -4.608933 3.9183564 -1.6823841 2.5610216
000370 0f 6c 8a 40 25 27 8d 40 58 18 30 c0 b5 5b a1 bf
       4.3256907 4.4110284 -2.7514858 -1.2606112
000380 bf 7f 82 c0 a6 c9 66 c0 50 47 2d 40 c7 0d 6f 40
       -4.078094 -3.6060576 2.7074776 3.735216
000390 3a 2e a1 c0 d7 0a ad 3f 66 b4 c6 3e 00 80 0c 3e
       -5.036893 1.3518933 0.38809508 0.13720703
0003a0 c9 ab cb 3f 57 72 c4 3f ea f7 37 c0 c0 20 b7 bd
       1.59118 1.5347394 -2.8745065 -0.089417934
0003b0 60 ec 84 c0 6d a2 33 c0 42 29 05 c0 fa 75 a0 bf
       -4.1538544 -2.8067887 -2.0806432 -1.2536004
0003c0 44 35 d2 be e6 14 85 c0 f8 26 7d c0 24 e6 e3 c0
       -0.41056263 -4.158801 -3.9555035 -7.1218433
0003d0 cd 7a 83 c0 47 79 3c c0 70 60 55 bf cb f6 34 be
       -4.1087403 -2.9449022 -0.83350277 -0.17672269
0003e0 56 65 db c0 a6 35 28 bf a6 23 be c0 97 11 16 c0
       -6.85612 -0.6570686 -5.9418516 -2.3448236
0003f0 75 83 99 c0 e3 24 c9 be 8a 4e 9c c0 7d 22 5d 3e
       -4.797297 -0.39285955 -4.8845873 0.21595187

lstm.weight_hh_l0 f4 [96, 24]
000000 a5 c8 79 c1 bd 59 6c bf 7e eb 8c 41 d0 78 c0 3f
       -15.6114855 -0.9232443 17.614986 1.5036869
000010 1b 69 8b 3f a6 f7 8a 41 ef 56 27 c1 61 44 98 c1
       1.0891451 17.370922 -10.458724 -19.033388
000020 50 6a 05 41 47 6c 19 41 1a 5a c6 40 ac 76 a0 40
       8.338455 9.588935 6.1984987 5.0144863
000030 55 68 02 c0 71 b2 b9 c0 ba dd 43 3e 21 de 28 bf
       -2.037618 -5.8030324 0.1912755 -0.6596394
000040 f5 9d f2 40 5d 42 f3 40 58 14 77 c1 d5 09 31 41
       7.581782 7.601851 -15.442467 11.0649
000050 c9 e1 61 41 95 77 18 c1 7f 76 9b 41 37 dc 27 3f
       14.117623 -9.529195 19.43286 0.65570396
000060 40 a1 87 41 86 f0 94 c0 c0 9b 4e c1 c1 69 30 bf
       16.953735 -4.654361 -12.913025 -0.6891137
000070 b5 1f 66 40 fb 64 d6 c1 77 21 fc 41 66 68 5b 41
       3.5956852 -26.799307 31.51634 13.712988
000080 ce 2b 96 c1 cc 73 8d c0 56 3f 90 c1 99 c2 1c c1
       -18.771389 -4.4203854 -18.030926 -9.797509
000090 a0 0d c4 41 f5 d7 d9 40 00 f3 90 c0 a7 a5 8a 40
       24.506653 6.807612 -4.529663 4.332721
0000a0 b0 ca 32 c1 73 a2 d4 c0 4e 49 e8 bf 76 de 8b c1
       -11.174484 -6.64483 -1.8147371 -17.483624
0000b0 84 c0 d7 c1 a1 fc c6 3f 37 cb a4 c1 2f 2f 12 c0
       -26.969002 1.5545846 -20.599226 -2.2841299
0000c0 58 d6 e6 40 10 c0 00 40 49 17 16 c0 5f 96 80 c1
       7.213665 2.0117226 -2.3451712 -16.073423
0000d0 22 2b c5 c0 fd 8e 28 41 cc 78 0b c0 b9 70 01 40
       -6.161515 10.534909 -2.1792479 2.022505
0000e0 48 75 c0 40 89 69 24 40 28 57 62 bf 35 ae 1b 40
       6.0143166 2.5689414 -0.8841424 2.4325078
0000f0 fd 26 79 c0 93 c2 3a c1 a2 2c 8c c1 83 04 85 bf
       -3.8930047 -11.672503 -17.521793 -1.0392002
000100 b2 31 bf c0 1c 89 a7 c0 51 ce 60 41 4b 74 fb bf
       -5.9748163 -5.235487 14.05037 -1.9644865
000110 0f ef 10 41 2b 79 80 c0 d9 5d d9 c0 56 3d 9a 40
       9.058364 -4.014791 -6.792706 4.8199873
000120 d7 e0 48 40 9e 8f 92 40 71 89 00 41 7e 96 64 41
       3.1387231 4.5800314 8.033555 14.286741
000130 a7 37 6e bf 98 35 ab c1 84 b2 05 40 0a 40 65 c0
       -0.9305367 -21.401169 2.0890207 -3.5820336
000140 ec 92 50 c0 4d 0a 99 c0 f8 d5 d0 c0 35 86 91 c0
       -3.2589674 -4.7825074 -6.526119 -4.5476327
000150 25 af 5b 41 31 57 01 c1 55 8c 8e 41 55 b3 07 41
       13.73026 -8.083787 17.818521 8.481282
000160 f4 aa ac 40 b1 20 90 3f cd 09 5f c1 30 48 c4 c0
       5.3958683 1.1259977 -13.939893 -6.133812
000170 f5 68 2b c1 85 be 04 c1 ba 56 ca 40 2e 6b 88 3f
       -10.713124 -8.296514 6.3230867 1.0657709
000180 b5 24 69 41 5e 0e 66 c0 40 af f1 c1 4e 90 69 c0
       14.571462 -3.594627 -30.210571 -3.6494327
000190 41 74 68 41 40 2c 57 c1 ea 3a f2 40 c0 ba 9b 41
       14.528382 -13.448303 7.5696917 19.466187
0001a0 67 64 c1 40 c4 83 9b c0 0b fe 5b c0 9d 9f 03 42
       6.043506 -4.8598347 -3.4373806 32.905872
0001b0 12 81 82 40 93 01 45 c1 d9 d1 be 41 19 80 68 c0
       4.0782557 -12.312884 23.852465 -3.6328185
0001c0 a0 49 90 c1 5f a5 e7 c0 a8 0a 4a c1 5f 9d d6 bf
       -18.03595 -7.238937 -12.627602 -1.6766776
0001d0 5b 6e 04 c1 e4 e4 3f 41 30 77 11 c0 80 7e a2 3f
       -8.276942 11.9933815 -2.2728996 1.2694855
0001e0 85 09 b6 c0 8f c0 61 3f 33 bf 0c 41 f6 f8 9c c1
       -5.688662 0.88184446 8.7966795 -19.621563
0001f0 18 e9 43 3f 72 dc dd 41 af 7a 75 c0 78 40 d0 40
       0.7652755 27.73264 -3.835613 6.5078697
000200 de 67 62 3f b8 11 cd 40 74 8c 0e 41 d8 07 2d c1
       0.8843974 6.408413 8.90929 -10.814415
000210 bb c0 b1 c1 16 87 0b 41 97 f3 67 c1 e0 86 82 c0
       -22.219107 8.72048 -14.49697 -4.078964
000220 a4 45 87 40 7f cd 22 40 4a 92 1a 41 1c 78 68 41
       4.227251 2.5437925 9.660715 14.529324
000230 56 72 d6 41 4e 35 66 bf 8d 64 d2 bf a2 2c b9 40
       26.805828 -0.89925086 -1.6436936 5.7866983
000240 d9 7e 0e 41 4d e1 39 3f 80 ce 81 3f d1 35 79 c0
       8.905969 0.72609407 1.0141144 -3.8939097
000250 fb a7 86 c0 27 c3 ab bf 08 c9 43 c0 4d 90 8d 40
       -4.2080054 -1.3418931 -3.059145 4.423865
000260 a0 4a 90 3f e5 e2 a8 c0 bf 8e 83 bf df ed 43 c1
       1.1272774 -5.277697 -1.0277938 -12.245574
000270 12 8d a0 c0 97 c8 30 41 83 50 57 c0 ba 1e 00 c1
       -5.0172205 11.048972 -3.364289 -8.007502
000280 c8 0a 4e 40 80 fd 4d c0 a6 28 27 41 54 f0 33 3f
       3.219408 -3.2185974 10.447424 0.70288587
000290 e8 69 f8 3f 2d b1 cb 40 00 9c 03 c1 e0 f8 73 40
       1.940732 6.365378 -8.225586 3.8120651
0002a0 d5 fd ac 41 e1 62 3b 41 6a 12 0d c1 24 ad df c0
       21.623941 11.71164 -8.816996 -6.9898853
0002b0 b5 e8 2c c1 e5 7f 29 c1 7c da de 40 2d 0b de 40
       -10.806813 -10.593724 6.9641705 6.938864
0002c0 62 96 ec c0 47 01 e8 c0 3b cc 43 c1 91 1a 3c 41
       -7.3933573 -7.250156 -12.237361 11.756486
0002d0 2e d1 d1 41 36 ed 9a 41 04 02 86 bf 0e 99 b7 c1
       26.227139 19.365826 -1.0469365 -22.949734
0002e0 f3 d9 c5 c0 1e 49 e6 c1 a2 7f 49 41 b8 d3 7e c1
       -6.182855 -28.785702 12.59366 -15.926689
0002f0 93 b2 b7 c0 11 88 da bf e9 63 d5 c0 7a a3 57 3f
       -5.7405486 -1.7072774 -6.668446 0.8423382
000300 ec ad cb 41 3a 0d 5a 41 4a c1 d8 c1 c6 f7 20 c2
       25.459923 13.628229 -27.09438 -40.241966
000310 51 d7 7f c1 0d c1 ba c1 1f 9a 78 41 2a 30 e3 41
       -15.9900675 -23.344263 15.537627 28.398518
000320 62 19 36 c1 03 37 4b c1 0c 59 7e c1 a1 3f d1 41
       -11.381197 -12.700931 -15.89674 26.156069
000330 1c f0 a5 41 10 be bf 41 c9 d8 c2 c1 d7 25 6f c1
       20.74224 23.967804 -24.355852 -14.946738
000340 11 9c 8d c1 54 66 51 c1 5e 1d f0 41 89 6b c7 c1
       -17.701204 -13.087482 30.01434 -24.927507
000350 f2 cd c6 c1 19 36 6f 41 92 d2 9d c1 5b bd 34 41
       -24.85056 14.950707 -19.727818 11.296229
000360 f5 ca 9d 41 07 4c 8c 41 69 63 cb c1 f0 e5 f2 c1
       19.7241 17.537123 -25.42354 -30.362274
000370 9d 32 ac c1 f5 ff a9 c1 d5 c1 8e 41 1c 20 c9 41
       -21.524714 -21.249979 17.844645 25.140678
000380 f8 89 85 bf 57 45 69 c1 80 e8 9a c1 59 b1 9e 41
       -1.043273 -14.579429 -19.363525 19.836596
000390 6a 38 d9 41 bc 92 db 41 72 3b a6 c1 01 90 b6 c1
       27.152546 27.446648 -20.779026 -22.820314
0003a0 ba d3 9a c1 67 f8 5f c1 34 cc d2 41 50 89 d0 c1
       -19.353382 -13.998145 26.349709 -26.067047
0003b0 ab 31 be c1 92 b9 21 41 77 65 ae c1 c5 83 9c 41
       -23.774252 10.107805 -21.799543 19.56434
0003c0 e2 9d a3 41 6f 42 87 41 8c 1b cb c1 cf 96 06 c2
       20.452091 16.907438 -25.38845 -33.647274
0003d0 6b 2a a4 c1 e3 71 a5 c1 24 66 6d 41 ca 35 c7 41
       -20.520712 -20.680609 14.837437 24.901264
0003e0 d9 0e 3c c0 89 92 17 c1 04 fb 4c c1 a4 ae e1 41
       -2.9384062 -9.473275 -12.811283 28.210274
0003f0 03 48 c6 41 7a 19 d5 41 fe 1c c9 c1 78 2b b1 c1
       24.785162 26.63744 -25.139156 -22.146225

lstm.bias_ih_l0 f4 [96]
000000 05 34 6a c1 dd b5 79 41 cb e0 7d 41 52 12 b0 c0
       -14.6377 15.6069 15.867381 -5.5022364
000010 6e bd bc 41 f8 55 fb 40 a3 0e 1b 41 a2 3c fa 41
       23.592495 7.854244 9.691073 31.279606
000020 53 fa 42 42 d6 13 27 42 6f 78 37 42 72 5d 53 c1
       48.744457 41.76937 45.86761 -13.210314
000030 73 b8 72 42 25 2c 32 c2 d4 5b 72 c1 75 d3 01 c1
       60.680126 -44.54311 -15.147419 -8.114125
000040 73 09 32 42 d1 ec a4 41 c3 cd 4c 42 32 00 26 42
       44.509228 20.615633 51.20094 41.50019
000050 16 dd 50 42 96 ae 35 42 1f 6f 26 42 9f ae 95 41
       52.215904 45.420494 41.608517 18.710264
000060 fe f7 25 c2 47 6e 42 c2 26 99 1a c2 2e 00 7b c2
       -41.49218 -48.607693 -38.64956 -62.750175
000070 25 7f 2e c2 53 35 c6 c1 cf 2a 72 c1 c9 a0 fd c1
       -43.624165 -24.776037 -15.135451 -31.703508
000080 b1 38 19 c1 1c 87 3e c2 08 de 2d c1 d5 6b 1d c2
       -9.576341 -47.631943 -10.866707 -39.355305
000090 75 ef 9f c0 f7 17 65 c2 e6 74 e0 c1 59 84 7f c2
       -4.9979806 -57.273403 -28.05708 -63.879246
0000a0 1c a0 41 c2 8e 0a 92 c2 7b 38 8c c2 aa b0 b0 c1
       -48.406357 -73.020615 -70.11031 -22.086262
0000b0 66 5f 47 c2 02 78 36 c2 55 21 98 c1 c7 fc 20 c2
       -49.843163 -45.617195 -19.016275 -40.246853
0000c0 67 5a e5 41 e0 46 28 42 5b 77 f3 c1 f7 c9 f8 c1
       28.669142 42.069214 -30.433279 -31.098616
0000d0 de b0 4f c2 6a 24 d1 c1 37 51 e0 41 10 00 38 42
       -51.92272 -26.14278 28.039656 46.00006
0000e0 d2 79 33 c2 09 4a ba c1 15 e5 3e c2 9d 56 01 42
       -44.868965 -23.28615 -47.723713 32.334583
0000f0 14 02 56 42 d8 c7 dc 41 56 36 82 c1 fd ef 19 c2
       53.50203 27.59758 -16.276531 -38.484364
000100 a3 34 7c c1 fb 25 1c 42 c9 d2 bc bf f1 fb 58 c2
       -15.762851 39.03709 -1.4751827 -54.246037
000110 0c 65 7f c1 26 7b 9f 41 92 33 23 c2 67 5b 30 42
       -15.96217 19.935131 -40.80036 44.08926
000120 8d 1f e7 c0 85 1b 24 c2 c2 b7 99 40 ff 59 ec c0
       -7.2226014 -41.026875 4.8036814 -7.385986
000130 ce 14 32 c2 ac 1f db 3f 9e a8 3d c1 51 75 52 42
       -44.520317 1.711904 -11.853666 52.614567
000140 e6 e5 35 c2 be eb d4 c1 68 03 f9 c1 e0 31 9a c0
       -45.47451 -26.615108 -31.126663 -4.8185883
000150 de e7 79 c1 36 ad 10 c1 4d 95 14 41 4f 74 6f c2
       -15.619108 -9.042288 9.28645 -59.863583
000160 9d 11 b6 c1 0a 43 43 c2 a9 79 31 c2 c0 61 96 c0
       -22.7586 -48.815468 -44.36881 -4.6994324
000170 28 7e b6 c1 27 4b 2a c2 19 6f 4b 41 0c 14 30 c0
       -22.8116 -42.57339 12.714623 -2.7512236

lstm.bias_hh_l0 f4 [96]
000000 ac 28 68 c1 2b 47 77 41 c3 99 7a 41 34 17 ad c0
       -14.50993 15.454875 15.6625395 -5.4090824
000010 89 c3 bc 41 f7 88 fc 40 3b e5 17 41 94 5a fb 41
       23.595476 7.8917193 9.493464 31.419228
000020 f9 3e 42 42 4d 19 27 42 7e b9 37 42 b6 65 53 c1
       48.561497 41.774708 45.931145 -13.212332
000030 49 e4 71 42 d7 88 32 c2 f4 3e 72 c1 35 ab 02 c1
       60.472935 -44.633633 -15.140369 -8.166799
000040 7e 51 31 42 8d c9 a5 41 69 d5 4b 42 ec f8 26 42
       44.329582 20.723413 50.95841 41.743088
000050 5b 1f 51 42 f1 f3 36 42 a1 06 27 42 a1 c9 94 41
       52.28062 45.738224 41.756474 18.598452
000060 9c c1 25 c2 4e 85 42 c2 cf f6 1a c2 ec 10 7b c2
       -41.43907 -48.63018 -38.741024 -62.766525
000070 e2 ff 2e c2 0b 73 c4 c1 d0 25 70 c1 cb 5b 00 c2
       -43.749886 -24.556173 -15.009232 -32.08964
000080 d6 94 1a c1 7d ad 3e c2 d1 d2 30 c1 b1 19 1c c2
       -9.661337 -47.669422 -11.051469 -39.02509
000090 a2 38 9f c0 05 55 65 c2 8a 16 e0 c1 6d e5 7f c2
       -4.975663 -57.333027 -28.011005 -63.97405
0000a0 51 24 42 c2 4a e7 91 c2 b4 ca 8b c2 06 8b b0 c1
       -48.535465 -72.95174 -69.895905 -22.067883
0000b0 db 0d 47 c2 f3 ad 36 c2 c6 ef 98 c1 41 8d 20 c2
       -49.76353 -45.669872 -19.117077 -40.137943
0000c0 aa 15 e4 41 39 83 27 42 dc 7b f3 c1 78 f3 f9 c1
       28.510578 41.878147 -30.435478 -31.243881
0000d0 42 65 50 c2 02 50 cf c1 ee 48 df 41 39 6b 38 42
       -52.098885 -25.914066 27.91061 46.10471
0000e0 37 dd 34 c2 8b 8d b7 c1 78 c3 3f c2 ba 6e 00 42
       -45.21603 -22.944113 -47.940887 32.10813
0000f0 6a e7 56 42 0a fc db 41 5f d4 82 c1 e2 7d 1a c2
       53.72599 27.498066 -16.353697 -38.622932
000100 0a e6 7c c1 69 bb 1b 42 40 ae a4 bf 75 9d 59 c2
       -15.806162 38.933018 -1.2865677 -54.403767
000110 d3 33 81 c1 c9 a1 a0 41 0a fb 23 c2 dc cb 30 42
       -16.150305 20.078997 -40.995155 44.19908
000120 06 e3 ee c0 4d 04 24 c2 66 bd 99 40 e8 c3 f0 c0
       -7.465213 -41.0042 4.80437 -7.5239143
000130 62 31 32 c2 40 a6 d3 3f ce a8 38 c1 47 29 52 42
       -44.548225 1.653511 -11.541212 52.54031
000140 b4 e3 35 c2 3f d2 d6 c1 99 5d f7 c1 24 3c 9b c0
       -45.472366 -26.85266 -30.920702 -4.8510914
000150 99 a6 7b c1 91 88 0e c1 ec 87 17 41 da ff 6e c2
       -15.728173 -8.908341 9.470684 -59.749855
000160 50 54 b6 c1 2a 4d 44 c2 ae 3a 31 c2 f4 6a 90 c0
       -22.791168 -49.075356 -44.307304 -4.513056
000170 10 0e b7 c1 9b 3b 2b c2 6c c0 4b 41 21 21 2c c0
       -22.881866 -42.80821 12.734478 -2.689522
