results/02-25-2019/lr-1/model/decoder.pth (torch_old, 1478 bytes, 6 tensors)

lstm.weight_ih_l0 f4 [12, 3]
000000 50 a2 44 40 f6 11 d3 42 ff 63 99 bd cf a7 e3 be
       3.0724068 105.53508 -0.07489776 -0.44463965
000010 da 5a 0c 41 4d 93 34 40 cf 84 fb 40 82 de ee 41
       8.772181 2.8214905 7.859962 29.858646
000020 da d0 f3 3f 92 f8 22 41 eb 42 cc 40 1a e0 80 bf
       1.9048111 10.185686 6.3831687 -1.006839
000030 1c d6 01 bf 86 cb 15 40 45 28 3b 40 4f 8b a9 be
       -0.5071733 2.340547 2.9243329 -0.33114097
000040 a6 7a 75 40 dc ec d3 3f 1a d1 9f c0 fb 62 87 c1
       3.8356109 1.6556659 -4.994275 -16.92333
000050 53 41 cd 3f 3c f0 17 bf bd 8b e4 40 ee 5a c9 bf
       1.603556 -0.59350944 7.142058 -1.5730875
000060 61 c9 a9 3f bc c7 da c0 91 ab 93 bf 87 c9 36 41
       1.3264581 -6.8368816 -1.1536733 11.424201
000070 74 7f 18 42 dc 9e 3c bf 3b 6e da c0 7a 2e 94 41
       38.124466 -0.736799 -6.825956 18.522694
000080 78 79 f0 40 b2 62 e7 40 ed bf f3 41 6a 81 16 40
       7.5148277 7.230798 30.468714 2.3516488

lstm.weight_hh_l0 f4 [12, 3]
000000 e4 95 12 c1 75 ec 8c c1 bf 69 45 41 4e 8a cb c0
       -9.161594 -17.615458 12.338317 -6.360633
000010 2e 3c c9 3f 0f ae 84 be f1 29 43 40 6a 1f aa 41
       1.572149 -0.25914046 3.049435 21.265339
000020 2e c2 bc 3f 4f ef 89 c0 f3 20 be bf 45 ef ec be
       1.4746759 -4.3104625 -1.4853805 -0.46276298
000030 3a e8 35 3e 2c 09 24 40 e5 09 a9 3f d3 95 7e 40
       0.17764369 2.5630598 1.3206145 3.9778945
000040 09 a9 68 40 21 62 1f 40 74 4f 3c 41 27 f0 a3 c0
       3.635317 2.4903643 11.769398 -5.1230655
000050 78 2d 45 c1 ee 76 90 3e 62 3e 2b 3e 06 71 fa bf
       -12.323601 0.28215736 0.16723016 -1.9565742
000060 e1 3c bd c0 72 64 08 c0 77 92 fd c0 a3 d5 21 41
       -5.9136815 -2.1311307 -7.924129 10.114657
000070 90 d4 31 40 b0 9a 4c c0 4d 07 7a 41 a5 0a 98 40
       2.7785988 -3.1969414 15.626782 4.7512994
000080 b2 6b 45 40 ac c9 ed c0 cc 81 9d 41 e9 e7 1c 40
       3.0846982 -7.430868 19.688377 2.4516547

lstm.bias_ih_l0 f4 [12]
000000 8f bc 9e 3e 18 6c 08 c1 7e 73 ac c0 9f d2 e9 3d
       0.31003234 -8.52639 -5.389098 0.11417126
000010 ef ed 2f 41 7e 76 35 c0 9e 67 18 c1 96 d2 65 40
       10.995589 -2.8353572 -9.525297 3.5909781
000020 0e 43 91 40 93 e9 85 41 5e 1d 0b c1 fe aa 2d c1
       4.5394354 16.73905 -8.69467 -10.854246

lstm.bias_hh_l0 f4 [12]
000000 bb a3 87 3e 9e 9f 07 c1 bc 21 b2 c0 7a c5 fb bd
       0.26492104 -8.476469 -5.566618 -0.12293525
000010 83 f7 23 41 42 33 3a c0 73 b4 1f c1 62 fa 5a 40
       10.247928 -2.9093785 -9.981555 3.4215322
000020 79 04 aa 40 ab 8c 83 41 a1 00 01 c1 a8 8d 3c c1
       5.313046 16.443686 -8.062654 -11.784584

out.weight f4 [8, 3]
000000 32 83 26 3d 71 9e 60 c0 f5 e8 41 bd 58 47 74 c1
       0.04065246 -3.5096705 -0.047341306 -15.267418
000010 aa 7e a4 c0 3a fc 27 40 6e 8b ce c1 dc ba d7 c0
       -5.140462 2.6247697 -25.81808 -6.74156
000020 8d 8e 6f 40 28 a3 21 3f bf f9 4c bf b7 19 50 c0
       3.7430756 0.6313958 -0.8006858 -3.2515695
000030 67 a3 d4 3e ae 20 0d c0 f9 fe 16 bf cd 18 41 c0
       0.41530916 -2.2051196 -0.5898281 -3.0171387
000040 b1 8d f4 c0 53 b0 01 40 1d af 6f bf fe 2e 88 3f
       -7.6422963 2.026387 -0.93626577 1.0639341
000050 1d 99 c1 bf 71 ce a0 3f 89 02 b6 41 8c a4 25 41
       -1.5124851 1.2563001 22.751238 10.352673

out.bias f4 [8]
000000 20 5e 5a 3f 1f 40 2d 3f 9e f3 04 3f 4e a1 cd 3e
       0.85299873 0.67675966 0.5193423 0.40162128
000010 f0 89 26 3f 88 14 ac 3e fd 4e 86 3e a8 a8 a6 3e
       0.65054226 0.33609414 0.26232138 0.3255055
