results/02-25-2019/lr-1/model/encoder.pth (torch_old, 1349 bytes, 4 tensors)

lstm.weight_ih_l0 f4 [12, 8]
12.1212635 4.0626445 2.7412868 -0.28055364 1.5265509 1.1691906 10.666217 1.2244322
3.574353 2.4054635 3.2456746 3.3577127 2.630861 1.078087 1.2485813 1.9500866
-4.7875376 -8.331098 -3.1669602 -6.513109 -3.9725225 -2.23629 -6.7045918 -1.3310972
2.6345384 8.635121 -5.571151 2.790153 5.912975 -2.651451 -0.6120943 1.6653017
7.801913 4.1275873 5.4933553 5.0621185 3.407492 3.0437005 4.718646 6.961721
-2.1735137 -2.6024368 -3.5608253 -2.7654445 -3.0097408 1.3620914 -2.7514083 -3.0528674
-7.8433237 -6.313452 -5.379828 -2.5539508 -3.560882 -0.20278376 -5.7823644 -2.164701
-4.5949707 -2.5300045 -4.4067035 -4.712062 -2.786309 -0.31313282 -2.9513345 -3.9085875
1.1160398 0.6417729 -2.9600158 -0.37190402 0.30486882 -3.4429076 -2.6034603 1.1475179
-11.620467 -7.50355 -3.8657482 -14.883715 1.0204186 -5.2123637 -6.33021 -1.8352468
25.649458 -7.1389666 -11.329324 5.993568 21.15831 0.10727049 14.380527 18.110233
-3.070513 -3.8114433 -3.2390685 -3.7442222 0.39069617 -0.4434135 -3.881298 -2.450646
00000000: b2f0 4141 2f01 8240 3e71 2f40 baa4 8fbe
00000010: 0566 c33f 0aa8 953f d3a8 2a41 32ba 9c3f
00000020: 33c2 6440 1df3 1940 22b9 4f40 c4e4 5640
00000030: 0760 2840 c1fe 893f 83d1 9f3f 709c f93f
00000040: 8233 99c0 2d4c 05c1 7aaf 4ac0 646b d0c0
00000050: cf3d 7ec0 601f 0fc0 048c d6c0 6561 aabf
00000060: 479c 2840 7529 0a41 de46 b2c0 de91 3240
00000070: 1737 bd40 60b1 29c0 36b2 1cbf 9b28 d53f
00000080: 45a9 f940 3215 8440 91c9 af40 e0fc a140
00000090: 5914 5a40 fdcb 4240 26ff 9640 6bc6 de40
000000a0: d91a 0bc0 538e 26c0 90e4 63c0 0bfd 30c0
000000b0: 989f 40c0 0359 ae3f 1317 30c0 2e62 43c0
000000c0: 82fc fac0 cc07 cac0 8d27 acc0 ee73 23c0
000000d0: 7ee5 63c0 8ca6 4fbe 2109 b9c0 768a 0ac0
000000e0: 000a 93c0 98eb 21c0 b703 8dc0 36c9 96c0
000000f0: e352 32c0 f252 a0be aae2 3cc0 4c26 7ac0
00000100: 64da 8e3f 3b4b 243f e670 3dc0 346a bebe
00000110: c417 9c3e 9958 5cc0 189f 26c0 dee1 923f
00000120: 6fed 39c1 151d f0c0 6b68 77c0 b223 6ec1
00000130: 149d 823f afcb a6c0 1591 cac0 5ee9 eabf
00000140: 1732 cd41 6a72 e4c0 e944 35c1 4fcb bf40
00000150: 3844 a941 a1b0 db3d a316 6641 c2e1 9041
00000160: 4983 44c0 b0ee 73c0 e64c 4fc0 56a1 6fc0
00000170: 5409 c83e 1807 e3be 3067 78c0 62d7 1cc0

lstm.weight_hh_l0 f4 [12, 3]
2.4810288 -1.0325744 1.821663 -0.40126947 -7.042267 -2.9416203 0.47848508 5.642772
3.9597878 2.3526187 -9.101576 -0.19654012 -0.30949733 -5.764463 -3.5747313 0.109595805
2.8006887 2.2104502 -0.18635139 3.2736754 -0.42132804 0.2332645 4.4118567 0.24150935
1.6480677 1.1078935 -0.9793768 5.5353723 -9.11436 1.584078 6.749191 -27.970331
0.3776984 0.44280353 4.485926 2.4654856
00000000: 2dc9 1e40 662b 84bf 412c e93f 3173 cdbe
00000010: 405a e1c0 8243 3cc0 fffb f43e 9791 b440
00000020: 2a6d 7d40 4e91 1640 0ea0 11c1 d041 49be
00000030: 6f76 9ebe 7b76 b8c0 66c8 64c0 c473 e03d
00000040: 7c3e 3340 0478 0d40 e6d2 3ebe e683 5140
00000050: 4fb8 d7be e4dc 6e3e ee2d 8d40 3a4e 773e
00000060: e2f3 d23f 74cf 8d3f 70b8 7abf c521 b140
00000070: 6bd4 11c1 11c3 ca3f 5ff9 d740 3dc3 dfc1
00000080: af61 c13e 25b7 e23e b58c 8f40 84ca 1d40

lstm.bias_ih_l0 f4 [12]
11.341189 6.7574005 -7.4719486 3.720359 2.542625 -3.8987048 -3.87244 -5.2852187
-0.83141255 -16.554758 47.66595 -4.311653
00000000: 8375 3541 a03c d840 341a efc0 5d1a 6e40
00000010: 5eba 2240 6184 79c0 0fd6 77c0 8320 a9c0
00000020: 74d7 54bf 2570 84c1 efa9 3e42 10f9 89c0

lstm.bias_hh_l0 f4 [12]
11.531986 7.118044 -7.473108 4.3909216 2.8548229 -3.70821 -3.0571916 -4.505565
-0.525093 -16.383797 48.35564 -4.4759064
00000000: 0483 3841 04c7 e340 b323 efc0 6e82 8c40
00000010: 6bb5 3640 5053 6dc0 07a9 43c0 972d 90c0
00000020: 7f6c 06bf 0412 83c1 2d6c 4142 a03a 8fc0
